Python/SpeechRecognition/DeepSpeech/models/autonom_manual.tflite (tflite, 10816 bytes, 4 tensors)

sequential/dense/BiasAdd/ReadVariableOp f4 [20]
0	0x3e1de1de	0.15418193
1	0x3db6c3d8	0.08924073
2	0xbebecf15	-0.37267366
3	0xbeb57dc8	-0.35447526
4	0xbeacfcaf	-0.33786532
5	0xbea07098	-0.31335902
6	0x3ec0064f	0.37504813
7	0xbeba8b5f	-0.36434457
8	0xbe5d1010	-0.21588159
9	0xbe816602	-0.25273138
10	0x3ebdd549	0.37076786
11	0xbdfd6386	-0.12372498
12	0xbdfb958e	-0.12284385
13	0xbeb5e747	-0.35528013
14	0xbe73196a	-0.23740163
15	0xbeb0f02d	-0.3455824
16	0xbec98ff7	-0.3936765
17	0xbe793bc2	-0.24339202
18	0xbeb64107	-0.35596487
19	0xbea26b85	-0.31722656

sequential/dense_1/BiasAdd/ReadVariableOp f4 [2]
0	0xbc9a1748	-0.01880993
1	0x3c9a1746	0.018809926

sequential/dense/MatMul f4 [20, 116]
0	0x3ea52c55	0.32260385
1	0x3daf990b	0.085741125
2	0xbe6efa04	-0.23337561
3	0xbe87de78	-0.26536918
4	0x3d8b1e61	0.06792904
5	0x3dd47095	0.10373036
6	0x3e827e0d	0.25486794
7	0x3e67a1be	0.22620293
8	0xbc7113b7	-0.014714173
9	0xbedd3b13	-0.43209133
10	0x3ec6936a	0.38784343
11	0xbe4ad54e	-0.19807932
12	0x3e38cc5e	0.1804671
13	0xbe8792b2	-0.26479107
14	0x3e91c7c4	0.28472722
15	0x3dbc3190	0.09189141
16	0x3eb23210	0.3480382
17	0xbe7e20d7	-0.24817215
18	0x3da867ed	0.08222947
19	0x3de6d3a5	0.11270837
20	0x3c47a745	0.012185876
21	0xbe8858ae	-0.26630157
22	0x3eaba91b	0.33527455
23	0xbc60c873	-0.013719666
24	0x3e4219cc	0.18955153
25	0x3e2a32b0	0.16620898
26	0x3ef578b3	0.4794365
27	0x3ea86aee	0.3289408
28	0xbe9b5844	-0.3034078
29	0xbeb91d56	-0.36155194
30	0x3c4e6b48	0.01259882
31	0xbeebafb7	-0.46032497
32	0x3e5a541d	0.21321149
33	0xbe71b03e	-0.23602387
34	0xbe2ff7d5	-0.17184384
35	0xbe5adf37	-0.21374212
36	0x3dc9b353	0.098486565
37	0x3e99e505	0.3005754
38	0xbe041126	-0.12897167
39	0xbe9007c0	-0.28130913
40	0xbdc756a3	-0.097333215
41	0x3c51bbb7	0.012801102
42	0xbd9394b8	-0.072061
43	0x3e2d4438	0.16920555
44	0x3e56bbea	0.20970121
45	0x3c60d454	0.013722498
46	0x3deb7b1e	0.11498092
47	0x3e858841	0.26080516
48	0xbe6b01f1	-0.2294996
49	0xbc78f0bf	-0.015194117
50	0x3e94e5fe	0.2908172
51	0x3e2389c0	0.15970516
52	0x3ee492af	0.4464316
53	0xbd97bab7	-0.0740866
54	0xbe931de7	-0.2873375
55	0x3d2e2954	0.042519882
56	0x3da770d6	0.081758186
57	0xbe3605ae	-0.17775604
58	0xbd56d261	-0.052446727
59	0x3e2273ba	0.15864459
60	0x3e3978e5	0.18112524
61	0x3ea1869a	0.31548005
62	0xbe0c10da	-0.13678303
63	0xbeb2c152	-0.34913117
64	0xbd6fe726	-0.05857005
65	0xbda39a60	-0.07988429
66	0xbe2abc98	-0.16673505
67	0x3eb357e0	0.3502798
68	0xbeb9f5b2	-0.36320263
69	0x3be50be5	0.0069899433
70	0xbe32eb24	-0.17472512
71	0x3d7e4a56	0.06208261
72	0x3ea7dfb7	0.32787868
73	0xbeb8315e	-0.35975164
74	0xbd05d8ad	-0.03267734
75	0xbe85f7c8	-0.26165605
76	0xbf0a33f6	-0.53985536
77	0x3e954d4f	0.29160544
78	0xbea665b3	-0.32499465
79	0x3cc16948	0.023609772
80	0x3e989a42	0.2980519
81	0xbea47b58	-0.32125354
82	0x3e989591	0.2980161
83	0x3c8817bc	0.01661288
84	0xbc8093f3	-0.015695548
85	0x3efdb39e	0.495511
86	0x3e1eff09	0.15526976
87	0xbebbeecf	-0.36705634
88	0x3ef918ca	0.48651725
89	0x3e0223e3	0.12709002
90	0x3ea7a614	0.32743895
91	0xbeb02b55	-0.3440806
92	0xbdc62646	-0.09675269
93	0x3b37d2af	0.0028049161
94	0x3e4cb9c2	0.19992736
95	0x3d694e10	0.05695921
96	0xbebcc623	-0.36869916
97	0xbe34d707	-0.17660151
98	0xbea7d136	-0.32776803
99	0x3e856fe0	0.26061916
100	0x3efe892b	0.49714026
101	0xb88a6292	-6.598713e-05
102	0x3e8a4f9e	0.27013868
103	0x3ea5f2c0	0.32411766
104	0x3e9c9a1d	0.3058633
105	0x3e4beb6f	0.1991403
106	0xbe9c9670	-0.30583525
107	0x3ebe86e8	0.372123
108	0x3e95861f	0.2920389
109	0x3ce1e47f	0.027574776
110	0x3e2fa612	0.17153195
111	0xbeca1419	-0.39468458
112	0x3e9d94f1	0.30777696
113	0x3dd06f93	0.10177531
114	0x3bd6cf18	0.006555449
115	0xbd86cdba	-0.06582208
116	0xbea0b940	-0.31391335
117	0xbd942f79	-0.07235617
118	0x3eaf8538	0.34281325
119	0x3d38a3d9	0.045078132
120	0x3e80da52	0.25166565
121	0xbe8b70ba	-0.2723444
122	0xbe3a5978	-0.18198192
123	0xbe6e5814	-0.23275787
124	0xbe60f87a	-0.21969786
125	0x3e9896ca	0.29802543
126	0xbd920c59	-0.071312614
127	0xbe09413e	-0.13403794
128	0x3d4ba4d2	0.04971773
129	0x3dcdb04d	0.10043392
130	0xbe8687e9	-0.26275566
131	0xbce9ff90	-0.028564245
132	0xbdef0881	-0.11671544
133	0x3e75e675	0.24013694
134	0xbdec309b	-0.11532708
135	0xbea209a7	-0.3164799
136	0xbe862a8a	-0.2620433
137	0xbda2f2fd	-0.079565026
138	0xbd6db7be	-0.05803656
139	0xbdb8df50	-0.090269685
140	0xbdb68d49	-0.08913667
141	0xbea3ee67	-0.32017824
142	0xbe011d47	-0.12608825
143	0xbe1f33b8	-0.15547073
144	0x3e07ab17	0.1324886
145	0xbd960bd5	-0.073264755
146	0xbeb9889a	-0.3623703
147	0x3da94db7	0.08266776
148	0xbcfa7f3f	-0.030578254
149	0xbe301dbd	-0.17198844
150	0x3e509daa	0.20372644
151	0xbd7d5ebf	-0.061857935
152	0x3de51832	0.111862555
153	0xbe1c2f16	-0.15252337
154	0x3e69f9dd	0.22849222
155	0x3dd97339	0.1061768
156	0x3d6d54a0	0.057942033
157	0xbe01da66	-0.12680969
158	0x3aa7e5fe	0.0012809632
159	0xbed2e784	-0.41192257
160	0xbdf86952	-0.12129463
161	0xbebc769a	-0.36809236
162	0xbd2b1a1b	-0.041772943
163	0xbe0368bc	-0.12832922
164	0x3d7f5bb8	0.06234333
165	0x3d445a57	0.047937717
166	0xbeb7c0cf	-0.3588929
167	0xbd51d3a3	-0.051227223
168	0xbebf4da5	-0.37363926
169	0x3e146aa0	0.14493799
170	0x3b2f38f4	0.0026736828
171	0xbea79376	-0.3272969
172	0xbe4aa496	-0.19789347
173	0xbdb959ab	-0.09050306
174	0xbea319c2	-0.3185559
175	0xbdc91032	-0.09817542
176	0xbf008fb7	-0.5021929
177	0xbebc26c8	-0.36748338
178	0x3d6b7337	0.057482924
179	0xbc9d2abd	-0.019185418
180	0xbe132960	-0.14371252
181	0x3e1fdb4c	0.15610999
182	0x3e9dc13b	0.30811486
183	0xbe8c1da9	-0.2736638
184	0x3d319daf	0.04336327
185	0x3d072ed1	0.033003632
186	0xbdeef99c	-0.11668703
187	0xbe1e0a19	-0.1543354
188	0xbe86aaf3	-0.263023
189	0x3d909ce3	0.07061174
190	0x3e99d991	0.30048802
191	0x3e163a61	0.14670707
192	0x3e804594	0.25053084
193	0xbeefeae2	-0.4685889
194	0x3e961b12	0.29317528
195	0xbacb4647	-0.0015508615
196	0xbe7a7332	-0.24458006
197	0x3e890d75	0.2676808
198	0x3e05a49a	0.13051072
199	0x3e31c466	0.17360076
200	0xbc7f3e11	-0.015578763
201	0xbebfc113	-0.3745199
202	0xbe93b14f	-0.28846213
203	0x3e779b9c	0.24180454
204	0xbeaa3572	-0.332439
205	0xbebfb04b	-0.37439188
206	0xbeb2f98b	-0.3495601
207	0x3e8da07e	0.27661508
208	0x3ca7a5d2	0.020464811
209	0xbd8a6031	-0.06756628
210	0xbe0f2b6e	-0.13981411
211	0xbc730a23	-0.01483396
212	0x3e777f98	0.24169767
213	0xbc50fe0d	-0.012755883
214	0x3d1fd6cb	0.039023202
215	0xbeeebdc1	-0.46629146
216	0xbed03318	-0.4066398
217	0xbd45d9d6	-0.048303448
218	0xbebcde18	-0.36888194
219	0xbbfc96e8	-0.007708419
220	0xbec1579b	-0.3776215
221	0xbd583556	-0.05278524
222	0x3e8ddacb	0.27705988
223	0xbe927bf3	-0.2861019
224	0xbdc0408e	-0.09387313
225	0xbe858216	-0.2607581
226	0x3dfabc7b	0.12242981
227	0x3e609c29	0.2193457
228	0xbdace7db	-0.084426604
229	0x3c6b1288	0.01434768
230	0x3d10d3ec	0.035358354
231	0x3e6d3939	0.2316636
232	0xbd9f82fc	-0.07788655
233	0xbeabacc6	-0.33530253
234	0xbd8826f9	-0.066480584
235	0xbdb6c258	-0.08923787
236	0xbea71c15	-0.32638612
237	0xbd6268f1	-0.05527586
238	0xbe325da9	-0.17418541
239	0xbd81422d	-0.0631145
240	0xbea41c18	-0.32052684
241	0x3e04bcd5	0.12962659
242	0xbe6d4639	-0.23171319
243	0xbcb69167	-0.02228613
244	0xbe8534dd	-0.26016894
245	0xbe14bd44	-0.14525324
246	0xbbcc2b64	-0.0062307585
247	0xbe8c9a15	-0.27461305
248	0xbd1b5b1f	-0.037928697
249	0x3d4be53c	0.04977916
250	0xbe148a9b	-0.14505999
251	0xbdda426a	-0.10657199
252	0xbec5f4ab	-0.3866323
253	0xbe9e62e7	-0.30934832
254	0xbdad0afc	-0.08449361
255	0xbda18e22	-0.07888438

sequential/dense_1/MatMul f4 [2, 20]
0	0x3f6014b6	0.875316
1	0xbf547778	-0.82994795
2	0x3e46f13b	0.1942796
3	0x3f3c4a77	0.73551124
4	0x3c80802a	0.015686113
5	0xbe9eed5a	-0.3104046
6	0x3f1fe0bf	0.6245231
7	0x3e2205cd	0.15822525
8	0x3f2c6b81	0.6735154
9	0x3eecbfc8	0.46240067
10	0xbee74b1f	-0.451745
11	0xbe64779a	-0.2231125
12	0x3f49cf5c	0.7883203
13	0x3f28188b	0.6566245
14	0x3e9ca72a	0.30596286
15	0x3e9f9977	0.31171772
16	0x3e48581a	0.19564858
17	0xbf131cb8	-0.57465696
18	0xbe71e639	-0.23622979
19	0x3f0d3db0	0.5517225
20	0xbf1784e2	-0.5918714
21	0x3e17e1ac	0.1483218
22	0x3ed993cf	0.42495582
23	0xbe2a715a	-0.16644803
24	0x3ee11875	0.43963972
25	0x3e999416	0.29995793
26	0xbf70b435	-0.94024974
27	0x3eaeecca	0.3416503
28	0xbf0041b1	-0.5010024
29	0xbf044d25	-0.51680213
30	0x3f743b28	0.95402765
31	0x3f166e47	0.5876202
32	0xbf35b886	-0.70984685
33	0xbe56f1f5	-0.20990737
34	0xbf5120b2	-0.81690514
35	0xbf0eac20	-0.5573139
36	0x3d10da26	0.035364293
37	0x3c301549	0.010747262
38	0x3d866fe5	0.06564311
39	0xbef8b245	-0.4857351
