Python/SpeechRecognition/DeepSpeech/models/taskClassifierRNN.tflite (tflite, 229016 bytes, 18 tensors)

sequential_1/dense_2/BiasAdd/ReadVariableOp f4 [20]
000000 71 ff e3 3d 5c 34 ec 3d d3 75 3f 3e a2 1d e5 3d
       0.11132706 0.11533424 0.1869729 0.11187293
000010 cb 4f 18 3e 5f 50 94 3d f3 de 2b 3e c2 a6 04 3e
       0.14874189 0.07241892 0.16784267 0.12954238
000020 c9 66 bd 3c 49 64 18 3d 45 ff 24 3e ea 58 eb 3d
       0.0231203 0.037205014 0.16113003 0.114915684
000030 b8 ca e3 bb 84 77 94 3d f6 45 04 3e 54 3b e9 3d
       -0.006951656 0.07249358 0.12917313 0.11388269
000040 31 f2 db 3d db 79 ea 3d 46 79 ca 3d 39 72 0f 3e
       0.10739554 0.11449023 0.09886412 0.14008416

sequential_1/lstm/TensorArrayV2_1 f4 [1, 1, 64]
000000 00 00 00 00 00 00 00 00 00 00 00 00 00 00 00 00
       0.0 0.0 0.0 0.0
000010 00 00 00 00 00 00 00 00 00 00 00 00 00 00 00 00
       0.0 0.0 0.0 0.0
000020 00 00 00 00 00 00 00 00 00 00 00 00 00 00 00 00
       0.0 0.0 0.0 0.0
000030 00 00 00 00 00 00 00 00 00 00 00 00 00 00 00 00
       0.0 0.0 0.0 0.0
000040 00 00 00 00 00 00 00 00 00 00 00 00 00 00 00 00
       0.0 0.0 0.0 0.0
000050 00 00 00 00 00 00 00 00 00 00 00 00 00 00 00 00
       0.0 0.0 0.0 0.0
000060 00 00 00 00 00 00 00 00 00 00 00 00 00 00 00 00
       0.0 0.0 0.0 0.0
000070 00 00 00 00 00 00 00 00 00 00 00 00 00 00 00 00
       0.0 0.0 0.0 0.0
000080 00 00 00 00 00 00 00 00 00 00 00 00 00 00 00 00
       0.0 0.0 0.0 0.0
000090 00 00 00 00 00 00 00 00 00 00 00 00 00 00 00 00
       0.0 0.0 0.0 0.0
0000a0 00 00 00 00 00 00 00 00 00 00 00 00 00 00 00 00
       0.0 0.0 0.0 0.0
0000b0 00 00 00 00 00 00 00 00 00 00 00 00 00 00 00 00
       0.0 0.0 0.0 0.0
0000c0 00 00 00 00 00 00 00 00 00 00 00 00 00 00 00 00
       0.0 0.0 0.0 0.0
0000d0 00 00 00 00 00 00 00 00 00 00 00 00 00 00 00 00
       0.0 0.0 0.0 0.0
0000e0 00 00 00 00 00 00 00 00 00 00 00 00 00 00 00 00
       0.0 0.0 0.0 0.0
0000f0 00 00 00 00 00 00 00 00 00 00 00 00 00 00 00 00
       0.0 0.0 0.0 0.0

sequential_1/output/BiasAdd/ReadVariableOp f4 [6]
000000 7a 75 d7 3d aa 95 7e bc 55 31 bc b8 92 9d c0 bd
       0.10520454 -0.015538612 -8.9737274e-05 -0.09405054
000010 7e 45 fb 3c 6d 4c 04 3c
       0.030672785 0.008074862

sequential_1/lstm/lstm_cell/MatMul_7 f4 [1, 64]
000000 00 00 00 00 00 00 00 00 00 00 00 00 00 00 00 00
       0.0 0.0 0.0 0.0
000010 00 00 00 00 00 00 00 00 00 00 00 00 00 00 00 00
       0.0 0.0 0.0 0.0
000020 00 00 00 00 00 00 00 00 00 00 00 00 00 00 00 00
       0.0 0.0 0.0 0.0
000030 00 00 00 00 00 00 00 00 00 00 00 00 00 00 00 00
       0.0 0.0 0.0 0.0
000040 00 00 00 00 00 00 00 00 00 00 00 00 00 00 00 00
       0.0 0.0 0.0 0.0
000050 00 00 00 00 00 00 00 00 00 00 00 00 00 00 00 00
       0.0 0.0 0.0 0.0
000060 00 00 00 00 00 00 00 00 00 00 00 00 00 00 00 00
       0.0 0.0 0.0 0.0
000070 00 00 00 00 00 00 00 00 00 00 00 00 00 00 00 00
       0.0 0.0 0.0 0.0
000080 00 00 00 00 00 00 00 00 00 00 00 00 00 00 00 00
       0.0 0.0 0.0 0.0
000090 00 00 00 00 00 00 00 00 00 00 00 00 00 00 00 00
       0.0 0.0 0.0 0.0
0000a0 00 00 00 00 00 00 00 00 00 00 00 00 00 00 00 00
       0.0 0.0 0.0 0.0
0000b0 00 00 00 00 00 00 00 00 00 00 00 00 00 00 00 00
       0.0 0.0 0.0 0.0
0000c0 00 00 00 00 00 00 00 00 00 00 00 00 00 00 00 00
       0.0 0.0 0.0 0.0
0000d0 00 00 00 00 00 00 00 00 00 00 00 00 00 00 00 00
       0.0 0.0 0.0 0.0
0000e0 00 00 00 00 00 00 00 00 00 00 00 00 00 00 00 00
       0.0 0.0 0.0 0.0
0000f0 00 00 00 00 00 00 00 00 00 00 00 00 00 00 00 00
       0.0 0.0 0.0 0.0

lstm_cell/MatMul_4 f4 [64, 64]
000000 c0 25 ad bc 8e 77 88 3c 32 64 e6 3d 5c 66 d9 bd
       -0.021136165 0.01665857 0.112495795 -0.106152266
000010 78 fd 72 bd 9b 96 5b 3d 18 eb 97 bd 70 25 65 3d
       -0.059323758 0.053610425 -0.074178874 0.055943906
000020 b7 cf 12 3d 69 d2 6d 3d 0e 16 58 3d 60 99 37 3c
       0.035842624 0.05806199 0.052755408 0.011206001
000030 5c df d2 bb f4 c8 6f 3d d0 c8 17 bb bd 54 99 bc
       -0.006435318 0.058541253 -0.0023160465 -0.018717164
000040 0a 08 2e 3d a7 e6 ae bd 00 a7 11 3b 32 c8 89 bd
       0.042488135 -0.08540087 0.0022224784 -0.06727637
000050 3b 6f 9b 3d fc e6 c4 bd 8c 54 c7 bd 26 a3 83 bc
       0.07589575 -0.09614369 -0.09732923 -0.016069006
000060 36 db 0e 3d d0 6c 70 bc 64 16 96 3d c8 10 36 bc
       0.034877025 -0.01467438 0.073284894 -0.011112399
000070 50 51 ea 3c 98 04 e7 bc f5 ba f8 bd c0 a4 3f 3b
       0.028603226 -0.028200433 -0.12145034 0.0029242486
000080 dd 6f 74 bd 52 d5 57 3d 56 ae 79 3d fe df 3f 3d
       -0.059676994 0.052693672 0.060957275 0.046844475
000090 99 8a ac bd 56 8e 3f 3d 24 50 28 3d 1c e7 e1 3c
       -0.08424873 0.0467666 0.041092053 0.027576022
0000a0 34 31 33 3d 7c ba 2f 3d f5 d6 c8 ba 07 f8 6f bd
       0.043748096 0.042902455 -0.0015322851 -0.058586147
0000b0 0c f9 3a 3c 2e 34 16 3d 81 70 f3 3d 95 9b 69 3d
       0.011411916 0.036670856 0.11886693 0.05703314
0000c0 7c 1d 81 3c 94 f6 ea 3c 5f 2e 24 3e 3e d8 de 3d
       0.01576113 0.02868203 0.16033314 0.10881089
0000d0 17 20 8b 3d 8c 58 67 bd dd 87 7b 3d ed 95 cf 3c
       0.0679323 -0.05648093 0.061408866 0.025340045
0000e0 73 b1 28 bd cc 25 62 bd 68 5d e1 bd 35 27 e5 bd
       -0.041184854 -0.055211827 -0.11004144 -0.11189119
0000f0 50 4a 34 bd 4f a5 75 bc de 2a 13 bc e3 0d d9 3d
       -0.044016182 -0.014993026 -0.008982388 0.10598352
000100 a8 ff 76 bc a0 60 1f be d5 44 b7 3d 72 07 49 3c
       -0.015075602 -0.15564203 0.089486755 0.0122698415
000110 f9 f8 e8 bd e1 95 5a 3d 6b 4c 1e bd 2b 7b 46 bd
       -0.11375613 0.053365592 -0.038647097 -0.048457306
000120 de 73 0b 3d e8 aa cc 3a d0 4f 9f bd ec 3a f9 3c
       0.034046046 0.0015614899 -0.07778895 0.030423604
000130 21 64 70 3d 15 da 44 3d 5f 3f a8 bd d8 09 22 bc
       0.05868924 0.04805954 -0.08215212 -0.009890042
000140 42 5a c3 bc 1e cb 93 ba 21 bc 5d 3d 8e 7a 3c bc
       -0.02384675 -0.0011275744 0.05413449 -0.011503829
000150 00 8b 03 bd 5a 94 8b bd 3e 91 6d bc fd 1a 10 3d
       -0.032114983 -0.06815405 -0.0144999605 0.035181988
000160 c4 6c e4 3d 29 66 bd 3d 04 96 0b bd 49 54 29 bd
       0.11153558 0.09248001 -0.034078613 -0.041340146
000170 3c ad 02 3d 38 62 d5 3c 4d 96 46 3d be 0a d0 bb
       0.03190349 0.02604781 0.04848318 -0.006348937
000180 58 4c 65 bd 5f 44 86 bd 82 c5 8e bd 69 ca 52 3c
       -0.05598101 -0.065560095 -0.069712654 0.012865641
000190 b5 c3 7e 3d dd 90 22 bc d5 d7 98 3c 9c 21 39 3b
       0.06219836 -0.009922233 0.018657604 0.0028248793
0001a0 1e 99 75 3d dc 7c 38 bd 2c 8b 8e bd d8 38 2e 3d
       0.059960477 -0.04504095 -0.06960139 0.04253468
0001b0 d3 1d 73 3c 6a d5 55 bd 3a 7d 66 3c a1 65 ab 3c
       0.014838654 -0.05220548 0.014067942 0.020922484
0001c0 70 a6 87 3d 33 e1 a3 bd 0e 14 97 bb 75 43 65 bd
       0.06623542 -0.08001938 -0.004610545 -0.055972535
0001d0 a0 e3 6c bd 78 88 ef bb 7f b0 65 3d 77 7c 98 bd
       -0.057834268 -0.0073099695 0.056076523 -0.07445615
0001e0 fe 87 79 3c 4c 6f 0f 3c 0f 95 19 3d 7f a8 fc 3a
       0.015230177 0.008754563 0.03749567 0.001927629
0001f0 81 e4 2d bd 43 cb 18 3d f9 a1 2e be 01 23 5f 3d
       -0.042454246 0.03730322 -0.17053975 0.05447674
000200 6f 4a cb bd 9f b3 db bd 00 7f d3 bb 9f 9d 78 bd
       -0.099263065 -0.107276194 -0.0064543486 -0.060697194
000210 ca 2c 08 bd bc fd c5 3d 3e ee 91 3d 5a 36 fb 3c
       -0.03324584 0.096675366 0.07125519 0.030665565
000220 dd f6 8f 3d 32 62 a3 bd 0b 9f 67 3c b2 ff a0 bd
       0.07029507 -0.07977714 0.01413704 -0.0786127
000230 5e de 39 3e e4 07 09 3c 72 8b 82 bd ff d5 a2 3c
       0.18151233 0.008363698 -0.06374253 0.019877432
000240 50 3d ea 3c 0e 3c 3e 3e 17 a8 0c 3d 93 ad ef bb
       0.02859369 0.18577597 0.03433999 -0.007314393
000250 4c 06 62 3d cc 30 76 bd b0 b2 74 bd 49 5b 30 bd
       0.055181786 -0.06010513 -0.059740722 -0.043055806
000260 30 ea e6 bb 40 e7 90 bc 0f 4f d8 3c 34 95 eb bd
       -0.0070469603 -0.017688394 0.026404886 -0.115030676
000270 82 9f 36 bd 04 5f 0b 3e b6 a6 e7 3c 70 78 46 3c
       -0.044585712 0.13610464 0.028277736 0.0121136755
000280 ba 62 16 3e d2 22 0d bc 5d ca 6c 3d c0 05 25 bb
       0.14686099 -0.008614259 0.057810176 -0.002518043
000290 3c cc 33 3d 0d 6e 40 bd b9 1e 08 bc b1 9a 06 bd
       0.043895945 -0.046979953 -0.008308106 -0.03286237
0002a0 6e 0b d1 bc 41 b4 34 3e ce 49 6a 3d 31 5c ba 3c
       -0.025518145 0.17646886 0.057199292 0.022749038
0002b0 da 34 99 3d d2 fd 90 bd d7 06 99 3d e8 04 d2 bd
       0.07480784 -0.070796624 0.07472008 -0.10254842
0002c0 d9 4e 9d bd 7e 8a 82 3d 60 42 31 bd 81 54 bd bc
       -0.076810546 0.063740715 -0.04327619 -0.023111584
0002d0 55 e8 14 3c 46 b7 d1 3d 0a e3 d2 3d 38 62 49 bd
       0.009088595 0.10240035 0.102972105 -0.049165934
0002e0 70 0d a7 bd e5 8a c8 bc 75 87 63 bd aa 12 9c 3c
       -0.0815686 -0.024480293 -0.055549104 0.019051868
0002f0 27 bc 48 bd b0 10 46 bc 88 87 a7 bd 81 d3 34 3c
       -0.04900756 -0.01208894 -0.081801474 0.011036755
000300 9c 2b 06 be b2 25 1a 3c fc 4c 39 bd 00 ff 44 bd
       -0.13102573 0.009408401 -0.045239434 -0.04809475
000310 8e 86 22 bd b0 d2 ef 3a 4c 5f a3 3c 53 41 96 bc
       -0.039679103 0.0018297043 0.019942902 -0.018341696
000320 c0 ae 5e bb a8 bf ba 3c 77 37 b1 bd 1c ac 88 3c
       -0.003397867 0.022796467 -0.08653157 0.01668363
000330 91 60 16 bd b4 dc fd 3b bb 99 1d bc f2 93 2b 3d
       -0.036713187 0.007747257 -0.009619172 0.04188914
000340 3e 0c 56 3d 30 9b 11 bc 3b 7b f2 3c 5c b9 dd 3c
       0.05225777 -0.008887097 0.029599776 0.027065925
000350 0a a1 9b 3d 29 fd 89 3d 5c 09 b8 3d 24 ff 3c bc
       0.07599075 0.067377396 0.0898616 -0.01153544
000360 d8 fa 12 3e 66 b1 fa bc 46 43 0f bc 21 8e ec bc
       0.14353502 -0.030602168 -0.008744067 -0.028876366
000370 64 09 22 3e cc 56 96 3c e5 6b 7d bc 46 72 67 3c
       0.15823895 0.018351935 -0.015467619 0.014126366
000380 46 79 e9 bc c0 3a 38 3d 45 a6 22 3d a9 05 34 bc
       -0.02850021 0.044977903 0.03970935 -0.010987678
000390 00 91 55 bd 34 90 35 3d 7e ad c7 3d 8c 2f 99 bc
       -0.052140236 0.044326976 0.09749888 -0.01869943
0003a0 c0 d0 42 3d bc d8 0c 3d 2f d4 df bb d1 21 76 3d
       0.04756236 0.03438638 -0.006830714 0.060090844
0003b0 db 39 92 bc 42 fd 01 be c5 40 00 3e 49 34 6c 3d
       -0.017849853 -0.12694266 0.12524708 0.05766705
0003c0 3e 5c 0c bd c7 f9 9f 3d 1e 31 46 bd ed ee 11 bd
       -0.034267657 0.07811313 -0.048386686 -0.035628248
0003d0 c4 5f 5d 3c 5c 85 44 3d 20 3e 92 bb 80 63 ba bd
       0.013511602 0.047978744 -0.0044629723 -0.09101009
0003e0 c5 77 52 bd 88 9a 2f 3b a8 34 40 3c 00 9a 0e bb
       -0.051383752 0.0026794989 0.011731304 -0.0021759272
0003f0 f4 cf 1b 3b ec e7 8c bd f2 d0 a4 bc af d2 ed 3c
       0.0023775073 -0.06880173 -0.020119164 0.029031126

lstm_cell/MatMul_5 f4 [64, 64]
000000 c8 8c ee bc ee 4a 8e 3d f6 ad 9e 3b a1 f5 38 3d
       -0.029119864 0.069478855 0.004842515 0.045156125
000010 0c da 99 bd 10 2b db 3b dd a1 08 3c 1e 22 cc 3c
       -0.07512292 0.006688483 0.008339372 0.024918612
000020 d2 09 53 3d 1e 0d 8e bc 62 76 99 3c e1 74 63 bb
       0.051523037 -0.01734024 0.018733207 -0.0034707116
000030 fc 69 71 bd f2 1f 24 bd a8 f6 98 bd 14 f3 ec bb
       -0.058938965 -0.040069528 -0.07468921 -0.0072311256
000040 0a cc f3 3d 00 03 44 3d ea 07 5b bd 3a d9 93 bd
       0.11904152 0.047854424 -0.053474344 -0.07219167
000050 6c d3 b8 bd 3e c8 75 bd 45 a4 82 bd ed 38 e6 bc
       -0.090247005 -0.06000542 -0.06378988 -0.028103316
000060 02 45 55 bb 4f 4b cf bd 16 35 54 bb e9 c7 93 3c
       -0.0032542353 -0.10121786 -0.0032380274 0.01803966
000070 fc 0d 8b 3c 57 e5 66 bd 2f 57 9a bd a0 76 38 3d
       0.016974442 -0.05637106 -0.0753616 0.045035005
000080 ce 55 90 3d 50 78 4f 3b e9 9e e1 bc 7a a5 bf 3d
       0.07047616 0.0031657405 -0.027541595 0.09357734
000090 c3 34 e2 3c 71 b9 b6 3d e3 d8 18 bd a9 14 dd bc
       0.02761305 0.08922089 -0.037316214 -0.02698739
0000a0 49 35 91 bd e4 a5 89 3d 05 51 69 bc 5a 93 2f 3d
       -0.070902415 0.06721094 -0.014240508 0.042865135
0000b0 fe 47 a1 3c e8 7e a2 bb e8 44 93 3c ba 39 6a 3d
       0.019687649 -0.004958976 0.017977193 0.05718396
0000c0 b8 ea 8c 3d af 4d e8 bd 59 3f 5d 3d 32 22 91 bd
       0.068807065 -0.11342942 0.05401549 -0.070866
0000d0 aa 22 ed bc 09 18 5c 3d 88 2c 08 3d 3e e2 f5 bd
       -0.028947193 0.05373386 0.033245593 -0.12006043
0000e0 bf b5 12 bd 7c 5f 91 3c 89 fe cb bd 60 b0 d2 bd
       -0.035817858 0.017745726 -0.09960658 -0.10287547
0000f0 48 40 71 3d ee 80 bb 3d 47 7a 02 bc 46 81 c3 bd
       0.058899194 0.09155451 -0.0079637235 -0.09546141
000100 f7 d0 e4 bd 2d bc 2d 3e 8a 78 f1 bc b0 1c 7d 3d
       -0.111726694 0.16966315 -0.029476423 0.061794937
000110 fb 1d 86 3d e9 d6 2e 3d fb 29 12 3d 2a 9a 2c bd
       0.06548687 0.042685423 0.035684567 -0.04213921
000120 c4 6e 50 3d b9 27 6b 3c 1c c7 87 bb 3b 24 d3 bb
       0.050886884 0.014352732 -0.0041436087 -0.006443528
000130 13 b7 97 3d 5c 8a 14 3d 89 f0 ac 3c 41 45 b9 bd
       0.074079655 0.036264762 0.02111079 -0.09046412
000140 57 4d 4e bc 5c 57 78 bc 12 df ea 3d eb c6 df bc
       -0.012591681 -0.015157547 0.114683285 -0.027316531
000150 c4 aa 20 3d 5d 22 a1 bd ca 17 5b bd 04 46 0f 3d
       0.039225355 -0.078678824 -0.053489484 0.03497888
000160 80 48 71 3c 48 20 07 3d b4 2e 9f 3d 56 ca 95 3d
       0.014726758 0.03298977 0.0777258 0.07313983
000170 7f 6d b3 3d 40 57 9c 3d ad b4 bc bd ba 37 0d bc
       0.08761119 0.07633829 -0.09214149 -0.008619243
000180 e1 d1 06 3d 8e a0 0c 3d ed 09 09 bd 87 3a 9c bd
       0.032915 0.034332804 -0.03345673 -0.07628351
000190 26 ad 70 3d df fc 57 bd 61 c2 78 bd 51 9b f9 3c
       0.058758877 -0.05273139 -0.06073225 0.030469568
0001a0 02 d6 1e 3e 2b c0 23 be d0 08 b9 bb 89 c9 22 3e
       0.15511325 -0.15991275 -0.0056468025 0.15897192
0001b0 34 d9 ba bb e0 da 0e 3d d4 5b 31 bc 8f 4c de 3d
       -0.005702162 0.034876704 -0.010825116 0.10854446
0001c0 1a b5 10 3d ca f5 cd 3b d0 36 a0 bd a5 d0 9d 3d
       0.035328962 0.006285404 -0.07822955 0.077058114
0001d0 5f a6 67 bd c6 84 75 3d 88 d7 6f 3b f0 4c 1c bb
       -0.05655515 0.059941076 0.0036596972 -0.002384957
0001e0 2b 94 98 3d 65 23 78 bd 86 04 ae bc 3e f2 c7 bc
       0.07450136 -0.06058063 -0.021242391 -0.024407502
0001f0 cf 75 1a 3d 59 a4 eb bc 21 05 a6 3c 96 24 be 3d
       0.037710007 -0.02876489 0.020266118 0.09284322
000200 e5 3b 8f 3d e4 89 6e 3c bf 23 06 be 58 6e 32 bd
       0.06993846 0.014559243 -0.13099574 -0.043562263
000210 85 0e 31 3d 12 2a 08 3e f0 08 33 bc 82 00 46 bc
       0.043226738 0.13297299 -0.010927424 -0.012085082
000220 a6 6e 40 3c e5 0a 2a 3c f8 79 92 bd 9f a7 56 bc
       0.011745131 0.010378574 -0.0715217 -0.013101487
000230 56 5d 95 bc e5 5b cc 3c f6 21 29 3d 50 82 83 3b
       -0.018232983 0.024946162 0.041292153 0.004013337
000240 b0 8a 9d 3d 49 ec 93 bd 2c b6 52 3d 11 78 91 3c
       0.07692468 -0.07222802 0.051443264 0.017757447
000250 57 df fe 3c dc e4 6d bc 28 85 b5 bc ea 74 11 3d
       0.031112356 -0.014519896 -0.02215822 0.03551189
000260 46 bf 80 3d 4a 2b 7f bd 68 c2 66 3d c6 aa 32 bd
       0.062864825 -0.062297143 0.056337744 -0.043619893
000270 2e 75 4b bd bc 61 59 3c 9a 03 b3 bd da 41 06 bc
       -0.049672298 0.013267931 -0.08740921 -0.008194411
000280 a0 ef a8 3b b1 61 89 bd 74 44 81 3d 0c b7 cd bd
       0.0051555187 -0.06708086 0.063118845 -0.10044679
000290 1a f0 91 3d 7a f0 cf 3c 8c b1 23 3d 84 7e 54 bd
       0.07125874 0.025383223 0.039964244 -0.051878467
0002a0 52 8c 7d 3d 16 0e 97 3d d1 98 83 bc 6d a4 14 3e
       0.061901398 0.073757336 -0.01606408 0.14515848
0002b0 d8 ca ba bd 4a e4 e2 3c 50 17 2f bc 8b 39 d6 3c
       -0.091207206 0.027696747 -0.0106867105 0.026150486
0002c0 76 0a ce bd b2 56 83 3c 24 9f 89 3d b6 ad b3 3d
       -0.10060589 0.01603255 0.06719807 0.08773367
0002d0 2d 43 2f bd 8c bc 04 bd e6 95 fd bd aa 7c 12 bd
       -0.042788673 -0.032406375 -0.123821065 -0.03576342
0002e0 6c 31 e0 3b 72 46 0d 3d 64 1d 75 bd 3b b1 a8 bd
       0.006841829 0.03449101 -0.059842482 -0.08236929
0002f0 e6 c1 1e 3d 38 88 a8 3d a8 15 ed bb e7 d4 ce 3d
       0.038759135 0.08229107 -0.0072352476 0.10099202
000300 3d 2c 69 3d c9 7a 6f 3b 98 37 ff ba 59 06 01 bd
       0.056926955 0.0036541692 -0.0019471524 -0.031500194
000310 fd 6d 88 bd 60 20 da bd c7 4f e3 bc b1 3c ba bd
       -0.066616036 -0.10650706 -0.027748002 -0.09093607
000320 6e 21 e1 3c 6b 16 1b be 38 a6 0a 3b f8 b0 2e bd
       0.02748176 -0.1514527 0.0021156203 -0.04264924
000330 83 80 42 bd f2 b1 13 bd f3 e4 94 3c 5e f7 e5 3d
       -0.04748584 -0.036058374 0.018175578 0.11228822
000340 ff f7 7e 3d a4 38 23 bc 9c dd 61 3d 4f 41 1a bd
       0.062248226 -0.009962235 0.055142984 -0.03765994
000350 7e 17 9a bd 4f 19 4a bd 7d 6f 45 3c 91 32 07 bd
       -0.07524012 -0.049340542 0.012050507 -0.03300721
000360 22 70 11 bd f5 3b 2d be 50 78 8b bc a8 98 47 3c
       -0.03550733 -0.16917403 -0.017025143 0.012182392
000370 23 13 ab bd 41 7c c7 3d e9 b1 91 bd 1a af 41 bd
       -0.083532594 0.097404964 -0.07114012 -0.04728613
000380 c2 25 21 3d c4 0e 5a bd d4 a0 2c bd 09 fd 00 bd
       0.03934265 -0.053236738 -0.042145565 -0.031491313
000390 bc 33 d5 bc 44 f5 b8 bd 33 3a 9d 3d 0c b2 ab 3c
       -0.026025645 -0.09031156 0.07677116 0.020958923
0003a0 dc fa c7 bb 43 e6 e9 bc ee 0d 31 3d a0 3f 24 bb
       -0.006102903 -0.02855218 0.043226175 -0.0025062338
0003b0 b5 e1 78 3d 4d 4f da 3d ae 8f 6b bc f6 7c a4 bd
       0.060762126 0.10659657 -0.014377518 -0.08031647
0003c0 3e a3 fe 3d 2c 31 1c 3d 26 e5 68 bd e0 51 a4 3a
       0.1243348 0.03813283 -0.056859158 0.0012536608
0003d0 a8 ec 30 bb 70 79 81 bc e8 68 a2 3b 1e 09 b1 3d
       -0.0026996527 -0.015804976 0.0049563535 0.08644317
0003e0 22 7f 67 bd 4b d3 8f bd 1f 71 62 bd 62 90 a9 3c
       -0.056517728 -0.07022723 -0.055283662 0.02069873
0003f0 fe 63 54 3c 96 12 25 3e da 36 00 3d b6 95 57 3b
       0.012963293 0.16120371 0.03130231 0.003289563

lstm_cell/MatMul_6 f4 [64, 64]
000000 63 23 1c bd 47 3e 01 3d 80 81 0e bd 82 27 6d 3d
       -0.038119685 0.031553533 -0.03479147 0.057899006
000010 5c 4b 4f bd 5e 98 d9 bd c8 09 e2 3d b8 28 b4 bd
       -0.050608978 -0.10624765 0.11037022 -0.08796829
000020 b0 be 7a 3d 1e 2c b7 3b 33 20 9f bc 4b 6d 3b 3e
       0.06121701 0.005589976 -0.019424533 0.1830341
000030 8a ef f4 bd 70 a6 cf 3d 18 0c 1a 3d ef 61 19 bd
       -0.11959751 0.10139167 0.03760919 -0.037446912
000040 15 6d 2c bc b0 1b 46 3c 28 be a8 3b f8 44 10 bd
       -0.010524054 0.012091562 0.0051496215 -0.035222024
000050 b7 38 3c bd 9c 56 ea 3b 6c df 88 3d 5d f1 81 3c
       -0.045952525 0.007151438 0.06683239 0.015862161
000060 64 17 97 bb 4a 5d 58 3d 27 bd 26 3d f3 66 0a bd
       -0.0046109427 0.052823342 0.040707733 -0.033789586
000070 71 ae 2f 3d 68 c7 91 bc 32 d1 84 bd ce ab 8c bc
       0.04289097 -0.01779528 -0.06485213 -0.017171767
000080 80 9e 39 3c fa 59 ab 3c 56 6b b5 bd a8 ad aa bc
       0.011329293 0.020916928 -0.08858363 -0.020834759
000090 4a 94 c8 3c 72 11 25 bc 84 dd 86 3b c9 b8 99 bd
       0.024484772 -0.01007496 0.004115762 -0.07505948
0000a0 2a 2e 2d bd dc 35 73 3c 2f 98 3d bc e0 24 14 3b
       -0.042280354 0.014844384 -0.011571928 0.0022604987
0000b0 6c 8c ce bd c2 1f 80 bd a8 dd 92 bc 79 6d d0 bd
       -0.10085377 -0.06256057 -0.01792796 -0.1017713
0000c0 a7 25 84 3c 67 4e 21 3d c4 5f c6 bd a4 df 2a bd
       0.016131235 0.03938141 -0.096862346 -0.041717187
0000d0 06 cd 0b bc 99 1c ff bc 66 fd d6 3d 65 f4 14 be
       -0.008532768 -0.031141566 0.10497551 -0.14546354
0000e0 c1 1d 11 3e b6 96 43 bc 9e 24 0c bd cf b7 7f bd
       0.14171506 -0.011937788 -0.03421461 -0.062431153
0000f0 38 6e 69 bd a1 09 47 3d ea 3c 20 bd 66 a7 11 bc
       -0.05698988 0.048593167 -0.039120592 -0.008890009
000100 0b a8 3c 3c ac 71 c5 bd 6c a0 8f 3d c5 7c 02 3c
       0.011514674 -0.09640822 0.0701302 0.007964318
000110 c3 5b b2 bd db 81 9a 3d 24 84 41 bd 14 b7 85 3c
       -0.087089084 0.07544299 -0.04724516 0.01632265
000120 fc c3 62 bd b5 72 c1 3c e6 46 69 3d eb 30 00 bc
       -0.055362687 0.023614267 0.05695238 -0.007824163
000130 48 33 22 3e bd d9 9f 3b f2 5c a3 3d 2e 8c 95 bc
       0.15839875 0.0048782513 0.07976712 -0.01825532
000140 1a 40 90 bd 86 76 3b bd 8e 1d 8c bd be c9 35 bd
       -0.070434764 -0.04576733 -0.068415746 -0.04438185
000150 64 14 3b bd 17 7c 14 bd 7a ab 73 3d fd 5a 92 3d
       -0.045673743 -0.036251154 0.059489705 0.07146261
000160 d8 69 23 3c d0 42 03 3d 02 4e 53 bc 71 d3 7d 3d
       0.009973966 0.03204614 -0.0128970165 0.061969224
000170 57 7c 93 bd 5b 05 4c 3e b7 63 02 3d be 83 8e 3d
       -0.0720145 0.19923918 0.031833377 0.069587216
000180 34 4b 7f bd dc 7d 27 bc fb 1b 81 3b 2d 48 bb 3c
       -0.06232758 -0.010222878 0.003940103 0.022861565
000190 5c 20 0c bc e8 e4 16 3b a8 b3 34 3d c6 d7 b6 bd
       -0.008552637 0.0023024622 0.044116646 -0.08927874
0001a0 d9 5a 4d 3c 5b ae d8 bd 58 4b 63 3c 79 e9 bd bc
       0.012533867 -0.10580131 0.013872944 -0.023182618
0001b0 26 e5 ba bd b8 b3 27 bd 90 b3 57 bd 4a f4 3f bc
       -0.09125738 -0.040942878 -0.05266148 -0.011715958
0001c0 9d 79 d7 3c ba 93 b2 bd a9 24 59 bc 38 6a 18 bd
       0.026303107 -0.08719583 -0.013253369 -0.037210673
0001d0 9e 54 b5 bd 72 d5 d9 3c 29 2c b8 3d 61 42 51 3d
       -0.0885403 0.026591036 0.08992798 0.051088694
0001e0 7a 31 11 bc 09 c5 28 3d f7 dd c4 bc 97 6c 94 3d
       -0.008861894 0.041203532 -0.024031622 0.07247274
0001f0 ad 9e 14 3e 1a a4 ac 3d 8c d3 98 3c 85 91 86 bd
       0.14513655 0.084297374 0.01865556 -0.065707244
000200 9f a8 cc 3c 7a f8 c0 3d 5d 98 8f 3d f5 06 b7 3d
       0.024982749 0.09422393 0.07011483 0.08936874
000210 65 bf 03 bd 4b 2c 99 3c 8c 8d d4 3c 94 b7 06 bd
       -0.03216495 0.018697878 0.025946401 -0.032889917
000220 84 b4 0b bd 80 82 47 bd 6f f5 b0 bd 53 bd f7 bc
       -0.0341077 -0.04870844 -0.08640563 -0.030241644
000230 56 95 39 3c 0c 51 1c bd f4 1e cf 3c 2c ed 13 3d
       0.011327108 -0.03816323 0.025283314 0.036114857
000240 9e c4 08 bd 2f bf 1f 3d ad 68 95 3d 47 bd c9 bc
       -0.033390634 0.039000686 0.07295356 -0.024626387
000250 74 28 9d bd f4 d0 a0 bc 46 41 e9 bd 79 7e a2 bd
       -0.076737314 -0.019630887 -0.11389403 -0.07934279
000260 77 81 6e bb 0e c3 f2 3d fa b0 64 bd 26 99 19 be
       -0.0036393085 0.1185361 -0.05583284 -0.14999828
000270 97 54 02 bd 93 9e a2 bc cb 80 99 bd d8 65 3f bd
       -0.031818952 -0.019851005 -0.074952684 -0.046727985
000280 d2 53 a2 bd 54 43 0c bd be e9 2f 3c 07 36 7f bd
       -0.07926144 -0.034243897 0.010736881 -0.062307384
000290 0e 10 05 3d 73 91 1d 3d e0 c5 1a 3a 8e 85 94 bd
       0.032486014 0.03846879 0.00059041195 -0.07252036
0002a0 f0 c3 af bb 9e 14 07 3d 30 26 7c 3b f6 da 01 bc
       -0.0053639337 0.032978646 0.003847491 -0.0079257395
0002b0 93 0c c1 3d 82 c4 bc bc c4 2d 4d bd c4 6e 69 3c
       0.094262265 -0.023042921 -0.050092474 0.0142476
0002c0 9f 72 be bd 7b 7d 50 3d 0a 7e fd 3c f4 2c 94 3d
       -0.09299206 0.050900918 0.03094389 0.07235137
0002d0 84 de 5c 3c a0 0d 93 3d 3e 36 0d 3e 92 2b ba bd
       0.013480786 0.07180333 0.13790223 -0.09090342
0002e0 1d eb 4d bd 58 bd 4d 3c 68 3b 24 be 10 64 63 3b
       -0.05027305 0.01255735 -0.16038287 0.0034697093
0002f0 7a 8b 81 bd ca 4a 41 bd a2 77 cf bc c2 83 62 3d
       -0.06325431 -0.047190465 -0.0253256 0.055301435
000300 d8 3f 34 bd 13 ad c0 bb 0c 17 82 3a 2d 2c 65 3d
       -0.0440062 -0.005880007 0.0009925081 0.055950332
000310 a3 e8 57 3d 62 d3 15 bd 96 74 8a 3d 46 3c 04 bc
       0.052712094 -0.036578543 0.06760518 -0.008071011
000320 59 71 4d 3c 08 c8 be 3c 7e e4 a1 bd 75 0f 99 3c
       0.012539231 0.023288742 -0.079049096 0.018684128
000330 9c 4b 25 bd 48 7e 39 bc ba 8a 32 3b f0 76 21 3b
       -0.04035531 -0.011321612 0.0027243332 0.0024637543
000340 b9 2d 6d 3d 5c 2c 46 bd 6e 43 69 bd 96 64 e2 bd
       0.057904933 -0.04838215 -0.05694907 -0.110543415
000350 04 cc 7d 3d c5 90 48 bc 2e 33 bc bd ce b8 95 bd
       0.061962143 -0.012241547 -0.09189449 -0.07310639
000360 df 04 4d bd 35 a3 fb 3d a7 51 4f bd d6 0c 04 3d
       -0.050053474 0.12286989 -0.05061498 0.032238804
000370 3f 4d 98 3d 66 19 7c 3d c2 1b a5 3d 92 77 20 bd
       0.074366085 0.06154766 0.08061935 -0.03917653
000380 35 91 5a 3d cb 6b 12 bd e5 5a ab bd 54 d1 ad 3c
       0.053361136 -0.03574733 -0.08366946 0.02121798
000390 f0 59 cf bc 8b 3f 9a bd 5c 66 05 3e a1 db 06 3c
       -0.02531144 -0.07531651 0.13027328 0.008231075
0003a0 1c c3 c7 bc 00 02 31 3a d2 c5 a2 3c 72 f3 e9 3c
       -0.024385028 0.0006752312 0.019869719 0.028558467
0003b0 d6 bf 19 bd ec 5e 5a bd a2 63 c4 bd fb 4e 8c 3c
       -0.037536465 -0.05331318 -0.09589316 0.017127505
0003c0 40 24 5b 3d 0c 16 87 bd b6 36 62 bd 62 e7 b2 3c
       0.053501368 -0.06596002 -0.055227958 0.021838848
0003d0 50 9d 6b 3c 7b ce 78 3d 14 15 3a 3c b6 a7 f4 3b
       0.014380768 0.06074379 0.0113575645 0.0074662818
0003e0 36 8e 24 bd 70 f8 b3 3d f0 73 c7 3c 66 77 1f bd
       -0.040174685 0.0878762 0.024347275 -0.038932227
0003f0 5b f7 68 3d b2 a6 0a bc b0 e5 8f bb 98 ff ff 3b
       0.05687652 -0.008462595 -0.0043913946 0.0078124516

lstm_cell/MatMul_7 f4 [64, 64]
000000 46 75 71 bd 01 a8 d7 bd 75 4e 95 bd 66 32 ed bc
       -0.05894973 -0.10530091 -0.07290355 -0.028954696
000010 bd f2 95 bd 18 0d f3 bd 7a 63 dc bd 2e ed ad bd
       -0.07321689 -0.11867732 -0.10761161 -0.08492504
000020 a9 3c e4 bc 0b e1 fd 3d 1e 9c 0d bd 22 6b 1b bd
       -0.027860956 0.12396439 -0.034572713 -0.037943967
000030 38 ee 32 3d 54 7a e8 3c 24 e0 8b 3c ce 4d 82 3c
       0.043684214 0.028378643 0.017074652 0.01590624
000040 f2 7d 9f 3d 72 f4 25 3c e8 87 85 3d d2 5d 20 3e
       0.07787694 0.010129081 0.06520063 0.1566079
000050 c6 a2 2a bd 50 43 ba bc 8c ce 0f 3c 20 05 36 bd
       -0.04165914 -0.022737175 0.008777272 -0.04443848
000060 37 dc 8f 3c 54 69 77 3d 64 0e 23 be 54 47 b9 bb
       0.017561061 0.060403183 -0.15923458 -0.005654255
000070 c5 94 04 bc 2a 9b 1b 3d 1a 5a 86 bc 4a df 9a 3d
       -0.00809211 0.037989773 -0.016400386 0.0756212
000080 03 25 7a bd 0f b1 d8 3d c6 da 06 3c b2 0a d0 bc
       -0.061070453 0.10580646 0.008230871 -0.025395725
000090 e5 65 99 3d 74 89 2b bd f0 d9 4f bc c0 05 14 bd
       0.07490138 -0.041879132 -0.012686238 -0.036138296
0000a0 fc 24 b4 3d f2 a3 61 3d 43 49 b3 3d 14 c4 90 3c
       0.08796117 0.05508799 0.08754208 0.017671622
0000b0 f9 ef c9 bc 94 97 48 bd 16 5a 9d bd 8d a5 e9 bd
       -0.02465056 -0.04897268 -0.07683198 -0.114085294
0000c0 b8 4e 1c 3d 0d e7 a5 bc c0 5c ce bb ec 29 57 3c
       0.03816101 -0.020251775 -0.0062976778 0.013132554
0000d0 0c 66 37 bc e2 49 1f 3d 67 90 8f bd 4e 64 c1 3c
       -0.011193763 0.03888882 -0.070099644 0.0236074
0000e0 14 fc f9 bc b8 51 f6 bb 1d 18 cc bd d8 b6 2d 3d
       -0.030515708 -0.007517066 -0.09965537 0.0424107
0000f0 86 ff 91 bc b0 0d 24 bd 88 c4 97 3d 56 b2 87 bd
       -0.017822038 -0.040052116 0.07410532 -0.06625812
000100 9a de db 3d ea 08 47 3d fe be 52 bd e0 18 ae bc
       0.10735817 0.048592485 -0.051451676 -0.021252096
000110 60 6f ea bd 83 f6 1c bd 31 0e d9 3c dd a5 a5 3c
       -0.11447024 -0.03832103 0.026496025 0.020220691
000120 5e 26 75 bc 72 3d 0c 3d a1 c4 55 3b 02 4a 2a bd
       -0.014962761 0.034238286 0.003261842 -0.041574486
000130 a0 50 d8 ba b0 67 95 3d 23 bc f8 bd 14 5c ea bc
       -0.001650352 0.072951674 -0.12145259 -0.02860836
000140 9c 35 7f 3c 31 a1 6f 3d 0a e8 97 3c e4 d0 bc bd
       0.015576746 0.058503333 0.018543262 -0.0921953
000150 26 7d 04 bd 2e 3f 75 3c cb 02 d6 3d 78 64 c9 bc
       -0.032345913 0.0149686765 0.104497515 -0.02458404
000160 ca e2 e9 3c a4 b6 20 bd 1c 82 cd bb 89 62 a1 bd
       0.028550524 -0.03923668 -0.0062716138 -0.07880122
000170 34 cc b9 bd 8b a2 bc bd f9 83 29 3d b9 b5 8c bc
       -0.09072152 -0.0921069 0.041385625 -0.017176496
000180 d8 86 91 3d 96 5f 94 3d 3b a7 a8 bc f5 c0 87 3c
       0.071057975 0.07244794 -0.020587554 0.016571501
000190 6c 4e 23 3d 29 fe 11 bd c2 cd a4 3d 0c 5b 01 be
       0.03986971 -0.035642777 0.08047058 -0.12632388
0001a0 a1 ca d1 bc bd f6 58 3d 7e b3 1a bc f7 43 18 bc
       -0.025609316 0.052969683 -0.009442208 -0.009293548
0001b0 a8 45 ce bc ec 7e 9c bd 8c 47 f4 3d 17 98 6c bd
       -0.025179699 -0.07641396 0.11927709 -0.05776223
0001c0 83 4e 48 3d d0 76 9e bc d6 d3 5f bd 56 69 69 3d
       0.048903 -0.019343764 -0.054645382 0.05698522
0001d0 c6 c6 1a bc 5b b2 1b be 64 8e 42 3d 28 d9 1d 3d
       -0.009446805 -0.15204756 0.047499076 0.038537174
0001e0 57 48 cf 3d b2 e1 62 3d 51 4e 04 bd 6d 42 59 bd
       0.101212196 0.05539102 -0.03230125 -0.053041864
0001f0 06 7e ce 3c 6b 19 38 bd d9 50 af bc 40 11 59 3c
       0.025206577 -0.044946115 -0.021400856 0.013248742
000200 2e e4 8c 3d 1e 7d 9a 3c 16 d3 15 bd 7a 87 db bb
       0.06879459 0.018858489 -0.03657826 -0.0066994997
000210 0d c2 82 3c f2 ec ad 3c 0b 64 9b 3d 78 6e ac bb
       0.015961671 0.021231148 0.07587441 -0.0052621923
000220 80 38 87 3d 86 75 87 3d d0 8c 50 bd ba e7 71 3d
       0.066025734 0.06614213 -0.05091554 0.059058882
000230 14 9a a0 3c 8a 2a 64 bc e5 50 8e bd 0d 88 31 bd
       0.01960472 -0.013926158 -0.06949023 -0.04334264
000240 9c d4 89 bc 0a 7f b0 bc 5c 89 63 3d 9a 3e c2 3c
       -0.016825013 -0.021544952 0.055550918 0.023711491
000250 29 48 18 3d ae ec fc bd 80 a3 0f bc e8 cf 1d 3e
       0.037178192 -0.123498306 -0.008767009 0.15411341
000260 6e ad 6e 3b 2f b8 41 3d a0 4a 2a 3d 7e a7 39 bd
       0.003641929 0.04729479 0.041575074 -0.04532575
000270 96 80 b5 bd be 79 29 3c 76 4a 12 bd 88 37 63 bb
       -0.088624164 0.010343967 -0.035715543 -0.003467055
000280 98 d7 31 3d 68 db a9 3d 34 6d cc 3c 72 b1 84 3d
       0.043418497 0.082938015 0.024954416 0.064791575
000290 67 93 db bc 5a 59 43 bd 30 84 7b bd 64 2f 09 bd
       -0.026803685 -0.047692634 -0.06140536 -0.03349246
0002a0 8a 2e 9a 3c a3 8f 0f 3d 04 b1 f9 bd a6 f8 fb bc
       0.01882102 0.035049092 -0.12191966 -0.030758213
0002b0 21 b6 e1 bd 43 fb 73 bd 83 e1 89 bc 44 19 61 3b
       -0.110210665 -0.059565794 -0.016831165 0.0034347335
0002c0 84 b0 3a 3d b0 7a 6b bc 60 a3 ac 3b 58 c0 14 3b
       0.045578495 -0.014372513 0.0052684993 0.0022697654
0002d0 36 43 37 3c da c4 17 bd 4b e9 a9 3d 4c 85 a9 3d
       0.011185458 -0.037052967 0.0829645 0.082773775
0002e0 a2 8c 1c bc 66 9f a3 3c 92 02 9a 3d e1 e1 95 3c
       -0.009555014 0.019973468 0.075200215 0.018296184
0002f0 b1 f3 7d bd f2 fa ed bc 2a 7d a6 bd 72 f0 3f be
       -0.06199998 -0.029050324 -0.08129342 -0.18744066
000300 1d ae 85 3d f1 55 57 3b 2a 11 f4 3c fc af db bd
       0.0652735 0.0032857622 0.02979334 -0.10726926
000310 76 80 6c bd 9c c7 95 3d dc 62 5a 3d f7 8a 14 be
       -0.057739697 0.07313463 0.053316936 -0.14506136
000320 36 75 57 3d 1c c1 72 bd b7 81 1c 3d 68 3b 17 bd
       0.052602015 -0.059266195 0.038209643 -0.03692189
000330 b4 e2 3d 3d 0e 63 31 3d 12 db 3f bd 76 ae c4 3d
       0.04635878 0.043307357 -0.04683978 0.09603588
000340 e6 41 67 3d 76 47 b0 bd 6b ba 18 be 7a da c7 bd
       0.05645933 -0.0860738 -0.14914863 -0.09758468
000350 11 dd aa 3c a2 27 44 3c 53 45 58 3d 70 0c 26 3c
       0.020857366 0.01197234 0.052800488 0.010134801
000360 27 a5 92 3d ab b5 98 3c a0 18 18 bb 4d 0d a9 3c
       0.071604066 0.018641314 -0.0023208037 0.020636225
000370 26 d6 41 bd c4 78 41 3d 64 60 2e 3d 47 cd 95 bc
       -0.04732337 0.04723431 0.042572394 -0.01828636
000380 d8 01 c4 bc dd 65 05 bd 4e 33 fd 3c b0 19 5a 3d
       -0.02392666 -0.032567848 0.030908253 0.053247154
000390 0a b5 30 bb c1 e4 cd bd 36 83 f8 bd 10 57 f4 3c
       -0.0026963376 -0.10053397 -0.121344015 0.02982667
0003a0 29 7e 64 3d ca e3 e9 bd 1f a9 c6 3d 08 ce cd bb
       0.05578438 -0.114204004 0.09700226 -0.0062806644
0003b0 bc fa bb bd 48 83 4d bd f7 40 89 bd 84 11 f5 bd
       -0.09178683 -0.050174028 -0.06701844 -0.119662315
0003c0 a1 3a 1f 3d ea dd d8 3d 38 a3 74 bc b8 cd fd ba
       0.038874272 0.10589202 -0.0149314925 -0.0019363677
0003d0 f4 8c bd bd 7c e7 84 3d ad 5d 97 3d ae f5 13 3e
       -0.092554 0.06489465 0.07390914 0.14449188
0003e0 d8 79 19 bd 3d 20 f9 bc f1 b3 82 bd b0 2c a6 3d
       -0.037469715 -0.03041088 -0.06381977 0.08113992
0003f0 22 2b af bd 59 af 91 3d de c7 e2 3c 71 cd eb 3d
       -0.08553149 0.07113523 0.027683195 0.11513794

lstm_cell/split_1 f4 [64]
000000 9f 85 9a 3e 4a 24 c9 3e 7d d6 a2 3e 3c 05 9b 3e
       0.3018007 0.392855 0.31804267 0.3027743
000010 20 4d cd 3e 5f eb c2 3e 15 48 dd 3e e7 3b ee 3e
       0.40097904 0.380702 0.43219057 0.46530077
000020 c2 77 e5 3e 1c a1 95 3e 88 03 cb 3e c9 e1 a3 3e
       0.4481793 0.2922448 0.39651132 0.32008198
000030 5a 5d ef 3e 83 65 df 3e cb b0 9f 3e b3 fb cb 3e
       0.4675091 0.43632135 0.3118957 0.3984047
000040 7b 5a c3 3e 1f 1b b9 3e bd 58 b9 3e 28 3c bb 3e
       0.3815497 0.36153504 0.36200514 0.36569333
000050 de 71 81 3e e9 df bb 3e 05 41 bd 3e 1f f6 d2 3e
       0.25282186 0.36694267 0.36963668 0.412034
000060 e8 d6 cc 3e 9f 1f d6 3e 8e 61 b6 3e 9f 0f be 3e
       0.4000771 0.41821 0.35621303 0.37121293
000070 4e 46 9b 3e 66 14 db 3e 97 56 d7 3e 4d ba d0 3e
       0.30327076 0.42789 0.4205825 0.40767136
000080 30 cc ba 3e 5b 98 b2 3e 8c ae bf 3e ed 19 ba 3e
       0.36483908 0.34881863 0.37437856 0.36347905
000090 92 ee d9 3e 53 3e d2 3e 31 3d bb 3e a0 44 c7 3e
       0.42564827 0.41063175 0.36570123 0.38919544
0000a0 72 6e c3 3e 68 49 9b 3e 64 e7 b0 3e 5a fb 8c 3e
       0.381702 0.30329442 0.34551537 0.27535516
0000b0 e6 ba 94 3e d4 5c ad 3e c1 85 b2 3e eb ff c9 3e
       0.29048842 0.33859885 0.3486767 0.39453062
0000c0 e2 23 a6 3e 71 ea cc 3e d0 18 de 3e 45 d9 bd 3e
       0.3244925 0.40022615 0.43378305 0.37079826
0000d0 8e 58 9f 3e 7b 9d b6 3e 45 8a c3 3e f4 bb b0 3e
       0.3112225 0.35667023 0.3819143 0.34518397
0000e0 3d 4c cd 3e 17 d3 ba 3e b0 7f c9 3e 4f c4 d3 3e
       0.40097228 0.36489174 0.3935523 0.4136071
0000f0 7b df a5 3e ca 3b c1 3e fe bc db 3e 35 bf c1 3e
       0.32397065 0.37740928 0.42917627 0.37841192

lstm_cell/split_11 f4 [64]
000000 00 00 80 3f 00 00 80 3f 00 00 80 3f 00 00 80 3f
       1.0 1.0 1.0 1.0
000010 00 00 80 3f 00 00 80 3f 00 00 80 3f 00 00 80 3f
       1.0 1.0 1.0 1.0
000020 00 00 80 3f 00 00 80 3f 00 00 80 3f 00 00 80 3f
       1.0 1.0 1.0 1.0
000030 00 00 80 3f 00 00 80 3f 00 00 80 3f 00 00 80 3f
       1.0 1.0 1.0 1.0
000040 00 00 80 3f 00 00 80 3f 00 00 80 3f 00 00 80 3f
       1.0 1.0 1.0 1.0
000050 00 00 80 3f 00 00 80 3f 00 00 80 3f 00 00 80 3f
       1.0 1.0 1.0 1.0
000060 00 00 80 3f 00 00 80 3f 00 00 80 3f 00 00 80 3f
       1.0 1.0 1.0 1.0
000070 00 00 80 3f 00 00 80 3f 00 00 80 3f 00 00 80 3f
       1.0 1.0 1.0 1.0
000080 00 00 80 3f 00 00 80 3f 00 00 80 3f 00 00 80 3f
       1.0 1.0 1.0 1.0
000090 00 00 80 3f 00 00 80 3f 00 00 80 3f 00 00 80 3f
       1.0 1.0 1.0 1.0
0000a0 00 00 80 3f 00 00 80 3f 00 00 80 3f 00 00 80 3f
       1.0 1.0 1.0 1.0
0000b0 00 00 80 3f 00 00 80 3f 00 00 80 3f 00 00 80 3f
       1.0 1.0 1.0 1.0
0000c0 00 00 80 3f 00 00 80 3f 00 00 80 3f 00 00 80 3f
       1.0 1.0 1.0 1.0
0000d0 00 00 80 3f 00 00 80 3f 00 00 80 3f 00 00 80 3f
       1.0 1.0 1.0 1.0
0000e0 00 00 80 3f 00 00 80 3f 00 00 80 3f 00 00 80 3f
       1.0 1.0 1.0 1.0
0000f0 00 00 80 3f 00 00 80 3f 00 00 80 3f 00 00 80 3f
       1.0 1.0 1.0 1.0

lstm_cell/split_12 f4 [64]
000000 00 5b 34 be 2f 61 2f bc cc 44 87 3e 1c e3 7e 3e
       -0.17612839 -0.010704323 0.26419675 0.24891323
000010 1d aa 30 3d 66 fb 1a bd 6a 14 2f be 91 9b 07 3e
       0.043130983 -0.03783741 -0.17097631 0.13242938
000020 9b 3e 63 bd 4e bc 8a 3d a9 c2 bd 3d bf 8d cf 3d
       -0.055479627 0.067741975 0.09265644 0.10134458
000030 e3 fc 83 bd 1a 3e 76 3d cd f2 10 3e dd 7c 26 bd
       -0.06444719 0.06011782 0.14155121 -0.040646423
000040 94 6f f0 3d 82 b8 3b 3e ad b9 18 bd 81 9e de 3d
       0.11740032 0.18332103 -0.03728645 0.10870076
000050 0d f3 a3 bd c0 0e 20 3e 86 96 d6 3d 97 f9 fa bd
       -0.08005343 0.15630627 0.10477929 -0.12254637
000060 8d 4b 49 3e 1c a1 88 3d 79 8d 6f 3e 4f 3a 90 bd
       0.19657727 0.06671354 0.23393811 -0.070423715
000070 61 f5 cb bc f9 15 2f 3e 6a 89 23 bd ab 73 83 bd
       -0.02489728 0.17098226 -0.03992597 -0.06418546
000080 cf 1e 13 3e 2d ec 87 3d 8b e2 2e 3e 7f 39 d9 3d
       0.14367221 0.06636844 0.17078607 0.1060667
000090 bd 22 51 3d 1d 4c 4f 3e e8 a8 c2 bd 66 0e 71 3b
       0.05105852 0.20243879 -0.095048726 0.0036782264
0000a0 70 b3 c6 bd b3 35 47 be b8 c0 66 3d a6 89 23 be
       -0.09702194 -0.19454078 0.056336135 -0.15970477
0000b0 54 c8 33 be 1d 19 e4 bb d1 cd 3b 3e 74 b1 1a 3d
       -0.17556888 -0.0069610015 0.18340231 0.03776689
0000c0 dc ac 97 3d dc 83 09 be d1 24 3e be f4 b2 ec 3d
       0.07406017 -0.13429207 -0.18568732 0.1155757
0000d0 f3 13 c4 3d 74 26 7c 3e 9e e9 37 3e 1e 78 03 3c
       0.095741175 0.24624044 0.17960212 0.008024244
0000e0 ff fb 28 be 72 9a b8 bd 27 92 ed bc 2d 20 e0 3d
       -0.16502379 -0.09013833 -0.029000355 0.10943637
0000f0 8e 15 90 3e e9 6b 83 3c a3 97 96 3d b5 1a 25 bd
       0.28141445 0.016042667 0.07353141 -0.040308673

lstm_cell/split_13 f4 [64]
000000 69 df a2 3e cd 3e cd 3e ee 98 a5 3e d1 d1 9d 3e
       0.31811073 0.40086976 0.3234324 0.3082414
000010 24 5f d3 3e e5 2a c7 3e 06 3b dd 3e 7e 77 ee 3e
       0.41283524 0.38899913 0.43209094 0.4657554
000020 54 e7 e5 3e 8b 22 99 3e 03 a6 cb 3e 80 cb a9 3e
       0.44903052 0.29909167 0.39775094 0.3316307
000030 bb a8 ee 3e c1 89 e1 3e 72 4f a1 3e 5a d2 ca 3e
       0.46613106 0.4405041 0.31505924 0.3961361
000040 29 bf c4 3e 21 62 ba 3e 2c 90 bd 3e c0 7b c2 3e
       0.38427094 0.3640299 0.37024057 0.3798504
000050 0d 9a 7e 3e ae e5 b9 3e 96 29 bb 3e 8f 2d d3 3e
       0.24863453 0.36308044 0.36555165 0.41245696
000060 38 ac ca 3e 6c 34 d6 3e ad eb b6 3e 3b 1f bf 3e
       0.39584517 0.4183687 0.3572668 0.37328514
000070 25 3b 9a 3e b5 4a db 3e 10 19 d7 3e bb fc d2 3e
       0.3012325 0.42830434 0.4201131 0.41208443
000080 3e 95 b8 3e fa f7 b3 3e 79 fd c3 3e 91 b9 bb 3e
       0.36051363 0.3515013 0.38279322 0.36665013
000090 44 86 d9 3e ee 78 d3 3e 44 a3 bf 3e 87 16 c8 3e
       0.4248525 0.413032 0.3742925 0.39079687
0000a0 c8 28 c5 3e 1e 76 a3 3e af 82 b0 3e ad 50 92 3e
       0.38507676 0.31926054 0.34474704 0.28577176
0000b0 d4 85 96 3e ef c0 ac 3e cb 69 af 3e 04 ff c2 3e
       0.29398978 0.33740947 0.342604 0.38085186
0000c0 de 42 a7 3e 65 15 ce 3e 74 55 e0 3e c5 b9 bd 3e
       0.32668203 0.40250698 0.43815196 0.37055793
0000d0 b0 43 a2 3e ec 8a b7 3e bf 05 c5 3e 34 a8 b4 3e
       0.31692266 0.35848176 0.38480946 0.3528458
0000e0 15 0f ce 3e 2f ca b4 3e a6 b8 c9 3e cb 8d d3 3e
       0.40245882 0.35310504 0.39398688 0.41319117
0000f0 cc a1 ab 3e 00 5c c0 3e 59 3b de 3e 85 e3 bf 3e
       0.3352188 0.3757019 0.43404654 0.3747827

lstm_cell/MatMul f4 [64, 121]
000000 d3 17 fa 3d 8b 00 eb 3d 39 4a 21 3e 96 be 56 bd
       0.12211575 0.11474713 0.1575097 -0.05242785
000010 bb 63 33 3e 10 ef 4a bb 76 95 57 3d 8d 3d 71 3e
       0.17518513 -0.0030965246 0.05263277 0.23558636
000020 a7 2d 11 3e 5f 6c 4a 3d 61 5a 95 bb 92 29 ce 3d
       0.14177571 0.049419757 -0.004557893 0.10066523
000030 cc cc 30 bd a5 19 4e 3c 4a ce 87 3e af 96 39 bb
       -0.04316406 0.012579356 0.26524574 -0.0028318574
000040 ae 6b 42 3e c8 09 a8 be 6c 82 b8 3d 99 f0 7d 3d
       0.18986389 -0.32819963 0.09009251 0.06199703
000050 26 96 a9 3d 3b 99 2b bd fb 76 e3 bd 75 ff 91 3e
       0.08280592 -0.04189418 -0.11106678 0.2851521
000060 bf 48 32 3e f7 40 cb bc 23 c7 5a 3e 9b 2f 3a 3e
       0.17410563 -0.024811251 0.21365027 0.18182223
000070 ea 72 bc 3c 59 4c 3a 3e 89 1d 17 3e cd b7 c4 3d
       0.023004014 0.18193187 0.1475736 0.0960537
000080 f7 3c c9 bc 9d df 10 3d 78 8c 35 3d 77 1e 20 3e
       -0.024565203 0.035369504 0.044323415 0.15636621
000090 18 5c 2d 3d 16 39 69 3e 73 e5 5f 3c fe 43 a9 3e
       0.042324156 0.22775683 0.013665545 0.33059686
0000a0 f7 3a 7d 3e 7e d8 6f 3d 7d 27 d6 3d f5 7b e9 3d
       0.24729525 0.058556072 0.104567505 0.11400596
0000b0 42 0a b9 ba 96 68 de 3d 01 b9 31 3e 92 23 5b bb
       -0.0014117437 0.10859792 0.1735573 -0.003343795
0000c0 64 80 24 be e4 27 a4 3e 0e 50 0a 3e 9c 70 0e 3b
       -0.16064602 0.32061684 0.13507101 0.00217346
0000d0 ff f5 1c be ae f1 2c 3d 16 11 a5 3d be 39 6d 3e
       -0.15328215 0.04222267 0.080598995 0.23166558
0000e0 47 56 4e bd 4e 3a c6 3d 7d 10 8a 3e c2 2e 70 bd
       -0.05037525 0.096790895 0.26965705 -0.05863834
0000f0 0f 38 01 3d bb 27 f0 bc 65 9c 3a be 72 c1 ad bd
       0.031547602 -0.02931582 -0.18223722 -0.084841624
000100 38 d3 88 3e 35 c0 49 bd a6 59 59 3d 6b fe 2d 3d
       0.26723647 -0.04925557 0.05306401 0.04247896
000110 65 83 73 3e 36 a1 86 3e b7 42 0c be 95 35 00 3e
       0.23780592 0.2629487 -0.13697325 0.1252044
000120 48 53 51 3e 72 89 68 3d e2 64 41 3e 72 94 64 be
       0.20441926 0.056771703 0.1888614 -0.22322252
000130 98 ef 9b 3c 19 3d 22 3e 58 34 e7 3d 97 bc fb bd
       0.019035146 0.1584362 0.11289281 -0.1229183
000140 61 cf 6f 3e d4 46 8b bd ba 89 dd bd 09 59 e2 3d
       0.23418953 -0.06800619 -0.10817285 0.11052138
000150 df 90 6e 3e 48 0b 04 39 48 b0 06 3e d5 ea 68 3e
       0.23297451 0.00012592704 0.13153183 0.22745831
000160 af 80 84 3d d7 06 84 3d c0 d9 b3 3d d3 cc 69 3d
       0.06469857 0.06446617 0.08781767 0.0570801
000170 67 f0 9e 3e 42 3e be 3c 92 e9 15 3e 8c e9 a2 bd
       0.31042787 0.023223046 0.14639881 -0.07954702
000180 df e6 dd 3d 83 7b ff 3d 90 96 81 bd 7e ff 39 3c
       0.10835051 0.1247473 -0.06327546 0.011352418
000190 8b 1c a2 3d 3f d6 c1 3d 35 7f 5f 3d ec 1d f3 3d
       0.079156004 0.09464692 0.054564673 0.118709415
0001a0 22 a0 17 be 93 86 b6 3c 06 59 02 3e 8a 55 1d 3e
       -0.1480718 0.022280967 0.12729272 0.15364662
0001b0 c0 0c 06 3e 0c c9 cd bd 5d 87 19 3e 29 c8 45 3e
       0.13090801 -0.10048112 0.14993043 0.19314636
0001c0 79 85 36 bc b9 1e 1b 3e 51 88 24 3e 67 71 68 3e
       -0.011140221 0.15148439 0.16067626 0.2269951
0001d0 61 88 bf bc 51 35 38 bc 62 11 63 3e 8b 6f 63 3b
       -0.02338046 -0.01124318 0.221746 0.0034703936
0001e0 89 cc 30 3d 3a fa 0b be 11 8f 3e 3e 5e 30 5b 3e
       0.04316381 -0.13669673 0.18609263 0.2140517
0001f0 a0 46 96 3e 3b 9c 94 3e b7 79 08 be 37 12 26 3d
       0.29350758 0.29025444 -0.1332768 0.040544715
000200 aa f4 30 bb eb 34 20 be 22 11 7c 3e ab 99 9e 3d
       -0.00270013 -0.15645187 0.2461591 0.077441536
000210 f2 45 7c 3e 8d b7 4b bd 22 d2 96 3d 7b 27 ce 3d
       0.24636057 -0.049735595 0.073642984 0.10066124
000220 5a 4e 08 3c 5c c6 0d 3e 36 c5 10 ba 27 3e 49 3e
       0.008319462 0.138452 -0.0005522551 0.19652615
000230 df cc d6 3d be 8c 07 be 8a da 0c 3e 7e 7d 90 bd
       0.10488295 -0.13237283 0.13755241 -0.07055186
000240 8e cd 6f 3e c6 f3 8a 3d 69 6e 0c 3e f6 85 4c 3e
       0.23418257 0.06784777 0.13713993 0.19972977
000250 48 e6 12 3e 81 bc 3d 3e 76 6b 39 3e c8 12 1c be
       0.14345658 0.1852894 0.181074 -0.1524154
000260 0f d5 33 3e 1e fd 0c be 98 e7 c5 bc ce 81 1d 3d
       0.17561744 -0.13768432 -0.024158284 0.03845387
000270 40 69 e5 bd c4 d5 3e 3d af 58 bf 3d 26 c1 e3 bc
       -0.112017155 0.04659058 0.09343087 -0.027802061
000280 de 24 5c bd b7 f0 6f bd 2a a3 8a 3d b6 53 06 3e
       -0.053746097 -0.058579173 0.06769402 0.1311787
000290 61 f4 a2 3d 77 d3 2c 3d 1a fe ef 3d b3 61 db 3c
       0.07956768 0.042193856 0.11718388 0.026779985
0002a0 f2 ba 73 3d 1a 70 a7 3e 21 16 88 bd b0 f7 0f 3d
       0.059504457 0.32702714 -0.06644846 0.035148323
0002b0 f8 bb 69 bc 92 9a ab bd cf fb 6f 3e bf 6a e9 bd
       -0.014266007 -0.08379091 0.23435901 -0.11397313
0002c0 ca 8b 8c 3d 01 29 47 3e a6 76 08 3e a0 10 eb 3a
       0.068626 0.19449235 0.13326511 0.0017934032
0002d0 08 d3 b6 bd e4 91 51 bd 7a 90 d4 bd a2 3b cc 3d
       -0.0892697 -0.051164523 -0.10379119 0.099723116
0002e0 10 41 8e 3e df 22 95 3e 6b 29 8c bb 87 f7 05 3d
       0.27784014 0.29128167 -0.0042773983 0.032706764
0002f0 a0 a4 09 3e 88 a5 96 3e a3 7d 92 3d 36 d0 af 3c
       0.13441706 0.29423165 0.071528696 0.021461587
000300 02 d9 5b bd ed fa e0 3d 69 f6 80 bc bf 68 93 3e
       -0.05367375 0.1098536 -0.015742498 0.28790852
000310 d8 8d c2 3d c5 14 66 3d 64 10 1d 3d d9 2f 8b 3a
       0.09499711 0.05617215 0.03834571 0.0010619118
000320 8a 47 4f 3d fe 9a b0 3d 97 8e 3c 3d ba 7d 06 be
       0.050605334 0.086233124 0.04603442 -0.13133898
000330 98 7e 70 bd 03 d9 85 3d 46 a7 97 3e 3d 80 17 be
       -0.05871448 0.06535532 0.29619807 -0.14795013
000340 c9 91 9e bd 7b 40 8c bd cf a0 6f bd d7 bd 80 bd
       -0.0774265 -0.06848236 -0.05850297 -0.06286209
000350 bf 79 ed 3d e6 cd 06 bd 73 a2 4c 3d a7 b1 86 3d
       0.11595487 -0.032911204 0.04995961 0.06576853
000360 6e f6 03 3e bf 08 61 3e 72 19 8d 3d 89 20 2e 3e
       0.12886974 0.21975993 0.06889619 0.17004599
000370 63 bd 2c 3e be e1 6c 3e 9b f3 c1 bd 17 16 6c 3e
       0.1686912 0.23132989 -0.09470292 0.23055302
000380 88 15 9b 3d d2 7b 00 3e 42 89 af 3d 75 a0 63 3d
       0.07572466 0.12547234 0.08571102 0.055572946
000390 c9 65 64 3e f6 f0 c4 bd 4e f3 5b bd b3 2f c3 3e
       0.22304453 -0.09616272 -0.05369883 0.3812233
0003a0 3d dd 4d 3e 1a 18 5f 3e 7d f9 04 3e 68 12 b6 bc
       0.20103927 0.21786538 0.12985797 -0.022225574
0003b0 ef cf eb bd 5b 7a 88 3d 84 04 cf 3d 7f d4 f4 bd
       -0.115142696 0.066639625 0.10108283 -0.11954593
0003c0 8f 2b 0e bc 02 53 0e 3e 7d b7 11 3e de 50 36 3e
       -0.008677377 0.13898852 0.14230151 0.17804286
0003d0 0d 5e ea bb 27 5f 01 3d d1 0e 12 3e db c3 ff 3d
       -0.007152325 0.031584885 0.14263465 0.12488528
0003e0 69 90 ff bc 1f 31 95 3d f5 2f 1a bd 87 eb 32 bd
       -0.03119679 0.0728476 -0.03764339 -0.043681648
0003f0 fa d1 8c 3d e7 49 1b 3e ca 12 a3 3d 97 c6 ca 3d
       0.06875987 0.1516491 0.07962568 0.09901159
