Python/SpeechRecognition/DeepSpeech/models/taskClassifier.tflite (tflite, 11552 bytes, 4 tensors)

sequential/dense/BiasAdd/ReadVariableOp f4 [20]
0	0x3eb78df3	0.35850486
1	0x3ff675b6	1.9254673
2	0x3ceaf025	0.028678963
3	0xbda979d8	-0.08275193
4	0xbfd0eb25	-1.632176
5	0xbf05f34d	-0.5232437
6	0xbfb01332	-1.3755858
7	0xbf881196	-1.0630367
8	0xbf5e33e2	-0.86797917
9	0xbe9d0001	-0.30664065
10	0x3f0847ff	0.5323486
11	0xc0049af8	-2.0719585
12	0xbff59bad	-1.9188133
13	0xbff61496	-1.9225032
14	0xbe74c8f7	-0.23904787
15	0xbf451220	-0.7698078
16	0x3dc79945	0.09746031
17	0x3e38f077	0.1806048
18	0x3e8c43cf	0.27395484
19	0xbffa8b7f	-1.9573821

sequential/dense_1/BiasAdd/ReadVariableOp f4 [6]
0	0x3d8c332e	0.06845699
1	0xbd946e66	-0.07247619
2	0xbd85f5a9	-0.065409966
3	0xbceada38	-0.028668508
4	0x3d062ade	0.032755725
5	0x3acfbf0d	0.0015849784

sequential/dense/MatMul f4 [20, 121]
0	0xbf2836b4	-0.6570847
1	0x3fa34842	1.2756426
2	0xbf8216cc	-1.0163207
3	0xbf86af46	-1.0522239
4	0xbe911e68	-0.2834351
5	0xbeeb8ac1	-0.46004298
6	0xbef7d854	-0.48407233
7	0xbfb78bc2	-1.4339526
8	0x3eebb512	0.46036583
9	0xbf2bfb37	-0.671802
10	0x3dd7c847	0.10536247
11	0xbd0d29ac	-0.03446357
12	0xbf776d0a	-0.96650755
13	0xbef515dc	-0.4786824
14	0xbfbdc3b5	-1.482535
15	0xbe9ceab1	-0.30647805
16	0xbf30a7a4	-0.690058
17	0xbf093f5b	-0.536123
18	0xbef75edd	-0.48314562
19	0xbe4e08aa	-0.20120493
20	0xbed2bbd9	-0.4115894
21	0xbf745c00	-0.9545288
22	0xbe8bf289	-0.27333477
23	0xbf7790e3	-0.96705455
24	0xbf03240c	-0.5122688
25	0xbf64fc12	-0.8944713
26	0x3f846583	1.0343479
27	0xbe9344cd	-0.28763428
28	0xbf629357	-0.8850607
29	0xbf814984	-1.010056
30	0xbf20b46d	-0.6277531
31	0xbf88349d	-1.0641056
32	0xbf296f98	-0.66185904
33	0x3dd2293d	0.10261772
34	0xbe77176e	-0.24130031
35	0xbebd50be	-0.36975664
36	0x3dfb260d	0.12263117
37	0xbf099bd0	-0.53753376
38	0xbeeab9bf	-0.45844838
39	0xbf9c2145	-1.2197653
40	0xbf68375d	-0.9070948
41	0xbe439d10	-0.19102883
42	0xbf0aa9f2	-0.54165566
43	0xbf894237	-1.0723332
44	0xbe4c5616	-0.19954714
45	0x3f045b80	0.5170212
46	0xbf76679f	-0.96251863
47	0xbf413061	-0.75464445
48	0xbf49f6e5	-0.78892356
49	0xbf415df3	-0.7553398
50	0xbface916	-1.3508632
51	0xbebb8908	-0.36627984
52	0x3fef5b20	1.8699684
53	0x3f81df44	1.014626
54	0xbf3d271e	-0.73887813
55	0xbf48ddc3	-0.7846338
56	0x3e0076f0	0.12545371
57	0xbf494435	-0.786197
58	0x3ef76e1d	0.48326197
59	0x3f492c6b	0.785834
60	0xbf011efd	-0.5043791
61	0xbeb79183	-0.35853204
62	0xbf032b15	-0.5123761
63	0xbf78fb93	-0.9725887
64	0xbfb85b71	-1.4402906
65	0xbee9daae	-0.45674652
66	0x3e1e20f4	0.15442258
67	0xbf40bdcb	-0.752896
68	0xbfe19939	-1.7624885
69	0xbf544504	-0.8291781
70	0x3f8f8fb8	1.1215734
71	0x38828e46	6.2253835e-05
72	0xbf176844	-0.5914347
73	0x3cfbd4aa	0.030741055
74	0xbf5b05cf	-0.8555574
75	0xbf0b3076	-0.5437082
76	0xbeaf3bd7	-0.34225342
77	0xbebd12cd	-0.36928406
78	0x3fa146b1	1.2599698
79	0xbf2542bc	-0.64554954
80	0xbf04cea0	-0.51877785
81	0xbe9643b3	-0.29348525
82	0xbe4834fa	-0.19551459
83	0x3f5bf8b4	0.85926366
84	0xbfc1a7e7	-1.5129365
85	0xbf646bb4	-0.8922684
86	0x3f16b666	0.5887207
87	0xbf05f64c	-0.52328944
88	0x3d8e7e87	0.06957727
89	0xbf383e5d	-0.7197016
90	0xbec9a2bb	-0.39381966
91	0xbf8bde3a	-1.0927193
92	0x3f4bf1c4	0.7966578
93	0xbf2243ac	-0.6338451
94	0xbf6c3cac	-0.9228008
95	0xbe77a15f	-0.24182652
96	0xbf924dcc	-1.1429992
97	0xbf75c971	-0.960105
98	0x3e59bc3d	0.21263213
99	0xbf9e0ed0	-1.234827
100	0xbf97fa24	-1.1873212
101	0xbe8d1b11	-0.27559713
102	0xbf51946c	-0.818671
103	0xbf6f6b17	-0.9352278
104	0xbf348547	-0.70515865
105	0x3f574885	0.8409503
106	0xbf34c8f4	-0.7061913
107	0x3f1bc90f	0.60853666
108	0xbf3a7592	-0.7283565
109	0x3dcb3d29	0.09923775
110	0xbfa5908b	-1.2934736
111	0xbf5bfa76	-0.8592905
112	0xbf31059e	-0.69149196
113	0xbf414f76	-0.7551187
114	0xbf396bad	-0.72429925
115	0xbf0e68a6	-0.5562843
116	0xbfaa9485	-1.3326575
117	0xbf18ea6b	-0.59732693
118	0xbf3cc2c0	-0.73734665
119	0x3e430589	0.1904508
120	0xbf39c679	-0.7256847
121	0xbf1c8c32	-0.6115142
122	0xbf646007	-0.89209026
123	0xbf22389f	-0.63367647
124	0xbfb87550	-1.4410801
125	0xbfeb447a	-1.8380272
126	0xbee8adf8	-0.45445228
127	0xbf0bba4d	-0.5458115
128	0xbfbc296d	-1.4700142
129	0xbf26ede7	-0.6520676
130	0xbf10bb6d	-0.5653599
131	0x3f7ab2e6	0.9792923
132	0xbf6d218c	-0.92629313
133	0xbf7a6aeb	-0.97819394
134	0x3f4337b0	0.7625685
135	0xbfde3c47	-1.7362145
136	0xbe618bce	-0.22025988
137	0xbf80544a	-1.0025723
138	0x400bb991	2.183201
139	0xbf45a3c6	-0.77203023
140	0xbf557769	-0.8338533
141	0xbf1bd564	-0.60872483
142	0xbf2866b9	-0.6578174
143	0x3f5e73dd	0.86895543
144	0xbf4e3488	-0.80548906
145	0xbf0d4e58	-0.5519767
146	0xbf2aece5	-0.6676772
147	0xbfef5bd7	-1.8699902
148	0xbfa08ddc	-1.2543292
149	0xbf5d20b5	-0.8637803
150	0xbf5b7877	-0.8573069
151	0xbf546a98	-0.8297515
152	0xbf77438d	-0.9658745
153	0xbf5f6f39	-0.8727909
154	0x3f81a86f	1.0129527
155	0x3f4adfb9	0.79247624
156	0xbeffef13	-0.49987087
157	0x3e9ea1ce	0.30982822
158	0xbf0078a8	-0.50184107
159	0xbf6c7cf2	-0.9237815
160	0xbf917762	-1.1364558
161	0xbf8d4a02	-1.103821
162	0x3f5ad545	0.85481673
163	0xbf06c6cf	-0.5264711
164	0xbf315d18	-0.69282675
165	0x3f6fbb7c	0.93645453
166	0xbf8a0512	-1.0782797
167	0xbe63afcf	-0.22235034
168	0xbf4363fe	-0.7632445
169	0xbf8deca7	-1.1087846
170	0xbf476693	-0.7789089
171	0xbfb27bfd	-1.3944088
172	0xbead8a85	-0.33894745
173	0xbfbe384b	-1.4860929
174	0xbf8b3ea2	-1.0878489
175	0xbf0ad2ca	-0.5422789
176	0xbf503111	-0.8132487
177	0xbf95ea1f	-1.1712073
178	0xbf390399	-0.72271115
179	0xbfacc17f	-1.349655
180	0xbf2d8be8	-0.67791605
181	0xbf32a6a5	-0.6978553
182	0xbe7ea47b	-0.24867432
183	0xbfd5a48c	-1.6690841
184	0xbef7edfe	-0.4842376
185	0xbf902b31	-1.1263181
186	0xbf06295b	-0.52406853
187	0x3f7b11c2	0.9807397
188	0xbf3f3942	-0.74696743
189	0xbfe04699	-1.7521545
190	0xbf95f4a2	-1.1715281
191	0xbf1d0f5e	-0.61351573
192	0x3f585bc2	0.8451501
193	0xbf03311e	-0.5124682
194	0x3f504dce	0.8136872
195	0xbfea5c62	-1.8309443
196	0xbf53a018	-0.8266616
197	0xbe6aa4ee	-0.22914478
198	0xbe85f403	-0.2616273
199	0xbf9317aa	-1.1491597
200	0xbf48880a	-0.7833258
201	0xbeee7607	-0.46574423
202	0xbecea237	-0.40358135
203	0x3f51902c	0.81860614
204	0xbf4cd4ab	-0.80012006
205	0xbfcf96ec	-1.6217933
206	0xbf60ca3d	-0.8780859
207	0xbeda781f	-0.4266977
208	0xbf325de8	-0.6967454
209	0x3f5da998	0.86586905
210	0xbf3db3ed	-0.7410267
211	0xbed112e6	-0.4083473
212	0xbf558fb0	-0.83422375
213	0xbf884ad2	-1.0647833
214	0xbf1b050d	-0.6055458
215	0xbf234ced	-0.63789254
216	0x3f739ccc	0.9516113
217	0xbf8a7950	-1.0818272
218	0xbfa14c44	-1.26014
219	0xbfc9efd0	-1.577631
220	0xbf99fb9f	-1.2029914
221	0xbf7040f6	-0.9384912
222	0xbe93bdd4	-0.28855765
223	0xbf15bd82	-0.5849229
224	0xbf295f2a	-0.66160834
225	0xbf3951e5	-0.72390586
226	0xbf5fed8f	-0.8747186
227	0xbf2e7c1b	-0.6815812
228	0xbf7e75f5	-0.9939874
229	0xbf3bd3a5	-0.7336982
230	0x3f5844a8	0.8447976
231	0xbf97ce57	-1.1859845
232	0x3f4a6a65	0.79068595
233	0xbf5659b3	-0.8373062
234	0xbeea5434	-0.45767367
235	0xbf1942dd	-0.5986765
236	0xbf42f415	-0.7615369
237	0xbf9cd8f1	-1.2253705
238	0xbf40728d	-0.7517479
239	0xbf3819b9	-0.7191425
240	0x3f6e0d35	0.929889
241	0xbee39b79	-0.44454554
242	0x3e00e2e8	0.12586558
243	0xbf1cae86	-0.612038
244	0xbf7dfc6e	-0.992133
245	0x3fc4017a	1.5312951
246	0xbd809bd3	-0.06279721
247	0xbee6ff33	-0.45116577
248	0xbe544112	-0.20727947
249	0x3dd57a35	0.104237
250	0xbf19be4c	-0.60055995
251	0xbf4f2634	-0.8091767
252	0xbf800372	-1.0001051
253	0xbf65bb35	-0.8973878
254	0x3ed620e5	0.41821972
255	0xbf3fa76b	-0.74864835

sequential/dense_1/MatMul f4 [6, 20]
0	0xc001732c	-2.0226545
1	0xc00476b3	-2.0697448
2	0xc03405a4	-2.8128443
3	0xbfd15348	-1.635354
4	0xbfd46508	-1.6593332
5	0xbf5d60ce	-0.8647584
6	0xc0141204	-2.3135996
7	0x400eada4	2.2293482
8	0xc014b5d6	-2.3235984
9	0x3e8b1b9a	0.27169496
10	0xc01937b9	-2.394026
11	0xbf914ef4	-1.135222
12	0xbfcfc4b5	-1.6231905
13	0xbf745610	-0.9544382
14	0xc0105706	-2.2553115
15	0x40117d96	2.2732902
16	0xc0244587	-2.5667436
17	0xc0266873	-2.600125
18	0x4028a1bd	2.6348717
19	0xbfe14458	-1.7598982
20	0xbfeb8cd5	-1.8402354
21	0xc019fa39	-2.4058974
22	0x4021f4c9	2.5305655
23	0xc01ec2b8	-2.4806347
24	0x3fe2887a	1.7697899
25	0xbf931824	-1.1491742
26	0x3feaaea3	1.8334545
27	0xc008e78d	-2.1391327
28	0xc01fbd3b	-2.4959247
29	0x40146e0f	2.3192174
30	0xbf838578	-1.0275106
31	0xbfd0a54e	-1.6300447
32	0xbff4f452	-1.9137061
33	0xbfd63a41	-1.6736528
34	0xc0101aab	-2.2516277
35	0xbfdf5f99	-1.7451049
36	0xbec5921e	-0.3858804
37	0xbece5a9b	-0.403035
38	0xbfd7921d	-1.6841465
39	0xbfe11d80	-1.7587128
40	0xc00c637f	-2.1935728
41	0xc011afe6	-2.276361
42	0xc020cb04	-2.512391
43	0x3e80d8b7	0.2516534
44	0xbff31faf	-1.8994044
45	0xc01435d9	-2.3157866
46	0x3fc8e9e1	1.5696374
47	0xbf5a1b48	-0.8519788
48	0x400de9d3	2.2173965
49	0xc022d2bf	-2.544113
50	0xbf98a238	-1.1924505
51	0xbfb7f6d0	-1.4372196
52	0xbfc59648	-1.5436487
53	0xc00ca015	-2.1972706
54	0x3fccab60	1.59898
55	0xc0190d42	-2.3914342
56	0x4029e9ce	2.6548953
57	0xc018b45f	-2.386009
58	0xc014ac5a	-2.3230195
59	0x3ede8377	0.43459675
60	0xc014b463	-2.32351
61	0xc01ac062	-2.417992
62	0xbe18da2c	-0.14926976
63	0xc029a2f7	-2.6505716
64	0xbff8da96	-1.9441707
65	0xc007ba1d	-2.1207345
66	0xbfd29477	-1.6451558
67	0xc0061b87	-2.0954301
68	0xbfc8cc68	-1.568738
69	0xbfe0ae07	-1.7553109
70	0xc0187852	-2.3823438
71	0xbf3dc962	-0.7413541
72	0x3f247cae	0.64252746
73	0x3ef8a317	0.48561928
74	0xc001003a	-2.0156388
75	0x3f06c2b7	0.5264086
76	0xc018a260	-2.3849106
77	0x401f2266	2.4864745
78	0xbf961481	-1.1725007
79	0x3fc66305	1.5498968
80	0x40168d79	2.3523848
81	0xc01aec31	-2.420666
82	0xbf82a519	-1.0206634
83	0x400cfe6c	2.2030287
84	0xbfe51ad8	-1.7898817
85	0xc00bac03	-2.1823738
86	0xc015c814	-2.3403368
87	0xbf8b590c	-1.088655
88	0x3facc875	1.3498675
89	0xc0198966	-2.3990111
90	0xc00c6098	-2.1933956
91	0x3fc2b27b	1.5210718
92	0x3fee883c	1.8635325
93	0x3f584e0e	0.844941
94	0xbff29d6f	-1.8954295
95	0xbfddca27	-1.7327317
96	0xc00bb42e	-2.1828723
97	0xc02991de	-2.649528
98	0xc00b539a	-2.1769776
99	0xbfc41ed3	-1.5321907
100	0x3ed879f5	0.42280546
101	0x4030ee68	2.7645512
102	0xc008c5d6	-2.137075
103	0xc010caab	-2.2623699
104	0xbe36f78a	-0.17867866
105	0x4009cf90	2.1532936
106	0xbfb5ed3a	-1.4213021
107	0xbf7e6ccd	-0.99384767
108	0xbffd82c3	-1.980553
109	0xbffdccda	-1.9828141
110	0x40213182	2.5186467
111	0x3fc4db19	1.5379363
112	0xbef691f0	-0.48158216
113	0x3fd7df4d	1.6865021
114	0x40113297	2.2687128
115	0xbf607888	-0.87683916
116	0xbff4378e	-1.9079454
117	0xc0168c99	-2.3523314
118	0xbfec7fe5	-1.847653
119	0x3fa0816b	1.2539495
