Python/SpeechRecognition/DeepSpeech/models/taskClassifierPhon.tflite (tflite, 27792 bytes, 4 tensors)

sequential/dense/BiasAdd/ReadVariableOp f4 [20]
0.35053846 0.8310625 0.76615965 -0.68012094 0.36537313 -0.90956223 -1.1713669 -0.08503995
-0.8935739 -0.58669245 -1.1359013 0.41845718 -1.0452213 -1.1075774 0.35849234 -1.1298724
0.7527346 -1.1774318 -0.46083122 -0.9078776
00000000: c779 b33e 83c0 543f 0a23 443f 681c 2ebf
00000010: 3012 bb3e 12d9 68bf 5aef 95bf 6d29 aebd
00000020: 42c1 64bf 7a31 16bf 3765 91bf 0540 d63e
00000030: d0c9 85bf 19c5 8dbf 4f8c b73e a99f 90bf
00000040: 37b3 403f 16b6 96bf 12f2 ebbe ab6a 68bf

sequential/dense_1/BiasAdd/ReadVariableOp f4 [6]
0.11538881 0.19517447 -0.19801235 0.10889083 -0.4423017 -0.18656108
00000000: f850 ec3d d1db 473e c0c3 4abe 2802 df3d
00000010: 5e75 e2be de09 3fbe

sequential/dense/MatMul f4 [20, 324]
-0.4154794 -0.35357758 0.07526815 0.4813146 -0.34526327 -0.28175044 0.15684018 -0.29125565
-0.40834844 -0.264165 0.4088573 -0.13784887 -0.37260422 -0.25334913 0.14805682 0.3400784
-0.5288101 -0.3109405 0.112199135 -0.22490227 -0.11239952 -0.28843355 -0.33547017 -0.235726
-0.01848509 -0.43095115 -0.39325634 -0.11369554 -0.24719733 -0.3839869 0.6927965 0.16272728
-0.2802568 0.39049947 -0.66526765 -0.44442853 0.06872346 -0.39417624 -0.20340359 -0.042575136
-0.45796436 -0.4272184 -0.3238418 -0.55567724 0.41490462 0.010036828 -0.06023625 0.35886544
-0.5227717 -0.54260105 -0.39749402 0.6503709 0.3342293 0.24516103 -0.39266247 -0.36163214
0.1160596 -0.6504502 -0.25152716 0.40469077 0.538729 -0.45661467 -0.529713 -0.0011910876
-0.17815378 0.30153728 -0.28096282 -0.3844105 0.7732646 -0.7590367 -0.23404329 0.52812195
0.15747796 -0.2446821 -0.3405828 0.16179867 -0.47421077 -0.03528763 -0.32533297 0.4977278
0.15937892 -0.25969133 -0.5023764 -0.6125059 -0.33575526 -0.2444078 -0.38938567 -0.3936802
-0.45193923 -0.5118002 -0.45373482 -0.45303035 -0.35787094 -0.8036419 -0.23382968 -0.6074366
0.3217657 -0.20671958 -0.4416901 -0.4880242 -0.19377442 -0.5851214 -0.51736575 -0.011980379
-0.41871747 0.32521367 0.9205744 0.4972878 0.41835514 -0.46620235 0.08119414 0.46022245
-0.70615655 -0.96305877 -0.272094 -0.15637615 -0.6674 -0.6956157 0.50285906 0.38682005
-0.34886765 0.6723251 -0.62768567 0.55760586 -0.32618627 -0.42978656 -0.5263387 -0.28065026
-0.4211238 -0.42459062 0.11842734 0.24238789 -0.5067432 -0.39068773 -0.35564956 -0.24113789
-0.5679868 -0.38875097 -0.63819045 -0.32570592 -0.46801457 -0.25589493 -0.5532025 -0.2588386
-0.4041082 0.27424955 -0.26961794 0.3084191 0.3535307 -0.13100272 0.22070585 -0.6540833
0.41981286 0.16601305 -0.41276824 -0.4102185 0.38613647 -0.33213842 0.9304898 -0.58213586
-0.26237476 -0.2019938 -0.1502285 -0.57742643 -0.40403563 -0.47878045 -0.32584944 -0.5064348
-0.31729332 -0.2981322 -0.47606558 -0.26819068 -0.44354352 -0.36584204 -0.11492104 -0.30142236
0.44470075 -0.37221497 -0.18688054 -0.2273592 0.1979661 -0.36468515 -0.67315096 0.36870128
-0.46313182 -0.38525173 -0.30361235 -0.29965174 -0.28150672 0.3133073 -0.28332558 -0.42614195
-0.52349675 0.2676865 0.20507048 -0.4797638 -0.054439925 -0.9240513 -0.33797798 0.39410844
-0.29039976 -0.2258127 -0.2282021 -0.9933482 -0.36366883 -0.4579291 -0.22429731 -0.3591729
0.21332611 -0.4413713 0.16173588 -0.41388234 -0.38484716 -0.4483271 0.18858042 0.3069892
-0.44933078 -0.5154817 -0.25959474 0.8119801 -0.34745067 0.20131263 0.99535984 -0.33481112
0.42294297 -0.38710505 -0.2205491 0.055226006 -0.4618534 -0.23950158 0.38220325 -0.3441197
-0.42336965 -0.49205884 0.22450933 -0.860115 0.04143103 -0.70704573 -0.15014057 -0.53346276
-0.41914347 -0.12472283 -0.5403194 -0.24243936 -0.31390393 0.25324184 -0.44596764 0.51198274
-0.52607644 -0.2848515 0.27514976 0.5709646 -0.38523886 0.5482691 -0.29575226 0.048620973
00000000: b7b9 d4be 1f08 b5be 3026 9a3d de6e f63e
00000010: 59c6 b0be 9841 90be b69a 203e 761f 95be
00000020: 0c13 d1be a340 87be be55 d13e 4128 0dbe
00000030: fbc5 bebe fab6 81be 359c 173e c21e ae3e
00000040: 1960 07bf 9833 9fbe a9c8 e53d c84c 66be
00000050: b831 e6bd 90ad 93be bfc2 abbe 2862 71be
00000060: 0b6e 97bc a1a5 dcbe e558 c9be 35d9 e8bd
00000070: 4c21 7dbe ee99 c4be 1d5b 313f fba1 263e
00000080: d27d 8fbe 8cef c73e fb4e 2abf 238c e3be
00000090: e3be 8c3d 78d1 c9be 0849 50be 4463 2ebd
000000a0: 4e7a eabe 5fbc dabe 98ce a5be dd40 0ebf
000000b0: 616e d43e 8271 243c 49ba 76bd 36bd b73e
000000c0: 5ed4 05bf e7e7 0abf 5684 cbbe b57e 263f
000000d0: 1a20 ab3e 7e0b 7b3e 0e0b c9be d927 b9be
000000e0: a8b0 ed3d e883 26bf 2bc8 80be a133 cf3e
000000f0: 25ea 093f 66c9 e9be 459b 07bf 451e 9cba
00000100: f26d 36be 1863 9a3e 5cda 8fbe 74d1 c4be
00000110: abf4 453f 3b50 42bf 0ba9 6fbe 0033 073f
00000120: e741 213e f28d 7abe de60 aebe 8dae 253e
00000130: c1cb f2be c389 10bd 0b92 a6be 2ed6 fe3e
00000140: 3a34 233e 43f6 84be bd9b 00bf 30cd 1cbf
00000150: 1de8 abbe 0a46 7abe 8f5d c7be 7490 c9be
00000160: 9464 e7be 5705 03bf ee4f e8be 98f3 e7be
00000170: dc3a b7be 7abb 4dbf 0c71 6fbe f780 1bbf
00000180: 79be a43e 4cae 53be 3425 e2be 4fde f9be
00000190: cd6c 46be 84ca 15bf 1572 04bf 5a49 44bc
000001a0: 2362 d6be 6882 a63e c4aa 6b3f 829c fe3e
000001b0: a532 d63e 13b2 eebe 1d49 a63d 47a2 eb3e
000001c0: adc6 34bf 058b 76bf e84f 8bbe 1221 20be
000001d0: bada 2abf df13 32bf 5fbb 003f 470d c63e
000001e0: c89e b2be 7f1d 2c3f 02b0 20bf 42bf 0e3f
000001f0: e301 a7be fc0c dcbe 22be 06bf 64b1 8fbe
00000200: 8a9d d7be f163 d9be 098a f23d 8834 783e
00000210: ecb9 01bf 3908 c8be b317 b6be daec 76be
00000220: 9567 11bf 5e0a c7be 7360 23bf edc2 a6be
00000230: 9b9f efbe a904 83be ae9e 0dbf 7e86 84be
00000240: 45e7 cebe 706a 8c3e 5d0b 8abe 1ce9 9d3e
00000250: fa01 b53e 9425 06be b700 623e 0172 27bf
00000260: b6f1 d63e 53ff 293e 5c56 d3be 2908 d2be
00000270: aeb3 c53e 0c0e aabe 9434 6e3f db06 15bf
00000280: fc55 86be 76d7 4ebe 80d5 19be 38d2 13bf
00000290: c2dd cebe b622 f5be bdd5 a6be b6a5 01bf
000002a0: 4574 a2be c9a4 98be debe f3be 4a50 89be
000002b0: 2318 e3be a64f bbbe b95b ebbd 0854 9abe
000002c0: d1af e33e f692 bebe 9d5d 3fbe dad0 68be
000002d0: a0b7 4a3e 03b8 babe 9f53 2cbf 6ac6 bc3e
000002e0: 9d1f edbe b73f c5be 1473 9bbe f46b 99be
000002f0: a621 90be d069 a03e 0d10 91be 472f dabe
00000300: e203 06bf 340e 893e fffd 513e 9aa3 f5be
00000310: 66fc 5ebd a08e 6cbf 730b adbe 95c8 c93e
00000320: 47af 94be 723b 67be d0ad 69be 114c 7ebf
00000330: cd32 babe af75 eabe 32ae 65be 83e5 b7be
00000340: 2972 5a3e 6bfb e1be 179e 253e 63e8 d3be
00000350: b00a c5be 218b e5be 3a1b 413e b02d 9d3e
00000360: af0e e6be 9cf6 03bf 9ae9 84be eedd 4f3f
00000370: 0ee5 b1be e624 4e3e e7cf 7e3f 5d6c abbe
00000380: fb8b d83e a232 c6be a0d7 61be aa34 623d
00000390: 0d78 ecbe e73f 75be 25b0 c33e 7530 b0be
000003a0: e8c3 d8be 23ef fbbe c6e5 653e 7f30 5cbf
000003b0: 95b3 293d f300 35bf 73be 19be 0491 08bf
000003c0: f999 d6be af6e ffbd 5f52 0abf 0642 78be
000003d0: 04b8 a0be eaa8 813e df55 e4be 4d11 033f
000003e0: f2ac 06bf 0ed8 91be 6ee0 8c3e bc2a 123f
000003f0: 073e c5be 5d5b 0c3f d76c 97be c926 473d

sequential/dense_1/MatMul f4 [6, 20]
-1.3133606 -1.4079571 -0.61420226 0.827706 -1.6366631 -1.1540413 -0.8995925 -1.4718304
-0.8662934 -1.3689781 0.16677657 -1.7307074 0.6215544 -0.8716499 1.8354917 0.24548113
-1.1299267 -1.0845904 -0.45024702 -1.3471532 1.8589154 -1.4445109 -1.5580767 -0.9636116
-1.573897 -0.89391804 -1.0244138 0.4138108 0.28180683 1.0472932 -1.2467364 -1.0014102
0.39736682 -0.61027473 -1.240157 -0.18622777 -1.0278269 -0.4638469 -0.55720335 0.55194026
-1.4566307 -1.7107315 0.88456124 0.7195423 1.5104513 -0.47838086 -0.05979064 -1.2734486
-1.1374118 -1.3779973 -0.4440712 -1.7655866 -0.939916 -0.22617769 -1.4445279 -0.75896466
-1.4504964 -0.36288136 -1.4076562 -0.9270623 -1.4220301 -1.5873117 -1.6887914 -1.5412791
-0.50699574 -1.3350472 -0.56385595 -1.5055802 1.1117946 1.2010493 -0.17061578 1.7857006
-0.7412905 0.22310518 -1.5445421 0.86904347 -1.5356154 -0.27156535 -0.9320855 -1.317996
-1.7661564 1.2521986 -1.4973425 1.0659938 -1.5256773 0.91482586 -0.92687577 1.4377719
-1.076774 -0.66886127 1.01584 -1.2941577 -0.33615914 -0.95052785 -1.3976707 -0.2036525
0.0318211 -1.0100174 -0.17367414 0.12630238 -1.7562085 1.5133791 1.6465167 -1.2749681
-0.4795416 0.9594415 0.5072104 -1.3950075 0.35464185 -0.9974759 -0.13580015 -0.6801204
0.23701765 1.1240498 -1.2631873 0.21884693 1.6419284 0.45452395 1.5023503 1.1813174
00000000: 331c a8bf f037 b4bf 5c3c 1dbf 8ae4 533f
00000010: 2d7e d1bf a0b7 93bf b24b 66bf f064 bcbf
00000020: 67c5 5dbf ad3a afbf 7ac7 2a3e d287 ddbf
00000030: 301e 1f3f 7324 5fbf 64f1 ea3f 685f 7b3e
00000040: 70a1 90bf dcd3 8abf c786 e6be 846f acbf
00000050: f1f0 ed3f bce5 b8bf 0f6f c7bf 40af 76bf
00000060: 7575 c9bf d0d7 64bf fe1f 83bf 02df d33e
00000070: fc48 903e b40d 863f 0f95 9fbf 362e 80bf
00000080: aa73 cb3e f73a 1cbf 77bd 9ebf 7eb2 3ebe
00000090: d58f 83bf 577d edbe e1a4 0ebf f54b 0d3f
000000a0: e072 babf 40f9 dabf 9b72 623f ed33 383f
000000b0: 7856 c13f 56ee f4be 08e7 74bd 5d00 a3bf
000000c0: b696 91bf 3762 b0bf 4d5d e3be befe e1bf
000000d0: 569e 70bf 209b 67be 4ae6 b8bf 824b 42bf
000000e0: dea9 b9bf 96cb b9be 142e b4bf f453 6dbf
000000f0: 1505 b6bf 082d cbbf 512a d8bf a248 c5bf
00000100: 79ca 01bf d4e2 aabf dd58 10bf dab6 c0bf
00000110: 494f 8e3f fcbb 993f e7b5 2ebe d691 e43f
00000120: 37c5 3dbf af75 643e 8eb3 c5bf a279 5e3f
00000130: 0c8f c4bf 9d0a 8bbe 289d 6ebf 18b4 a8bf
00000140: 6a11 e2bf 0b48 a03f eba8 bfbf 7c72 883f
00000150: 6549 c3bf 0732 6a3f bb47 6dbf e908 b83f
00000160: bbd3 89bf 7e3a 2bbf 0c07 823f f6a6 a5bf
00000170: 0d1d acbe cb55 73bf e0e6 b2bf 488a 50be
00000180: d756 023d 4048 81bf a2d7 31be 6955 013e
00000190: 71cb e0bf 68b6 c13f 0fc1 d23f 2832 a3bf
000001a0: 7a86 f5be f59d 753f 8ad8 013f 9b8f b2bf
000001b0: 9e93 b53e 955a 7fbf 320f 0bbe 5f1c 2ebf
000001c0: c1b4 723e dde0 8f3f 1fb0 a1bf 6919 603e
000001d0: b62a d23f 5db7 e83e 044d c03f 6935 973f
