Python/SpeechRecognition/DeepSpeech/models/taskClassifierRNN.tflite (tflite, 753772 bytes, 32 tensors)

sequential_1/dense_2/BiasAdd/ReadVariableOp f4 [20]
00000000: 0857 123d 28ae 7bbc 7dbf 723d 3893 543e
00000010: cd49 933e 7b4d bd3c 88c9 fa3d d290 70bc
00000020: 199d 893d 1bbc 7c3c ab3a 2a3e e9a3 ee3c
00000030: 441f 2b3e d8b4 393e b7d1 ca3d a0c2 f63c
00000040: a1b7 cfbd 68f9 1b3e 02ff cfbb 139a c0bd
0.03572753 -0.015361346 0.05926465 0.20759284 0.28767243 0.023108235 0.1224547 -0.014682965
0.06719417 0.015425707 0.16623943 0.029130893 0.16711146 0.18135393 0.09903281 0.030122101
-0.10142446 0.1523186 -0.006347538 -0.09404387

sequential_1/lstm/TensorArrayV2_1 f4 [1, 1, 64]
00000000: 0000 0000 0000 0000 0000 0000 0000 0000
00000010: 0000 0000 0000 0000 0000 0000 0000 0000
00000020: 0000 0000 0000 0000 0000 0000 0000 0000
00000030: 0000 0000 0000 0000 0000 0000 0000 0000
00000040: 0000 0000 0000 0000 0000 0000 0000 0000
00000050: 0000 0000 0000 0000 0000 0000 0000 0000
00000060: 0000 0000 0000 0000 0000 0000 0000 0000
00000070: 0000 0000 0000 0000 0000 0000 0000 0000
00000080: 0000 0000 0000 0000 0000 0000 0000 0000
00000090: 0000 0000 0000 0000 0000 0000 0000 0000
000000a0: 0000 0000 0000 0000 0000 0000 0000 0000
000000b0: 0000 0000 0000 0000 0000 0000 0000 0000
000000c0: 0000 0000 0000 0000 0000 0000 0000 0000
000000d0: 0000 0000 0000 0000 0000 0000 0000 0000
000000e0: 0000 0000 0000 0000 0000 0000 0000 0000
000000f0: 0000 0000 0000 0000 0000 0000 0000 0000
0.0 0.0 0.0 0.0 0.0 0.0 0.0 0.0
0.0 0.0 0.0 0.0 0.0 0.0 0.0 0.0
0.0 0.0 0.0 0.0 0.0 0.0 0.0 0.0
0.0 0.0 0.0 0.0 0.0 0.0 0.0 0.0
0.0 0.0 0.0 0.0 0.0 0.0 0.0 0.0
0.0 0.0 0.0 0.0 0.0 0.0 0.0 0.0
0.0 0.0 0.0 0.0 0.0 0.0 0.0 0.0
0.0 0.0 0.0 0.0 0.0 0.0 0.0 0.0

sequential_1/lstm_2/StatefulPartitionedCall/BiasAdd/ReadVariableOp f4 [256]
00000000: ab05 8e3e 4874 ce3e 76f1 ab3e 1cb3 3e3e
00000010: 0014 a23e 41db 4b3e b743 643e 9759 a33e
00000020: d116 8b3e b136 c23e 6598 b93e edc2 833e
00000030: 6761 393e dee0 503e a73f f63e c0ef 973e
00000040: 3540 6d3e 8f4e 4b3e d4ef 503e 66ab d33e
00000050: 5882 d13e ba88 ee3e 57ab bd3e 8a8b c63e
00000060: 241c a53e 7210 b43e 5088 293e 4522 923e
00000070: e12b 9e3e 4dd4 993e 9141 2d3e 0ee4 8f3e
00000080: ea1e 993d 03e0 fa3e bf85 a43e 74b5 803e
00000090: a681 9d3e 2999 ac3e b976 843e be05 9c3e
000000a0: 3ec9 b33e cffc 9e3e 1e5c be3e 7de1 a43e
000000b0: bedd b83e 98e8 0b3e 5fd1 a23e f563 783e
000000c0: f4ca 4a3e ffdc 6d3e 9197 093e 432a 9a3e
000000d0: 343f 003f 8a9a 4f3e ccb8 803e dc93 7b3e
000000e0: f2dd 663e 0a96 443e e475 9a3e 7a74 943e
000000f0: 2669 aa3e 607e 4a3e e733 963e dcba e13d
00000100: 0000 803f 0000 803f 0000 803f 0000 803f
00000110: 0000 803f 0000 803f 0000 803f 0000 803f
00000120: 0000 803f 0000 803f 0000 803f 0000 803f
00000130: 0000 803f 0000 803f 0000 803f 0000 803f
00000140: 0000 803f 0000 803f 0000 803f 0000 803f
00000150: 0000 803f 0000 803f 0000 803f 0000 803f
00000160: 0000 803f 0000 803f 0000 803f 0000 803f
00000170: 0000 803f 0000 803f 0000 803f 0000 803f
00000180: 0000 803f 0000 803f 0000 803f 0000 803f
00000190: 0000 803f 0000 803f 0000 803f 0000 803f
000001a0: 0000 803f 0000 803f 0000 803f 0000 803f
000001b0: 0000 803f 0000 803f 0000 803f 0000 803f
000001c0: 0000 803f 0000 803f 0000 803f 0000 803f
000001d0: 0000 803f 0000 803f 0000 803f 0000 803f
000001e0: 0000 803f 0000 803f 0000 803f 0000 803f
000001f0: 0000 803f 0000 803f 0000 803f 0000 803f
00000200: 1c5c babd e0cf 78be 8a6a c53c f6b5 3b3d
00000210: 3185 14be f1c4 db3b f22b 373e 1073 92bb
00000220: a8a8 a7bd 7ae1 61be 5b6f 08bd d40a 09bc
00000230: 0815 e63d fd9f a43c 499f 7e3e d59a 053d
00000240: c179 3abc 5b63 a5bc 87fe f93d 2620 3bbe
00000250: 9072 ac3d a475 e8bc 1fd1 94bc 8198 833e
00000260: 6c7b dc3d 3668 41be 9157 d8bc 73e5 3d3e
00000270: f696 2b3e fefa debd f69e 9d3c be28 30bd
00000280: 87a2 0c3e ed59 833e 876b 5f3d 91bc fbbd
00000290: b836 363e bb96 a4bd 4804 1ebe 4ce7 fe3d
000002a0: fe1e 3ebe 9fd0 17bb d82f c4bd 1b71 463e
000002b0: 65a3 1abe 5c03 b13c 14fe 5fbe a609 a83d
000002c0: 9911 e53d 3efe 7fbd 24c6 e93d 2a54 c53d
000002d0: 51a0 dfbd 96f7 c1bd 5040 b4bc 9676 13bb
000002e0: 31bc 50be 52aa 0e3d 339b c33d 37a8 cbbd
000002f0: 3527 9c3d e58e 0bbe a707 18bd 57e3 d33d
00000300: 7990 8f3e f0e1 c53e c08f a93e 54e7 453e
00000310: f2ce 9c3e 0079 513e 1dea 733e 6061 af3e
00000320: 21ff 953e c75c bc3e bfcb b23e cf70 833e
00000330: 7f2e 3f3e f96c 603e 1fbc f13e 9190 993e
00000340: dc4a 733e b271 593e 3018 673e 9db7 d63e
00000350: 6d39 c23e 97fc ea3e 2b2d b93e 7a29 c23e
00000360: df40 a53e 2e3b b43e d143 253e 8c76 933e
00000370: dca3 9d3e 2f62 9a3e 5e42 303e 2b54 903e
00000380: 840c b33d f297 fb3e eb1f a53e 3b5d 7a3e
00000390: b88b 9d3e 6d90 a63e d239 803e 338b 9b3e
000003a0: ce95 aa3e f107 9d3e bfaa b73e 3a4f a13e
000003b0: 1954 ad3e 4305 133e 3323 a33e 1a5b 6c3e
000003c0: 34ff 503e 8943 843e 9535 103e b47d 993e
000003d0: 025b f73e 295f 533e 118f 823e 49a3 763e
000003e0: 8fef 823e 025a 443e 9f93 9f3e 5abc 923e
000003f0: f19e b03e cf19 583e 3528 9d3e b2bc c23d
0.277387 0.4032309 0.33582658 0.18623012 0.31655884 0.19907857 0.22291456 0.3190429
0.27165845 0.3793235 0.3624908 0.25734654 0.18103562 0.2039828 0.48095438 0.29675102
0.23169024 0.19854186 0.20403987 0.41341704 0.40919757 0.4658869 0.37044784 0.38778335
0.32248032 0.35168797 0.16555905 0.2854177 0.30892852 0.30044785 0.16919543 0.2810368
0.074765995 0.48999032 0.3213329 0.25138438 0.30762976 0.33710602 0.25871828 0.3047313
0.35114473 0.31052253 0.37179655 0.32203284 0.36106676 0.13662946 0.31800362 0.2425688
0.19803983 0.23228835 0.13436724 0.30110368 0.5009644 0.20273796 0.2514099 0.24568123
0.22545603 0.1919786 0.30168068 0.28995115 0.33283347 0.1977477 0.29336473 0.11021969
1.0 1.0 1.0 1.0 1.0 1.0 1.0 1.0
1.0 1.0 1.0 1.0 1.0 1.0 1.0 1.0
1.0 1.0 1.0 1.0 1.0 1.0 1.0 1.0
1.0 1.0 1.0 1.0 1.0 1.0 1.0 1.0
1.0 1.0 1.0 1.0 1.0 1.0 1.0 1.0
1.0 1.0 1.0 1.0 1.0 1.0 1.0 1.0
1.0 1.0 1.0 1.0 1.0 1.0 1.0 1.0
1.0 1.0 1.0 1.0 1.0 1.0 1.0 1.0
-0.090996 -0.24298048 0.024098653 0.04582783 -0.14503933 0.006706827 0.17887858 -0.004469283
-0.081864655 -0.22058669 -0.03330932 -0.008364398 0.1123448 0.02009582 0.2486545 0.032618362
-0.011381567 -0.020188978 0.1220675 -0.18273982 0.084202886 -0.028376408 -0.018166123 0.2570229
0.10765728 -0.1888741 -0.026408942 0.18544559 0.16756806 -0.10887717 0.019240838 -0.043007605
0.13733874 0.25654545 0.054545905 -0.122918256 0.17794311 -0.08036562 -0.1543132 0.1244646
-0.1856651 -0.002316512 -0.09579438 0.19379084 -0.15101393 0.021608047 -0.21874267 0.08204965
0.11184997 -0.062498324 0.114147455 0.09635194 -0.1091925 -0.094710514 -0.022003323 -0.0022501103
-0.2038429 0.0348304 0.09551086 -0.09944194 0.07624666 -0.13628729 -0.037116673 0.10346096
0.2803991 0.3864894 0.33117485 0.19326526 0.30626637 0.20456314 0.23819776 0.3425398
0.2929621 0.36789533 0.3492107 0.25672004 0.1867008 0.2191657 0.47213838 0.29993108
0.23759025 0.21234778 0.2256782 0.4193696 0.37934437 0.45895836 0.36167273 0.3792227
0.32276055 0.352014 0.16139151 0.28801382 0.30789077 0.30153033 0.17212817 0.28189215
0.087426215 0.49139363 0.32250914 0.24449627 0.3077066 0.32532063 0.25044113 0.30379638
0.33317417 0.3067012 0.35872456 0.31505758 0.33853224 0.14357476 0.31862792 0.23081627
0.20409852 0.25832775 0.1408294 0.29978716 0.4831162 0.2064177 0.25499776 0.24085726
0.25573394 0.1917496 0.31167313 0.28659326 0.34496263 0.21103595 0.30694738 0.09508647

sequential_1/output/BiasAdd/ReadVariableOp f4 [6]
00000000: fd96 4bbe 8af2 b5be 3c60 ab3e 539b 11bd
00000010: eb70 7d3d b47a fb3d
-0.19881816 -0.35536605 0.33471859 -0.03554852 0.061875265 0.12279263

sequential_1/lstm/lstm_cell/MatMul_7 f4 [1, 64]
00000000: 0000 0000 0000 0000 0000 0000 0000 0000
00000010: 0000 0000 0000 0000 0000 0000 0000 0000
00000020: 0000 0000 0000 0000 0000 0000 0000 0000
00000030: 0000 0000 0000 0000 0000 0000 0000 0000
00000040: 0000 0000 0000 0000 0000 0000 0000 0000
00000050: 0000 0000 0000 0000 0000 0000 0000 0000
00000060: 0000 0000 0000 0000 0000 0000 0000 0000
00000070: 0000 0000 0000 0000 0000 0000 0000 0000
00000080: 0000 0000 0000 0000 0000 0000 0000 0000
00000090: 0000 0000 0000 0000 0000 0000 0000 0000
000000a0: 0000 0000 0000 0000 0000 0000 0000 0000
000000b0: 0000 0000 0000 0000 0000 0000 0000 0000
000000c0: 0000 0000 0000 0000 0000 0000 0000 0000
000000d0: 0000 0000 0000 0000 0000 0000 0000 0000
000000e0: 0000 0000 0000 0000 0000 0000 0000 0000
000000f0: 0000 0000 0000 0000 0000 0000 0000 0000
0.0 0.0 0.0 0.0 0.0 0.0 0.0 0.0
0.0 0.0 0.0 0.0 0.0 0.0 0.0 0.0
0.0 0.0 0.0 0.0 0.0 0.0 0.0 0.0
0.0 0.0 0.0 0.0 0.0 0.0 0.0 0.0
0.0 0.0 0.0 0.0 0.0 0.0 0.0 0.0
0.0 0.0 0.0 0.0 0.0 0.0 0.0 0.0
0.0 0.0 0.0 0.0 0.0 0.0 0.0 0.0
0.0 0.0 0.0 0.0 0.0 0.0 0.0 0.0

lstm_cell/MatMul_4 f4 [64, 64]
00000000: 9051 febd 361c 143c 1c1a fabd b4af 9fbc
00000010: 94b7 cdbb d9bb 8d3c 0234 8e3c 6e0e 6a3d
00000020: 2b8f f9bd ee7a 153e b2f1 483d 749a f4bc
00000030: c81f ad3d ec56 053d 3824 8b3b e0be 99ba
00000040: d0c6 6dbc d2a3 84bd 87ee 083d e00d 01bd
00000050: 0ef9 29bd b2fb ddbd dd95 9e3d 9074 4fbc
00000060: aeed af3d 2c27 253d ac26 ca3d fe15 dfbc
00000070: 90d4 91bc 20ca abbb 2cc0 c13c 149d 753d
00000080: e492 823c d4e7 f9bd 4d20 66bd 622d 4fbc
00000090: 65b8 873d 5ef5 88bc 80a0 a13b dc95 833d
000000a0: 88ab 3c3d e5a7 6b3d 7de3 cdbc ec25 a43c
000000b0: 5fae aebd 88af d8bb 5e33 cc3c 2226 b0bc
000000c0: 0a00 cf3d bf61 45bc d6e6 3e3d fac9 9fbc
000000d0: b514 e53d cb3c 9d3c 8806 d23d c23a 593d
000000e0: 639d d8ba 06a4 4d3d ecdf f83b 3e0f e73d
000000f0: 0674 ec3b 804c 373c 03c0 aabc d068 d3bc
00000100: 8858 abbc 1840 25be 1aa0 113c eae7 a5bd
00000110: e8d7 1fbe c856 69bb 9f8c a63c 1101 d1bb
00000120: 6d3d 97bb 9c17 c93c 046e 0039 bb74 d9bd
00000130: 0ac7 40bc 1b68 d4bc fe34 8c3d fc93 23bd
00000140: 4bae d8bd 0315 f1bd 4d71 98ba 4e28 403d
00000150: d2b7 b7bd 127b d4bc fce6 93bc 01ba f2bb
00000160: 611a 323c c3a8 1b3e 2ffe 05bd c14e 2a3c
00000170: 62ff a93d 589a e23c d99e fabb 60cf 403d
00000180: b5ad d93c 5f4d 06bd 1235 7abc 625d 173a
00000190: 869f 1e3c f2f8 bf3d 581c 8f3d 9f02 bdbc
000001a0: 8b80 fe3c 7f2b 2dbd 77d8 95bc 8eed 80bd
000001b0: 5107 95bd 6e78 8d3c 49fc 833d d56d 2e3c
000001c0: 9ffd 1cbc dcbd 87bd f3e8 55bc 62fb f1bd
000001d0: aa39 08bd c794 7cbd 9251 bf3d 3a22 b03c
000001e0: 2526 96bd 17b1 2cbd e4cc 813d 6c58 983d
000001f0: 1c93 0fbc 6af2 1d3b 6c56 823d b6a6 afbb
00000200: 2f5e d3bc 20cc 42bc a018 44bd a7c6 9d3b
00000210: e685 253d d4e6 aa3d 4dbd f73d 413a 57bd
00000220: 707f a43c be92 723d c78f adbc 383d 813c
00000230: 61e0 1e3d 29e6 c5bc bb11 f1bd 998c 9ebc
00000240: 463d 3b3d fdcb a7bc eb8a b5bd b82d 5fbd
00000250: 6b0d fc3d 6671 e9bc ea32 eabd 51c8 edbd
00000260: 5e5b 7ebd cbcf 833d 33e6 c2bd 6cd3 83bd
00000270: 63c1 363d 0eb8 a43c 6821 6cbd f5cb cbbd
00000280: d83f 7bbd 833c 57bd ec8f 173d 97fa 73bc
00000290: 624e ac3d c7c8 afbd 1162 ef3c 5a3b d23d
000002a0: 5619 a03b f9cc 4ebc 0ec4 24be 2f63 fabc
000002b0: ad55 9f3c 4ea6 30bc c0ff 6ab8 8188 9cbd
000002c0: 57b2 1ebd e9ac ef3b c79d 66bd ed74 3ebd
000002d0: bf43 e8bd 2b7b 40bd b387 21bc ddec 143c
000002e0: 2b3d d6bd 17da 993d 99c0 88bd cc8e f6ba
000002f0: 9aa3 95bd fe91 c3bd 8367 86bd 8720 bebd
00000300: 80e3 463d f84a 353a ee36 ca3c c0fd 893c
00000310: 3231 adbd 0d9b 46bb 13d7 a53c 4261 1d3c
00000320: aaab 8abd 4227 2b3d 166e 193c 2d8d f63c
00000330: 07b5 00bd 8e2a b63d a353 81bc 948a b43c
00000340: 92ae e43d c4b2 0a3d 6ad8 323c 1650 133d
00000350: 599b 70bd cc4a 733e c96a fe3b 5a2e 3bbd
00000360: 957f 353c 0fb4 cd3d e33c 6abd 970c b03d
00000370: 2162 083d 6404 14bd 3fdc b9bd 3414 8dbd
00000380: 49f9 d6bd 73e3 16bc ebd9 363d 6a0b 8c3d
00000390: 8c83 8a3a e884 273e d1ec 6cbd aed1 c3bc
000003a0: 0a96 65bd d856 b83c 9de4 3fbc e098 3ebc
000003b0: e331 c7bc 48c2 143d bb16 c4bd 1a2c d73c
000003c0: 7c5d 513d b052 cbbc aa54 3a3e e4d6 e6bc
000003d0: 51d7 4b3d 9e23 3d3d e19f 0f3d 889e 243d
000003e0: 7396 3a3d 0771 333d 2dcd a5bc 1eff d53d
000003f0: 8d6f 1a3d 46a5 5f3d c3e5 08bd 268c 50bc
-0.124179006 0.009039929 -0.12212011 -0.019492961 -0.0062779877 0.017301487 0.017358784 0.057142667
-0.1218551 0.14597675 0.049058624 -0.029858805 0.084533274 0.0325536 0.004246261 -0.0011729859
-0.014512733 -0.06476559 0.033430602 -0.031507373 -0.041497283 -0.10839023 0.07743428 -0.012662068
0.08590256 0.04032056 0.09870657 -0.027232166 -0.017801553 -0.005242601 0.023651205 0.059964254
0.015939184 -0.12202421 -0.05618315 -0.012645097 0.06626967 -0.016718563 0.004932463 0.06425068
0.046062022 0.057533164 -0.025132889 0.020037614 -0.085293524 -0.006612722 0.024926838 -0.021502558
0.10107429 -0.01204723 0.04660686 -0.01950549 0.1118559 0.019194027 0.10255152 0.05303455
-0.0016526397 0.050205253 0.007595053 0.11282204 0.0072159795 0.011187673 -0.020843511 -0.025806814
-0.020916238 -0.16137731 0.008888269 -0.08100875 -0.15609705 -0.0035604704 0.020330725 -0.006378301
-0.004615477 0.02454739 0.00012248015 -0.10617968 -0.011766205 -0.025928548 0.06846045 -0.03993605
-0.10580119 -0.11771586 -0.0011630446 0.046913438 -0.08970608 -0.02593759 -0.018054478 -0.0074074273
0.010870547 0.15201096 -0.03271311 0.010394753 0.083006635 0.027661487 -0.0076483306 0.04707277
0.026572088 -0.03278863 -0.015271442 0.0005774108 0.009681588 0.093736544 0.06987828 -0.023072539
0.031067153 -0.04227781 -0.018291695 -0.0629531 -0.07276786 0.01726934 0.06444604 0.010646303
-0.009581952 -0.0662801 -0.013056028 -0.118155256 -0.033258118 -0.061665323 0.0934173 0.021500695
-0.07331494 -0.042161074 0.06337908 0.0743874 -0.008763101 0.002410079 0.0636414 -0.0053604497
-0.025801746 -0.0118894875 -0.047875047 0.004814941 0.0404109 0.08344808 0.12096653 -0.05254579
0.020080298 0.059221976 -0.021186722 0.015776262 0.038788203 -0.0241576 -0.1177096 -0.019354152
0.04571273 -0.020483011 -0.08864387 -0.05448696 0.12307247 -0.028496455 -0.11435492 -0.11610473
-0.062098853 0.06436118 -0.09516563 -0.0643681 0.04461802 0.020107295 -0.057649046 -0.09951011
-0.061340183 -0.052547943 0.03700249 -0.014891288 0.08413388 -0.08583217 0.029221566 0.10265227
0.004885833 -0.0126221115 -0.16090414 -0.030564873 0.019450033 -0.010781838 -5.6028133e-05 -0.076432236
-0.038744297 0.0073143137 -0.056302812 -0.046498228 -0.113410465 -0.046992462 -0.009859013 0.009089676
-0.104608856 0.075123005 -0.0667736 -0.0018810867 -0.07306595 -0.0954933 -0.06562712 -0.09283548
0.048556805 0.0006915773 0.024684396 0.01684463 -0.08456649 -0.003030482 0.020244157 0.009605708
-0.067710236 0.041785486 0.009364625 0.030096615 -0.03142264 0.088948354 -0.015786951 0.022038735
0.11166109 0.03386189 0.010915855 0.035965048 -0.0587419 0.23759001 0.0077641946 -0.0456985
0.011077781 0.10044109 -0.057186972 0.08596151 0.033296708 -0.036137 -0.09075212 -0.06888619
-0.10496766 -0.009209502 0.044641417 0.068381146 0.0010567768 0.16359293 -0.057843033 -0.023903694
-0.05605129 0.022502348 -0.0117122205 -0.011633128 -0.02431578 0.036318094 -0.09574648 0.026266146
0.051114544 -0.024819702 0.1819636 -0.02817864 0.04976589 0.046176545 0.03506458 0.04019025
0.045553636 0.043808963 -0.020239437 0.1044905 0.03770404 0.054600976 -0.033422243 -0.0127287265

lstm_cell/MatMul_5 f4 [64, 64]
00000000: e893 b53d 08e5 b9bc 785c 15bd 19f1 5abd
00000010: f255 f1bd 283c 26be c2d6 85bc 4e14 353d
00000020: c4a0 04bc f00e 89bd 3231 3cbd 53c7 0ebd
00000030: 24f7 b73d a3e1 103e 0528 95bd fb21 c4bd
00000040: 6d71 ad3d 86f6 2a3d 5e58 adbc d97e 21bd
00000050: 70e8 b63c ec48 643d fc5c 0c3c 488f 873d
00000060: bd13 613d aac1 20bd 9dcc 1fbd 4c71 483c
00000070: acbd b63d 627e 18bc 4444 94bb 2aaf ca3c
00000080: 3277 a13d e405 1ebd 135f e33d 04e6 8c3b
00000090: 2365 6e3d 819d cb3c e31b eebd 9309 073e
000000a0: 34a8 f8bc c6e3 7d3d e66b d0bd aa8e dfbb
000000b0: f4b0 54bc 220d 91bd 96a1 1dbd c379 413d
000000c0: a635 cdbd 2dd1 743d 9c45 733d 0c43 493d
000000d0: e010 2d3d 7dbc b1bd 62b3 343d aef0 f83c
000000e0: 2ed3 833b 6c31 aabc 459b 763d 2581 d43c
000000f0: 4255 06bc b9d7 82bd 128e 6abd 5125 3c3d
00000100: fa93 59bd c5cc f3bb 3e76 dabd 9fe3 3f3d
00000110: a29d 163d f3b1 fc3c 2aa6 59bd d7c4 30bc
00000120: 5646 febc 204a 91ba 252f 08bc 0439 c03d
00000130: d308 463d 60b8 47bd c0db 00b9 e329 8c3c
00000140: 4928 51bd aacf 083d ff22 c23c ee2d d73d
00000150: 72f7 c4bd 0d0a e1bd cd0d 043d 8af7 db3c
00000160: 0cd5 af3b 096d 383d 6ced b1bd f478 123d
00000170: a59d a63d dde6 c13d 07d7 09bc 7068 bbbc
00000180: f096 853d 0218 fcbc 44cd 1f3d 63cf 193e
00000190: 1c44 e73c d459 b53d 0231 7a3d 504a be3d
000001a0: 961c 1cbc 7255 a7bc 08ab 9ebc 5455 fe3d
000001b0: ac83 fdbc 9610 723d 34c6 1cbd f6f7 eabc
000001c0: 935e 413d 2e27 ecbb 534f dc3c 9c46 1c3c
000001d0: 8dfd 1abd d36a ef3c e82e 4e3d c326 bf3d
000001e0: 014a 853d fa48 c5bc 5881 1b3d 12e9 6d3c
000001f0: b44f 433c 7cb0 0dbe a652 053d fa4a 4a3d
00000200: 8723 1a3d 99b8 b0bc 6c51 c3bc ba40 e43c
00000210: 4845 733c bc7b bc3d 9243 c4bd e487 4d3d
00000220: 242d 943c c664 a63d c65d df3c 27d0 cebc
00000230: be57 8ebd 8317 c53c 580d b3bb 6c8d b73c
00000240: 48d9 403d 2ed1 e4bc 1450 f8bc 0d30 f33d
00000250: e166 c33c 2e5f 803d feb4 92bd 72ed c23d
00000260: 80d5 a73d 7ced ebbd e634 0d3d ddf1 df3c
00000270: 8d07 25bc 675e e53d 7da7 58bd c8bb 05bd
00000280: bc89 af3d f80d 793b 6c8b 6dbd 612c 083e
00000290: a508 243d 72f5 cebd 761b e7bc c4cf 923c
000002a0: 0020 1db8 a737 54bd 8e2c 233d e5e8 333d
000002b0: 88d7 6ebb 28c5 6b3d 8776 bc3d 019f abbd
000002c0: 58cf adbd c7f1 babc 2a1d 03bd 5e7b 43bc
000002d0: 21e1 163e c063 ec3b 7570 973d 05c0 4ebd
000002e0: 7ac8 7f3d 85fa e3bd b370 e5bd e4f4 bc3c
000002f0: 2c9d d13c 08f0 a7bd 128b 49bd e8f7 a83c
00000300: ae2f 62bc 432b 9abd 61b5 8fbc 49af 193d
00000310: c62c bfbb c33e 1cbd a741 b83c 43e1 123e
00000320: 9f93 9b3d 9711 4a3d 3615 083e 10c8 a7bc
00000330: b02e 85ba 8f62 a8bd 572c 8a3d 0f48 f7bc
00000340: 10c0 a4bc bba7 85bd 162b ccbd 0320 183d
00000350: e8a3 473d 0077 d739 75a1 a23c d6ed 0b3e
00000360: f5d9 97bd 4c24 8abd 20ff c4bc 5705 6c3d
00000370: 34ac 0a3e d4d6 c43d 2bb7 1c3d 30ef 92bb
00000380: 5627 2b3d ccc2 6ebd 1362 a5bd a728 44bd
00000390: e460 67bd a241 c83c 78f6 bc3c 173e 883d
000003a0: e8f4 dbba 4e78 1bbd 2825 7c3c 13c5 6abd
000003b0: 0083 01ba c564 3e3d cc4d a8bb b95a 7dbd
000003c0: 4881 d7bb 2690 21bd 5e19 eabc aefa f03c
000003d0: e7cf 00bd 385d 443c 3cc7 97bd 1602 edbc
000003e0: 7be7 e0bd c769 8a3d 3484 9fbd 5605 0cbe
000003f0: b28e b9bd a3c8 383d cde4 86bc 3b5b 8a3c
0.088661015 -0.022692218 -0.03646514 -0.053452585 -0.11783971 -0.16233885 -0.016337756 0.044208817
-0.00809497 -0.06692302 -0.045945354 -0.03485806 0.08982685 0.14148574 -0.07283024 -0.09576794
0.084689 0.04173901 -0.0211603 -0.039427612 0.022327632 0.055733606 0.008567091 0.066191256
0.054950465 -0.039247192 -0.039013494 0.012234043 0.08922896 -0.009307476 -0.0045247395 0.024741728
0.07884063 -0.038579836 0.11102118 0.004299881 0.05820192 0.024855377 -0.11626413 0.13187246
-0.030353643 0.0619848 -0.1017683 -0.006822427 -0.012981642 -0.07082583 -0.03848418 0.04723526
-0.10019998 0.059769798 0.059392557 0.049136207 0.04225242 -0.086785294 0.044116385 0.030388203
0.0040229773 -0.02077552 0.06020667 0.025940487 -0.008199038 -0.06388802 -0.057264395 0.045934025
-0.053119637 -0.007440182 -0.10667084 0.046847936 0.036771424 0.030846572 -0.053136982 -0.010789118
-0.031039398 -0.0011084713 -0.008312021 0.09385875 0.04834826 -0.048759818 -0.00012288895 0.017109817
-0.05106381 0.03340117 0.023698328 0.10506807 -0.09617509 -0.10988245 0.032239724 0.026851434
0.0053659733 0.04502586 -0.08687863 0.03575988 0.08135537 0.09467862 -0.008413083 -0.022876948
0.0652293 -0.030773167 0.039014116 0.15020518 0.02823072 0.08855024 0.061081894 0.09291518
-0.0095283 -0.020426486 -0.019368663 0.12418619 -0.030946575 0.05909785 -0.03827496 -0.02868269
0.047209334 -0.007206819 0.026893293 0.009538319 -0.03783946 0.029225742 0.050337702 0.09333565
0.06508256 -0.02408265 0.03796515 0.0145209 0.011920858 -0.13836855 0.032549523 0.04938791
0.037631538 -0.021572398 -0.023842536 0.027862895 0.014848061 0.09203288 -0.095832005 0.050178424
0.018087931 0.0812469 0.027266394 -0.02524574 -0.06950329 0.024059063 -0.005464237 0.022406302
0.047082216 -0.027931776 -0.030311622 0.11874399 0.023852767 0.06268154 -0.07163428 0.09517945
0.08195019 -0.11519906 0.034474276 0.02733701 -0.010072601 0.111996464 -0.052894104 -0.032649785
0.085711926 0.003800271 -0.05799429 0.13298179 0.040047307 -0.10105409 -0.028211337 0.017921336
-3.746152e-05 -0.051810887 0.039837413 0.043923277 -0.0036444385 0.05756107 0.09202295 -0.08379937
-0.08486813 -0.022820367 -0.032010235 -0.0119312685 0.14734317 0.0072140396 0.07394496 -0.050476093
0.06244705 -0.11131767 -0.11203136 0.023065992 0.02558764 -0.08200079 -0.049204893 0.020626023
-0.013805313 -0.07527783 -0.017542543 0.03752068 -0.005834195 -0.03814579 0.022492243 0.14343743
0.07596516 0.04933318 0.13289341 -0.02048114 -0.0010161009 -0.082219236 0.067467384 -0.030185727
-0.020111114 -0.06526133 -0.099691555 0.037139904 0.048740298 0.00041096658 0.01985238 0.13664946
-0.07414619 -0.06745204 -0.024047434 0.05762228 0.13542253 0.09611288 0.03826062 -0.00448408
0.04178556 -0.05829124 -0.08075347 -0.04789033 -0.056488886 0.024445359 0.023066744 0.06652468
-0.0016781362 -0.03795653 0.015389718 -0.05731685 -0.000494048 0.04648282 -0.0051362272 -0.061854098
-0.006576691 -0.03944411 -0.02857655 0.029416408 -0.03144827 0.011985116 -0.07411048 -0.028931659
-0.109816514 0.06758457 -0.077888876 -0.1367391 -0.0906042 0.045113217 -0.016466523 0.016889205

lstm_cell/MatMul_6 f4 [64, 64]
00000000: 1288 bcbc 54b4 1dbd 08e5 06bc 20bb c43c
00000010: a02f 20bd 846d 753a 30f7 6d3c cdfd dfbd
00000020: 0577 38bd 4d6d 093e 4bd5 00bc 2c13 a23d
00000030: c8bb e8bc 88aa 4cbb f7b2 8bbd 060b a43d
00000040: 2f9d fabd 5835 623c d7a4 143e 5561 003c
00000050: d75f d0bc 906b a63c d4f0 a7bd 421a 103d
00000060: 34d8 1f3e 68ff 393c 7a31 2cbd 2b93 a8bd
00000070: 2055 51bd 527c 073e 8856 64bd c07c da3a
00000080: c218 04bc fd7d f43d 86cd c8bc 0073 9dbd
00000090: 6fd3 1f3c 7145 b53d 1c35 1bbe 2a8a 8ebc
000000a0: e622 3cbe 26d3 a73d bdf4 0abb a003 273a
000000b0: 40ff 36bc 6e38 a7bc 9a77 06bd 36fa 0e3c
000000c0: e2af 99bc 8389 88bd 2b23 123d 223d f7bc
000000d0: 4995 11bc eed9 a0bd d946 1dbe 226c 953d
000000e0: 8e27 6a3d 6e6a ba3d fc24 47bc f403 84bd
000000f0: 1420 1b3c 3495 31bd fe34 4abd fcfb a93c
00000100: e7b4 9abd 90c2 9b3a 9e76 c1bb 6fa4 b7bc
00000110: cc20 453b 3812 933c 3cc5 f83d e834 93bb
00000120: 5dc0 fe3d 7ee5 463d ebce 003e e6ea 763d
00000130: 5189 b0bd 9132 31bd 4a07 b7bd de69 803d
00000140: 5d13 e4bc 12d4 07be 3b4b 1a3c d018 86bd
00000150: b68b fabb f084 78bd 5572 2c3d ab67 2abd
00000160: 7227 ff3d 00ca bbbc f1c9 993d e74a 823d
00000170: 958b 09bd 0e42 28bd 7089 f83c 7460 1abc
00000180: f6d9 d63c 7a5d e13c cac3 003e 7965 953c
00000190: d3a2 dbbd da15 db3b c646 ddbc 780f e23d
000001a0: e0ac 9cbc 48dc 193e 1e9c 61bd 4e02 c1bc
000001b0: 84e4 543b 66ac 9ebd 3eb0 c83d 210e 16be
000001c0: 9eb1 14bc 75d7 583d d9ff b13d 40c2 0e3d
000001d0: e22e f9bb 9ae2 41bd a022 8d3d f4ec 0bbd
000001e0: be8a 1a3e 0467 74bd f797 123d 9f74 3f3d
000001f0: e01d b63c 8909 9f3d 1f6f 603c 3c23 88bb
00000200: ad71 303d 6e48 b03c 5155 313d 0a6e d33c
00000210: d03d 353c 881b bf3c 0a68 b53c d767 47bc
00000220: 07d6 dbbc 9d16 7e3c 80fc 2c3c 3eb3 353c
00000230: ce88 c73c 0fde 263d b62e 7dbd d675 8e3c
00000240: a2c6 9abd 0a07 eebc 95e2 353d 5b99 563c
00000250: 478c 17be a924 02bd 7174 da3d fe7f 34bc
00000260: 6c51 e73d a3f9 28bd 3cf6 da3d 4433 15bc
00000270: 6d5d 97bd 20eb 353c 7eee 803b fd52 8dbc
00000280: f4e7 ef3c 0c17 873d 7ac2 713d 6a65 c3bd
00000290: 5049 cabc 0699 d5bc 24b0 c83c d5e0 cdbc
000002a0: 441c 15be 6838 caba e431 acbc 9443 f03c
000002b0: 0edd 0f3d 92b2 2cbd ec8b c5bb 489f 64bd
000002c0: 8b21 8abd c0e8 daba 4863 583b 03e0 423d
000002d0: 73c8 fbbd 9dd9 c73d d6bb 0b3d 6dc7 a4bd
000002e0: 784c 3b3c c0ad adbd ed75 93bd fab3 bfbc
000002f0: e816 33bc 5495 14bd 1a3f 023d fb3e a6bd
00000300: 57dc dc3d dae7 b3bc 8ec9 d03b 0165 8bbd
00000310: c52a 1b3e 4464 be3c a4ed 48bc fe32 023d
00000320: b716 cebd f0e6 cebc e680 31bd 17d7 b23d
00000330: 121f c53c 66a0 a0bd 9589 05be 7500 033e
00000340: 6e75 a63d 5314 09bd bd93 94bc 4a04 8d3d
00000350: 32ad 3b3c eca6 d1bc f968 68bd b292 d03b
00000360: 36f3 89bc 0374 95bd 1020 0ebd 1780 c13d
00000370: 00b4 98ba 5b81 053e 8945 97bd 041e 7a3d
00000380: 04e9 54bc ecad 99bd 8884 333b d89e 8e3d
00000390: a42f d8bc 62f9 89bd a5ed df3d d586 63bd
000003a0: 3c7c 54bc ae2b 51bd 7449 aa3d b641 50bd
000003b0: aff1 93bd f026 403d 55e5 8cbd 563f a83d
000003c0: 5001 523b e41c 68bb 9072 02bd 2ecd dc3c
000003d0: 1feb 143d d803 afbb 047d c53d 3e66 1cbd
000003e0: d099 ddbb 74d5 a1bc b8db b63d 1476 963d
000003f0: 50d1 7b3d 484e 063c 0ec2 4c3b 5896 99bd
-0.023014102 -0.038502052 -0.008233316 0.02401501 -0.03910792 0.00093623274 0.014524266 -0.109370805
-0.04503538 0.13420601 -0.007863353 0.07913813 -0.028409854 -0.0031229574 -0.06821244 0.08009915
-0.12237012 0.013806663 0.14516006 0.007835706 -0.025436325 0.020314962 -0.08200231 0.03518129
0.15609819 0.0113523975 -0.042039372 -0.08231195 -0.051106572 0.13231018 -0.055746585 0.0016669258
-0.008062543 0.11938093 -0.024512064 -0.0768795 0.009755 0.088511355 -0.15156978 -0.017399866
-0.18372688 0.0819457 -0.0021203004 0.00063710846 -0.011169255 -0.02041265 -0.032828905 0.008726647
-0.018760625 -0.06666853 0.03567807 -0.030180518 -0.00888569 -0.07854067 -0.15359057 0.07296015
0.05716663 0.09102331 -0.012154814 -0.064460665 0.009468097 -0.04335518 -0.049366944 0.020750038
-0.07554036 0.0011883546 -0.005904033 -0.022417275 0.0030079363 0.017953023 0.121469945 -0.004492391
0.12439034 0.048558705 0.12578933 0.06028261 -0.08619941 -0.043261115 -0.08936937 0.062701926
-0.027841264 -0.13264492 0.00941735 -0.06547701 -0.0076460494 -0.060673654 0.042101223 -0.04160277
0.124586955 -0.02292347 0.075092204 0.06361943 -0.03358038 -0.04107862 0.030338973 -0.00942241
0.026226979 0.027510393 0.12574688 0.018236862 -0.10724416 0.0066859545 -0.027011286 0.11038107
-0.019125402 0.15025437 -0.055080526 -0.02356067 0.0032484839 -0.07747726 0.097992405 -0.14653827
-0.00907555 0.05293985 0.08691377 0.03485322 -0.007604466 -0.047335245 0.0689137 -0.034161523
0.15091988 -0.059668556 0.035789456 0.046742078 0.022231042 0.077654906 0.013698368 -0.004154591
0.04307716 0.021518912 0.043294255 0.025809307 0.0110621005 0.023328558 0.022144336 -0.012170753
-0.026835455 0.015508321 0.010558248 0.011090098 0.024357226 0.040739115 -0.061812125 0.017390173
-0.075574175 -0.02905609 0.04440554 0.013098086 -0.14799605 -0.031773243 0.10666741 -0.011016844
0.11294827 -0.041253697 0.10691497 -0.009106461 -0.073908664 0.011103421 0.0039346805 -0.017251486
0.029285409 0.06596193 0.059023358 -0.095408276 -0.024693161 -0.026073944 0.024498053 -0.025131622
-0.14561564 -0.0015428187 -0.021019883 0.029329099 0.035122924 -0.042162485 -0.006028643 -0.055815965
-0.06744679 -0.0016701445 0.003301816 0.047576915 -0.12294092 0.09758303 0.03411468 -0.0804585
0.011431806 -0.08480406 -0.07200227 -0.02340125 -0.010930754 -0.036275223 0.03179846 -0.08117481
0.10784214 -0.021961141 0.0063716834 -0.06806374 0.15153034 0.02324117 -0.012263689 0.03178691
-0.10062926 -0.025256604 -0.043335818 0.087324314 0.024062667 -0.078430936 -0.13040765 0.12793143
0.08127867 -0.03346665 -0.018136853 0.06885584 0.011454867 -0.02559229 -0.056740735 0.0063651437
-0.016839605 -0.07297518 -0.034698546 0.09448259 -0.0011650324 0.13037626 -0.0738631 0.06106378
-0.012995008 -0.07503876 0.0027392227 0.06963891 -0.026389904 -0.06737019 0.10933999 -0.055548508
-0.012969073 -0.051067047 0.08314791 -0.050843917 -0.07223832 0.046912134 -0.06879679 0.08215205
0.003204424 -0.003541761 -0.031847537 0.026953306 0.03635704 -0.0053410344 0.096429855 -0.038183443
-0.0067627206 -0.019755103 0.08928627 0.0734674 0.061478913 0.008197375 0.0031243595 -0.07499379

lstm_cell/MatMul_7 f4 [64, 64]
00000000: a730 3bbb ec52 40bd 37ae fc3b a680 9bbc
00000010: 6e45 4e3e 446b 8cbc 44ae df3c 058c e1bd
00000020: 187b 79bd 32f7 0bbd cd5b 32bd 4bff d43c
00000030: 9ada c1bd f874 5fbc 7dab cc3d 12e7 f2bc
00000040: 7f5c debd f957 eebc b33b f33d 4c4f 2dbc
00000050: 1963 a8bd e149 babc 608a b0bd b628 813c
00000060: 45db cfbd 7b94 9f3d 5a06 523d 1e5d eabc
00000070: 9c43 9dbd beed 133d 808f 65ba b85b f1bc
00000080: 54bb 8e3c 56af 95bd f80f 7cbc acd4 cfbd
00000090: 923a 09bd 9821 04bd 322c e5bc 168a 43bc
000000a0: d8ca 85bd f491 c5bc 6f68 f2bc 8c37 debc
000000b0: 4137 803c 3c8b 993d 807b a93d 0c36 9d3d
000000c0: 1153 933d 8b75 243e b2e3 99bd 1251 e93c
000000d0: 39d0 b5bc 42b8 f23d b271 86bd da1f 243e
000000e0: 464e 64bd 0428 a3bc 9c84 4b3c 61cd af3d
000000f0: 9c3b 9a3c df54 a0bc 1866 833d a3a5 9b3d
00000100: 8e09 2d3c 4a6a d7bd 2d64 a9bc 9bab 38bd
00000110: 7899 17bd de82 033d 3dfe d33b 9bb8 b4bd
00000120: 7236 443c 8240 af3d 1302 42bd 898f e53d
00000130: a7fc 85bd e6c7 ca3d a7e2 cbbc a2e5 913d
00000140: 53a7 153e 925d 393d d019 fcbc 5a4e 043d
00000150: 73a3 2a3d 7a13 18bd 4c0d c73b bc26 7cbc
00000160: f8cd ffbc bc49 813d 4478 c03d c05a 10bd
00000170: 23ef a1bb 64f0 87bb 4c1a 0dbd d205 55bd
00000180: 16b1 86bc a476 29bc 27fa d1bc a174 933c
00000190: 507b edba 3357 51bd a063 2cbd 3f3a 9a3c
000001a0: 036a c13d de1b 6cbd be5a 00bd f6d8 8f3d
000001b0: a707 a1bd ec51 e33c 08ae f0bc 532e dbbd
000001c0: 44d2 673d 8d0c b63d 768c 5c3c 643e 96bc
000001d0: c0c8 793d 4ecb ac3b 18f9 8b3d 90c4 ca3b
000001e0: 4cbc 5a3d c856 3bbd 4d5e 343b 092a 783c
000001f0: 9aea f63b 85b5 713d 11b9 e93c 4aa8 183d
00000200: 80df b03c d106 d73d eb65 cb3c 7e0d 90bd
00000210: 6b6f b1bd 73a5 f0bc 9089 463d 23d6 9dbc
00000220: 4da9 c2bd a62a 9ebd 7468 8a3d 6c11 d73c
00000230: 030d c3bd 5bc3 6e3d 3c15 033c 9598 58bb
00000240: 3e4e 91bc 28e1 c13c acc5 523d 64c1 293d
00000250: 0a26 683c ea2f d23b e146 15be 523e be3c
00000260: 2aa3 683d 208c 823d 5695 98bb 1239 28bd
00000270: 7b02 723d 94d9 b1bc 37ef 0dbd c5eb 47bd
00000280: a0a9 8fbd 4ce7 5d3d 9ff7 ce3d 2e06 a03d
00000290: 0dea 283e de5f a0bc b044 203d 409e 27bd
000002a0: b503 50bc 44a8 c0bc 85da a6bd ee41 bebd
000002b0: 4837 51bd d4cb fabc a1bc 66bd 5e3f ae3d
000002c0: 8b89 ce3d 4520 91bc 1275 1bbd 9dbf 3bbd
000002d0: 78d2 96bb 8ad4 ad3d a9f4 8cbc 34ae 25bc
000002e0: cae8 b1bc 5070 7dbd c630 acbd 8740 3abc
000002f0: 5099 5a3b 1d75 d43d 743a 31bc ccb6 6bbb
00000300: 933e 9bbc 82bb fe3c 58fa 283b ad32 89bd
00000310: 08b4 6dbb 8f2b cb3c 60cc 253d f672 ed3d
00000320: 8a38 80bd d3c9 49bd ba9f 37bd 2bd3 483d
00000330: 5af5 e13d b491 2b3d b20c b53d b14c 8cbd
00000340: 3918 afbc b498 25bd 32a0 433d 5078 043b
00000350: 98a8 2a3d 4e46 ccbd fd4d 03bc 4afd d83b
00000360: 9cdb 19bb 6aeb 933c 50bf eb3b 38aa 6f3a
00000370: c392 833d da1f c53c 02f6 16bc cf0e 2dbd
00000380: 87c9 f0bd 5dc3 56bd cd13 a5bb f045 f43b
00000390: 92df 743c ca0f 493d a0f4 1dba cc7c 3f3d
000003a0: 2388 fcbc 50a9 81bd 06e1 6ebd 563e 53bc
000003b0: 80ae 2339 6303 0ebd b037 283b 24d2 8cbc
000003c0: 9893 06bd 2a46 c0bd dad2 7f3d 68c3 f5b9
000003d0: 484c 0bbe 47e9 1dbd 9ecc 2dbd 0a1d b6bc
000003e0: 501f e33a 3255 263c 6e87 a7bc 666a 8d3d
000003f0: f1d9 953d 2860 323b 3757 3abd 5deb bc3d
-0.0028562935 -0.04695408 0.0077111977 -0.018982243 0.20143673 -0.017140992 0.027304776 -0.11013035
-0.060908407 -0.03417129 -0.04354458 0.02600064 -0.09465523 -0.013638727 0.09993646 -0.029651199
-0.10857486 -0.029094683 0.11876621 -0.010577988 -0.082220264 -0.022740306 -0.08620143 0.015766483
-0.10149244 0.07791992 0.05127559 -0.028608855 -0.07678911 0.0361154 -0.000875704 -0.02946268
0.01742331 -0.07308833 -0.015384667 -0.10147986 -0.033503123 -0.0322586 -0.027975176 -0.011934778
-0.0653283 -0.024117447 -0.029590813 -0.027126096 0.015651347 0.0749726 0.08275509 0.07676324
0.07193578 0.16060464 -0.075141326 0.02848104 -0.022194015 0.11851551 -0.065646544 0.16027775
-0.05573871 -0.019916542 0.012421753 0.08584095 0.018827252 -0.01957172 0.06415957 0.07599952
0.01056136 -0.1051832 -0.02067765 -0.04508553 -0.037011594 0.032107227 0.0064695165 -0.08824273
0.011975871 0.08557226 -0.04736526 0.11209018 -0.0654233 0.09901409 -0.02488835 0.07123877
0.1461461 0.04525525 -0.030774027 0.032301284 0.041659784 -0.03712795 0.006074583 -0.015390094
-0.031226143 0.06312892 0.09397939 -0.035242796 -0.0049418374 -0.00414853 -0.034448907 -0.052007504
-0.016441863 -0.010343228 -0.025631977 0.017999949 -0.0018118415 -0.05110855 -0.042087197 0.018826602
0.09444048 -0.057643764 -0.03133654 0.07023804 -0.07862788 0.027749024 -0.02937986 -0.10702195
0.05659701 0.088891126 0.013461223 -0.018340297 0.060982466 0.0052732592 0.0683462 0.006187983
0.05340223 -0.045737058 0.0027522028 0.015146741 0.007535291 0.059011 0.02853063 0.037269868
0.021590948 0.10499347 0.024828872 -0.070338234 -0.086638294 -0.029375767 0.048471034 -0.019267147
-0.09504948 -0.07722978 0.06758204 0.026253425 -0.09523966 0.058291774 0.008000668 -0.003304993
-0.017737504 0.023666933 0.051458046 0.041444197 0.0141692255 0.006414403 -0.1457782 0.023223076
0.05679623 0.06374383 -0.004656474 -0.04107005 0.059084397 -0.021710195 -0.03465196 -0.04880883
-0.07014775 0.05417566 0.10105824 0.07813679 0.16495533 -0.019576963 0.039128006 -0.040922403
-0.012696196 -0.023517735 -0.08147148 -0.09289919 -0.05107811 -0.030614771 -0.056332234 0.0850818
0.10084828 -0.017715583 -0.037953444 -0.045837034 -0.0046027265 0.08487804 -0.017206507 -0.010112334
-0.021717448 -0.061874688 -0.0840774 -0.011367924 0.0033355542 0.103739 -0.010817159 -0.003596711
-0.018950736 0.03109527 0.0025783982 -0.06699119 -0.0036270637 0.024801044 0.04047811 0.11594193
-0.06260784 -0.04926474 -0.04483006 0.04902951 0.11033125 0.041887 0.08840312 -0.06850565
-0.021373855 -0.040428832 0.047760196 0.0020213313 0.04166469 -0.09974347 -0.008014199 0.0066219913
-0.0023476845 0.01805659 0.007194437 0.0009142491 0.06424477 0.02406304 -0.009213926 -0.04225045
-0.11757188 -0.052432407 -0.005037761 0.0074546263 0.014945881 0.049087323 -0.00060255267 0.046749875
-0.030826634 -0.06331122 -0.058320068 -0.01289328 0.00015609898 -0.0346712 0.0025667958 -0.017190047
-0.0328556 -0.09388383 0.062456943 -0.0004687563 -0.13603318 -0.03855255 -0.042431466 -0.022230644
0.0017328057 0.010152148 -0.02045032 0.069050595 0.0731696 0.0027217958 -0.04549333 0.092245795

lstm_cell/split_1 f4 [64]
00000000: ccd1 053e 1c31 b43e 0724 053e fc06 7a3e
00000010: 70fc 173e 4374 093e 2886 953e b9bc 143e
00000020: 1e60 593e da77 6e3e 224f 623e 611c 873e
00000030: dcf1 623e 136f 4b3e a465 843e 2d80 683e
00000040: 9938 333e 9b39 213e 947b 763e e8da 583e
00000050: 0368 453e 25a7 7f3e 5f6c 8c3e 942a 2f3e
00000060: c4d7 183e 2bee 763e 8d5e 1a3e ecc7 163e
00000070: ba33 0f3e 6f96 8c3e a468 323e 5b23 d83d
00000080: da05 9c3e 9534 e33d 4a7a a63e 8458 8a3e
00000090: a8a2 f33d e6db 623e af7c 1d3e 8982 153e
000000a0: 3ef3 3c3e bc92 023e 96c7 003e 5389 3b3e
000000b0: eb6a f93d 8c9f 2f3e c609 313e d731 713e
000000c0: e26f 4c3e ea94 723e 020d 673e 455a 453e
000000d0: e6d4 3c3e 5803 013e a0b8 973e ee2c 4e3e
000000e0: 375a 1c3e 5118 323e cb34 e83d c1db fa3d
000000f0: 0541 623e 26fa a73e d3ba 143e 3693 493e
0.13068312 0.35193717 0.13002025 0.24416727 0.14842391 0.13423257 0.29203916 0.14525117
0.21228072 0.23287907 0.221005 0.2638884 0.22162575 0.1986659 0.25858796 0.22705145
0.17502059 0.15744631 0.24070579 0.21177256 0.19277959 0.24966104 0.2742643 0.17106086
0.14926058 0.24114291 0.15075131 0.14724702 0.13984576 0.27458522 0.1742273 0.105536185
0.30473214 0.110940136 0.32515174 0.27020657 0.118962586 0.22154197 0.15379594 0.14600576
0.18452165 0.12751287 0.12576136 0.18314104 0.12178596 0.17150706 0.17288885 0.23554169
0.19964555 0.23689619 0.22563556 0.19272716 0.1844059 0.12598932 0.29633045 0.20134327
0.15268789 0.17392088 0.113381945 0.12248946 0.22095115 0.32808036 0.14524393 0.19685063

lstm_cell/split_11 f4 [64]
00000000: c56a 7bbc 2737 b4bd 9e36 253c 79bb e7bc
00000010: 93ae ccbc e77f a7bd 641f 9bbd 8174 1cbd
00000020: b9dd 1e3d b605 fd3c 955a 363e 5893 173d
00000030: 8e55 8dbd eba4 e73b 5883 36bb 35d4 0e3d
00000040: 02d3 92bd 32b4 45bc db75 673d c1ec 2e3d
00000050: 52f4 b8bc 1edf 00bd 4438 733d afa1 b5bc
00000060: 0e07 72bd e5e9 b2bd b49f 08bd 0427 363d
00000070: 3019 4cbd 41e0 a8bc c15c 54bd 779c c2bd
00000080: 7ed1 2dbd 4b3b 29bd 2458 08bd 7888 19bc
00000090: 4817 453d 9efa 4c3c 4a23 f4bb 6697 503d
000000a0: 0fe1 cdbc 9adb dcbc ddec 343d 6af7 853d
000000b0: 2605 103d dc0d 703d 3946 0c3e 9aa4 1d3d
000000c0: 69e0 8abc 7866 59bc 4acd 9cbc 0f8a d53c
000000d0: 0486 e0b9 5ade f93c c29c 15bd 1be9 92bb
000000e0: 0c3a de3c 76c6 86bd 7c7a 7abd 1111 c0bd
000000f0: a23e a33d a58a eebd 9e13 6fbc f215 413c
-0.01534528 -0.08799582 0.0100838225 -0.028287636 -0.024985587 -0.08178692 -0.07574347 -0.038197044
0.03878567 0.030886512 0.17807992 0.037005752 -0.06901084 0.0070692203 -0.0027849283 0.034870345
-0.07169153 -0.012066888 0.05650888 0.042706255 -0.022577439 -0.03146278 0.05937983 -0.022171823
-0.05908876 -0.08736018 -0.03335543 0.044470802 -0.04982871 -0.020614745 -0.05184627 -0.095024996
-0.042436115 -0.04131631 -0.033287182 -0.009370916 0.048117906 0.012510924 -0.007450496 0.050925635
-0.02513173 -0.026960183 0.044171203 0.06541331 0.03516116 0.058606967 0.13698663 0.038487054
-0.01695271 -0.013269059 -0.019140858 0.026066808 -0.0004282446 0.030501533 -0.03652645 -0.0044833547
0.027127288 -0.06580822 -0.061151966 -0.09378255 0.07970931 -0.11647538 -0.014592079 0.011785017

lstm_cell/split_12 f4 [64]
00000000: ea09 073e 8595 b73e 7ea0 eb3d 6066 743e
00000010: 5593 263e 6cfa 043e f418 933e 27f3 233e
00000020: 03d5 6f3e 0ddd 743e 8000 5e3e 9aaa 7f3e
00000030: ba5b 6d3e 3723 463e e9bb 883e 524b 793e
00000040: 27a6 323e 8cb2 1b3e dc1a 753e 49ab 503e
00000050: e4bc 433e e777 7e3e 431f 9a3e 3501 2e3e
00000060: a126 233e bd43 6e3e e6a5 143e 18f8 153e
00000070: d28b 073e c88d 883e fd94 273e 56d8 cb3d
00000080: ac28 9c3e c989 e53d 05bd 9f3e 231e 8c3e
00000090: c1a5 eb3d b5f5 5d3e a761 183e b69a 193e
000000a0: 0476 463e 208b 053e 6b3d ef3d d3ed 3f3e
000000b0: b80b 053e c418 1d3e 1d0f 1f3e abbc 6f3e
000000c0: b8d4 493e 5116 783e be0c 633e 35ac 513e
000000d0: a982 403e ac70 e63d 6ac7 9a3e a730 473e
000000e0: 5a38 1e3e 2b6f 373e ed97 f63d b087 083e
000000f0: 6c64 5c3e be6d a93e 46ef 0a3e e3d9 4a3e
0.13187376 0.35856262 0.11505221 0.23867178 0.1626714 0.12986153 0.28729975 0.16010724
0.23421101 0.23912449 0.21679878 0.24967423 0.23179522 0.19349371 0.26705864 0.24345139
0.17446195 0.15204829 0.23936027 0.2037784 0.19115025 0.24850427 0.30101976 0.16992648
0.15932705 0.23268028 0.1451641 0.14645422 0.13236931 0.2667067 0.16365428 0.09953372
0.3049978 0.11207921 0.31198898 0.27366742 0.115062244 0.21675761 0.14881001 0.15000424
0.19380957 0.13041353 0.116816364 0.18743066 0.12992752 0.15341479 0.15533109 0.23411815
0.19710052 0.24227263 0.2217283 0.20475848 0.18799843 0.11251959 0.30230266 0.19452153
0.15451184 0.17913501 0.12040696 0.1333301 0.21522683 0.3309154 0.13567838 0.1980968

lstm_cell/MatMul f4 [64, 324]
00000000: f8bb 9cbd 7bc6 36bd 3664 abbd 585d 113e
00000010: c86a c03d a8b8 8f3d 7c41 df3d b353 cfbb
00000020: 6c9e 98bd 45b5 4b3a 509b 583d 3bf8 253d
00000030: 015e b13d 2335 923d 8342 023d 18ed fe3c
00000040: 1282 5a3d 724b 493d 1da0 c03c 968d aebd
00000050: 2a17 5d3d 06ca 853d 4389 39bd 41d1 c6bd
00000060: 93e9 b1bd 7829 36bd c851 bc3c 174d f43d
00000070: 5291 90bd f1ef 6c3d edc3 703d 5a4f 83bd
00000080: 1226 9f3d 5837 e43c 52fd 26bc 977c ca3d
00000090: b41f 593c f3df 073b 0271 263d 589b 1c3d
000000a0: 0828 d43d 632f cf3d cc0d f73c 663b 0ebe
000000b0: fe9e 28bd 614f 79bd 2ac9 933d 5f45 b93d
000000c0: 6fcc f93c cfc3 0bbd 915b aabd eb76 c53c
000000d0: cf68 00bc 2e2b e53d 5fa1 373d 6829 273d
000000e0: 8eab d43d 852a 423c 1843 b43c 9f11 86bd
000000f0: ae33 c13d 0f5d 85bd 699c b1bd 90d6 52bd
00000100: 9ede 203d 9eb9 dcbc 8186 ae3d 967c ad3d
00000110: d9d2 093c 8c39 16be 7239 e3bd c828 c0bc
00000120: b494 0a3e 4600 c1bd cce5 8dbd f725 94bd
00000130: ff5e 95bc 00ff 813d 8c49 133d b272 6e3d
00000140: 5a96 e93c cfba 82bd 9377 6f3d 2740 a5bd
00000150: 31d6 ea3d 99d7 9dbd 92ef 84bc 3dce f23d
00000160: d38c 71bc aac7 0b3e cb76 bf3d cfc5 c2bd
00000170: e03a 9c3d 1d4c 43bd 2226 d5bc 5b7a b93c
00000180: 4bf3 573c d02d a63d a7b7 d6bc 1056 2fbd
00000190: 5220 193d 269c 2e3d 185c 2f3e d0f1 303d
000001a0: 0c0a 813d 9e6f be3c b976 343d a9d8 2c3d
000001b0: 0028 0f3e f705 1c3d 8b8e d13d c0aa 543d
000001c0: d5d5 c73c 72c3 853b 20bf e73c 589d 31bd
000001d0: 096c f33d 9eb9 283d e654 4d3c 19bf a4bd
000001e0: e3f7 9b3d 45dd 1bbd cb63 5fbc f236 873d
000001f0: f1a2 923d cb31 503d c523 953d d723 f23d
00000200: 122e c1bd db75 a53d ebc7 11be b7c3 173e
00000210: e7ac a7bd d545 fabb e836 e13d 27ba 3abc
00000220: 8ff1 483d 17f0 07be ec38 8a3c 7428 df3d
00000230: 6938 863c 6bce a3bb 4729 b7bd 5577 b93d
00000240: 5297 0b3d 6c47 33bd bd22 633d b89d b93c
00000250: d349 85bd 5778 043d 9db1 afbd 9c31 42bd
00000260: 5663 ea3c e8aa f73d 65e8 40bd 8cf1 b23d
00000270: 89f0 44ba 5257 993d 54c8 833e bc31 993c
00000280: 4093 e03d 2675 1fbc 2bcf 8dbc b2f3 eb3d
00000290: 5104 583c 521c c83c 8d96 5ebc 0ba9 01bd
000002a0: 36b8 533d 8235 d7bc af24 43bc 46d5 7a3d
000002b0: e337 c63c edce d73d 0eef 9ebc 573f 8d3d
000002c0: cbae 573d f645 4dbd 438c 963c 1a22 fe3b
000002d0: 6075 173b 60b2 76bc ce50 91bb ca17 35bd
000002e0: a6af 583d fa2b 903d c746 a7bd 73d3 93bd
000002f0: 4f96 f23c fa65 99bc 46d8 65bd 9cc8 af3d
00000300: 6eac a93d 961e 783d 003a 803d 4e9d e63c
00000310: 0b63 fa3d ab21 893d 9952 903d 8552 e33c
00000320: 58d8 91bd 7b54 b43c 7583 08bd f552 8b3d
00000330: 911b 823c 8290 ff3d 1128 4b3c 6aac 14bd
00000340: 83b7 1c3e d410 a3bc cbe0 75bc 4690 ffbc
00000350: 2b39 65bd 4195 cebd e31e 9e3d 5267 843d
00000360: 0d5a a13d 0ee0 dbbc 0462 993d 8431 063e
00000370: 988e ef3d ae17 8d3d ba6c f73d 0f4d 503d
00000380: b04f 353d 0168 9cbd bb3b bfbd 6070 edbd
00000390: e296 0c3d e3a3 6fbd da3e c63d 0b56 b33d
000003a0: 5bce 843d e6f1 84b8 4207 0f3e 46bb 923d
000003b0: 3464 333d 093b d1bd be02 433d 6509 75bd
000003c0: 8537 f2bd 520b 893d 4e47 e63c 9f0b 1bbd
000003d0: 3916 df3d e315 9d3d 251b d73d dd0f 933d
000003e0: a89a a63d 615c f43d 2e76 f5bc 2073 a03a
000003f0: 95b5 bfbc 0978 0e3d d30a 973d 1c1f 80bd
-0.0765304 -0.04462288 -0.08368723 0.14195764 0.09395367 0.07017642 0.10901162 -0.0063271164
-0.074520916 0.0007770847 0.052882493 0.040519934 0.08660508 0.07139041 0.03180171 0.031118914
0.0533467 0.049144216 0.023513848 -0.08523099 0.05397717 0.065326735 -0.04529692 -0.09707881
-0.08687129 -0.04447314 0.022988215 0.11928766 -0.07058968 0.057846013 0.0587806 -0.064116195
0.07770933 0.027858421 -0.010192232 0.09887045 0.0132521875 0.002073285 0.040635116 0.038234085
0.10359198 0.1011646 0.030157946 -0.13889846 -0.04116725 -0.060866717 0.072161034 0.090464346
0.03049299 -0.034122285 -0.08318246 0.024104556 -0.007837488 0.111898765 0.04483163 0.040810972
0.10384284 0.011850958 0.022004649 -0.0654633 0.09433685 -0.0651189 -0.08672411 -0.051474154
0.039274804 -0.026943978 0.08521748 0.084710285 0.008412086 -0.1467039 -0.11094941 -0.023456946
0.13533288 -0.0942388 -0.06928596 -0.07233804 -0.018233774 0.063474655 0.03595881 0.05821485
0.028514076 -0.06383287 0.058463644 -0.08068877 0.11466635 -0.077071376 -0.016227517 0.11855743
-0.014743048 0.13650385 0.0934883 -0.09510385 0.07628417 -0.04768001 -0.02601916 0.022641351
0.013180564 0.08114207 -0.02621062 -0.042806685 0.03738434 0.042629384 0.17124975 0.04319936
0.063007444 0.023246583 0.044058535 0.04219881 0.13980103 0.038091626 0.10232266 0.051920652
0.024393955 0.004082137 0.028289378 -0.043362945 0.118858404 0.041192643 0.012532448 -0.080442615
0.0761564 -0.038052816 -0.013634632 0.06602277 0.07159985 0.050828736 0.07282213 0.11823242
-0.09432615 0.0807912 -0.14236419 0.14820753 -0.081872754 -0.007637719 0.10996801 -0.011396921
0.049058493 -0.13275181 0.016872846 0.10896388 0.01638432 -0.004998972 -0.0894342 0.09055964
0.034079857 -0.043769285 0.05545305 0.022658214 -0.065082215 0.032341328 -0.08578799 -0.047410592
0.02861182 0.12093145 -0.04709663 0.08737478 -0.0007512649 0.07487358 0.25738776 0.018700473
0.10965586 -0.00973252 -0.0173107 0.115210906 0.013184623 0.024427567 -0.013585699 -0.031655353
0.05168935 -0.026270632 -0.0119106015 0.06123855 0.02419657 0.10537515 -0.0194011 0.06896847
0.05265693 -0.050115548 0.018377429 0.00775553 0.0023110732 -0.015057176 -0.0044346815 -0.04421214
0.052901886 0.07039638 -0.081677966 -0.07218065 0.029612688 -0.018725384 -0.056114458 0.08583185
0.082848415 0.060576044 0.062610626 0.02815118 0.12225922 0.06695875 0.07047004 0.02774931
-0.071213424 0.02201294 -0.033328492 0.06802932 0.015882285 0.124787346 0.012399689 -0.03629724
0.15304379 -0.019905485 -0.015007208 -0.031196725 -0.055962723 -0.10087062 0.07720735 0.06465019
0.07878504 -0.026840236 0.07489398 0.13104826 0.116971195 0.06889282 0.12081285 0.05085474
0.04426545 -0.07637025 -0.093375646 -0.115936995 0.03432358 -0.058505904 0.09679957 0.08756646
0.06484672 -6.3393076e-05 0.13967612 0.07164626 0.043796733 -0.10216338 0.047610037 -0.059823412
-0.11826996 0.06691612 0.028110173 -0.03785288 0.108929105 0.0767019 0.10503224 0.0718076
0.08134967 0.119316824 -0.029963579 0.0012241341 -0.023402015 0.034782443 0.073751114 -0.06255934
