Python/SpeechRecognition/DeepSpeech/models/taskClassifierPhon.tflite (tflite, 20432 bytes, 4 tensors)

sequential/dense/BiasAdd/ReadVariableOp f4 [20]
0	0x3efd688d	0.49493828
1	0xbfe76bd1	-1.8079778
2	0xbfb765d3	-1.4327949
3	0xbfca78a3	-1.5818065
4	0x3fe02858	1.7512312
5	0xbf911584	-1.1334691
6	0xbfd8329d	-1.6890446
7	0x3edb4b9a	0.42831117
8	0x3dc634b7	0.09678023
9	0xbfb2ac9b	-1.3958925
10	0x3f6b08eb	0.9181048
11	0x3d9db1e9	0.07699949
12	0xbf9bbb1e	-1.2166479
13	0xbf812c9f	-1.0091742
14	0xbdedb6a6	-0.11607103
15	0x3cf79b33	0.030225372
16	0xbffa8b07	-1.9573678
17	0xbed61fd0	-0.41821146
18	0xbff83173	-1.9390091
19	0xbfe50475	-1.7891985

sequential/dense_1/BiasAdd/ReadVariableOp f4 [6]
0	0xbdfa5fd8	-0.12225312
1	0x3c141449	0.0090380395
2	0x3d6d3f8d	0.057921935
3	0x3d4e8077	0.050415482
4	0x3d1bcab5	0.038035113
5	0xbe24b8a6	-0.16086063

sequential/dense/MatMul f4 [20, 232]
0	0xbda7b69a	-0.08189125
1	0xbef5acd4	-0.4798342
2	0x3f0427b3	0.51623076
3	0xbf53700c	-0.82592845
4	0xbf46937c	-0.77568793
5	0xbf262485	-0.64899474
6	0xbe7b0458	-0.24513376
7	0xbf51cfc8	-0.81957674
8	0xbef115e5	-0.47087017
9	0xbeb9945a	-0.36245996
10	0xbf18d7d7	-0.59704345
11	0xbe9c0fa9	-0.30480698
12	0xbf09c7ee	-0.53820693
13	0xbea68de9	-0.32530144
14	0xbf27627f	-0.6538467
15	0x3dd191c8	0.10232884
16	0xbf35b1a2	-0.7097417
17	0xbf48bf18	-0.78416586
18	0xbf5e79e6	-0.8690475
19	0xbf910c95	-1.1331965
20	0x3f4f3550	0.80940723
21	0xbd20d414	-0.039264753
22	0xbeeeb227	-0.46620294
23	0xbf20841d	-0.6270159
24	0xbf21ef28	-0.6325555
25	0x3f48013d	0.7812689
26	0xbf1aff06	-0.60545385
27	0xbef572b1	-0.47939065
28	0xbeffc79b	-0.49956974
29	0xbda9a154	-0.08282724
30	0xbe9d8e68	-0.3077271
31	0x3ddbfaf7	0.10741227
32	0x3c0b7acf	0.008513167
33	0xbf6033bc	-0.8757894
34	0xbed1e495	-0.40994707
35	0xbf447433	-0.76739806
36	0xbf74d986	-0.95644414
37	0xbf0b16d1	-0.5433169
38	0x3f108438	0.5645175
39	0x3f0671df	0.52517503
40	0xbf878f36	-1.059058
41	0xbf8bad39	-1.0912238
42	0x3f8fb057	1.122569
43	0xbef65a1c	-0.48115623
44	0xbf0addff	-0.5424499
45	0x3f022853	0.5084278
46	0xbf0d8b00	-0.5529022
47	0x3e8e0a5b	0.27742276
48	0xbf9a21ff	-1.2041625
49	0x3fa06409	1.2530528
50	0xbf14a769	-0.5806795
51	0x3f5c5acc	0.86076045
52	0xbf2183ed	-0.6309193
53	0xbeebe804	-0.4607545
54	0xbd11f139	-0.03563044
55	0xbf299fde	-0.6625956
56	0xbf0e3b5d	-0.5555933
57	0xbf8fd6a3	-1.1237377
58	0x3f07a4f0	0.5298605
59	0x3e19039d	0.14942785
60	0xbf04f8e8	-0.519423
61	0xbee783f8	-0.45217872
62	0xbf562abf	-0.83658975
63	0x3f60eda2	0.878626
64	0xbef2a564	-0.47391808
65	0xbf9639a9	-1.1736346
66	0xbd025581	-0.031819824
67	0xbf27e460	-0.6558285
68	0xbf4f179c	-0.808954
69	0xbf2db669	-0.6785646
70	0x3e70ee22	0.2352834
71	0xbeeecb45	-0.46639457
72	0xbf2e11b2	-0.6799575
73	0xbf246321	-0.6421376
74	0xbf4eadc3	-0.8073389
75	0xbf4d4de6	-0.8019699
76	0xbf414725	-0.7549918
77	0xbf0400b2	-0.5156356
78	0xbf8051f3	-1.0025009
79	0x3f23baae	0.63956726
80	0xbf4e8c3d	-0.80682737
81	0xbf2d57f6	-0.6771234
82	0xbf90be17	-1.1308011
83	0xbf29b62d	-0.66293603
84	0xbf24ce7d	-0.64377576
85	0x3f35f163	0.7107145
86	0xbf75445f	-0.9580745
87	0xbd9c9983	-0.076464675
88	0xbebd8d3e	-0.37021822
89	0x3f48c129	0.7841974
90	0xbf43c389	-0.7647024
91	0xbf080dfb	-0.5314633
92	0xbf1d2ad4	-0.61393476
93	0xbf07d2c9	-0.5305601
94	0xbf2d9f04	-0.67820764
95	0x3f3d52c7	0.73954433
96	0x3f84532a	1.033788
97	0xbf654529	-0.89558655
98	0xbf15c0cd	-0.58497316
99	0x3f337c3f	0.7011146
100	0xbf416804	-0.7554934
101	0xbef00594	-0.46879256
102	0xbed120bd	-0.4084529
103	0xbf1c26ff	-0.60997003
104	0xbef14d30	-0.47129202
105	0xbf197f2b	-0.5995967
106	0xbf3bf344	-0.7341807
107	0x3eeb253c	0.45926845
108	0xbf6b19cc	-0.9183624
109	0xbdffa3e5	-0.12482432
110	0xbf2893ea	-0.658507
111	0xbee23562	-0.44181353
112	0x3d9d754b	0.076883875
113	0xbf7e51ca	-0.9934355
114	0x3e026464	0.12733608
115	0xbf125f70	-0.57176876
116	0xbefe095b	-0.49616513
117	0xbea2914a	-0.31751472
118	0xbf154815	-0.58313113
119	0xbd522a07	-0.05130961
120	0x3eed08ba	0.4629572
121	0x3eaecc53	0.34140262
122	0x3d0467f0	0.032325685
123	0xbec19a7a	-0.3781317
124	0xbf94c9f1	-1.1624128
125	0xbf13527d	-0.5754774
126	0xbeed63a1	-0.46365073
127	0xbf04a01d	-0.51806813
128	0xbf24854f	-0.6426591
129	0x3f90d57b	1.1315149
130	0x3f97de28	1.1864672
131	0xbf6fbc8e	-0.93647087
132	0xbf0d48d2	-0.5518924
133	0xbf09cf33	-0.53831786
134	0xbf81f94c	-1.0154204
135	0x3e8d4dc1	0.27598384
136	0xbea98717	-0.33110878
137	0xbf2d07f0	-0.67590237
138	0x3f013e13	0.5048534
139	0xbeee5aa7	-0.46553537
140	0xbf0525df	-0.5201091
141	0xbf75ee51	-0.96066767
142	0xbf3ef1a5	-0.7458747
143	0x3d910cbb	0.07082506
144	0xbf00c1d6	-0.5029577
145	0xbe8f29ce	-0.27961582
146	0xbf3e4171	-0.74318606
147	0xbf3d0bac	-0.73845935
148	0xbf3d61fe	-0.7397765
149	0xbfd12487	-1.6339272
150	0xbf34895b	-0.7052209
151	0xbf10211b	-0.56300515
152	0xbea43d36	-0.3207795
153	0x3f23e625	0.6402305
154	0x3f4fb32f	0.8113279
155	0x3e6c84e2	0.23097566
156	0xbf2bd554	-0.6712239
157	0xbf0c2d5c	-0.5475671
158	0x3f2132da	0.6296822
159	0x3eb18c5e	0.34677404
160	0xbf10011b	-0.56251687
161	0xbec2f446	-0.3807699
162	0xbf581d81	-0.8442002
163	0xbf0f20db	-0.5590951
164	0xbf23117a	-0.6369854
165	0x3eec2fa0	0.46130085
166	0xbe9c5c94	-0.30539382
167	0xbf16ec97	-0.5895476
168	0xbf5d752f	-0.8650693
169	0xbead51e7	-0.3385155
170	0xbd6e5889	-0.058189902
171	0xbf39e26a	-0.72611105
172	0xbf2508a6	-0.6446632
173	0xbf0443ed	-0.51666147
174	0x3e7a3809	0.24435438
175	0xbf1826fa	-0.59434474
176	0xbf223132	-0.63356316
177	0xbf3403bc	-0.703182
178	0xbecb6aac	-0.39729822
179	0xbf931a35	-1.1492373
180	0xbf50a5e0	-0.81503105
181	0x3f24e8b0	0.6441755
182	0xbf4bfd05	-0.7968295
183	0xbf087d75	-0.5331643
184	0x3e405575	0.187826
185	0x3f9dc984	1.2327123
186	0x3ec9e35b	0.3943127
187	0xbf240750	-0.6407366
188	0x3e5fa179	0.2183894
189	0xbfb9b5fa	-1.450866
190	0x3f8cfee8	1.1015291
191	0xbeba3413	-0.36367854
192	0xbf320d94	-0.6955197
193	0xbf0d60b9	-0.5522571
194	0xbf8bc977	-1.0920857
195	0xbf433625	-0.76254493
196	0xbf0162b9	-0.50541264
197	0xbf64cf53	-0.8937885
198	0xbf4b3112	-0.7937175
199	0x3db8621c	0.09003088
200	0xbf00387b	-0.5008618
201	0x3f984b87	1.1898049
202	0x3ef39ced	0.47580662
203	0xbeaf09ae	-0.34187073
204	0xbea87155	-0.32898965
205	0xbdbfc16b	-0.093630634
206	0xbee4a99a	-0.44660646
207	0xbf4e4184	-0.8056872
208	0x3f86ae20	1.0521889
209	0xbefba087	-0.4914591
210	0x3e166971	0.1468866
211	0xbf182fdd	-0.59448034
212	0x3e7a9976	0.24472603
213	0x3f1d2d2a	0.6139704
214	0xbfa8b0d6	-1.3178966
215	0xbcb3857e	-0.02191424
216	0x3f34d48d	0.70636827
217	0xbf113c14	-0.56732297
218	0xbefcbd5d	-0.49363223
219	0x3f0294d5	0.5100835
220	0xbf31357f	-0.69222254
221	0xbf38d5df	-0.7220134
222	0xbf448882	-0.76770794
223	0x3f8cfaa1	1.1013986
224	0xbf5c0aa2	-0.85953724
225	0xbe80da93	-0.2516676
226	0xbe31dbb1	-0.17368962
227	0xbd9d1ea4	-0.0767186
228	0xbf53d47a	-0.8274609
229	0x3dbc4f71	0.0919484
230	0xbf93fc38	-1.1561346
231	0xbf3ff024	-0.749758
232	0xbf4c65c2	-0.7984277
233	0xbe457af0	-0.19285178
234	0x3d816d3c	0.06319663
235	0xbf108da6	-0.5646614
236	0xbf3f470c	-0.74717784
237	0xbdb584f9	-0.08863253
238	0xbf65f736	-0.8983034
239	0xbe535315	-0.20637162
240	0xbe91b26f	-0.28456447
241	0xbea73339	-0.32656267
242	0xbe88649b	-0.26639256
243	0xbecd764f	-0.40129325
244	0xbec4800a	-0.38378936
245	0xbdfd0047	-0.123535685
246	0xbea5deed	-0.3239664
247	0xbf0af075	-0.5427316
248	0xbf2c5e9a	-0.6733185
249	0xbf507310	-0.8142557
250	0xbebee4a2	-0.37283808
251	0xbf74d2ce	-0.9563416
252	0xbe956a3c	-0.29182613
253	0xbf548c8d	-0.83026963
254	0xbeedcf11	-0.46447042
255	0xbf0ea393	-0.55718344

sequential/dense_1/MatMul f4 [6, 20]
0	0xc0261d9f	-2.595558
1	0xbf6efe8d	-0.93357164
2	0xbf081412	-0.53155625
3	0xbfdda814	-1.7316918
4	0xc01c1ab5	-2.43913
5	0xbffe7dd6	-1.9882152
6	0xbfbe4327	-1.4864243
7	0x40247a25	2.569955
8	0xc0200376	-2.5002112
9	0xbffea965	-1.9895445
10	0xc0183e7f	-2.3788145
11	0xbff14803	-1.8850101
12	0xbfee82fb	-1.8633722
13	0xbfde27ac	-1.7355857
14	0xbf2aef75	-0.6677163
15	0xbfd4a235	-1.6612002
16	0xbfbd17a3	-1.4772838
17	0x3f03acb6	0.5143541
18	0xbfe9821b	-1.824283
19	0xbe97395f	-0.29535958
20	0x402a7fdf	2.6640546
21	0x3f9ff72a	1.2497303
22	0x3fb28d45	1.3949362
23	0x3f6db50a	0.9285437
24	0xc020971e	-2.5092235
25	0x3e0d3082	0.13788036
26	0x3f5ac635	0.8545869
27	0xc017e859	-2.3735564
28	0xbfe0a713	-1.7550987
29	0xbfd0541c	-1.6275668
30	0xbff4cb77	-1.9124593
31	0xc004bace	-2.0739017
32	0xbff9cbae	-1.9515283
33	0xbfdc6c8f	-1.722063
34	0xc000bc46	-2.0114913
35	0xc0120098	-2.2812862
36	0xbea52128	-0.3225186
37	0xc004a24f	-2.0724065
38	0xbfbfbfae	-1.4980371
39	0xbfd2acf7	-1.6459035
40	0xc0222ee7	-2.5341127
41	0xbfd0be4d	-1.6308075
42	0xbfde1b0c	-1.7352004
43	0xbcdedbb4	-0.027204372
44	0xc02728c7	-2.6118639
45	0xc00c84f8	-2.1956158
46	0xbfba2219	-1.4541656
47	0xc03144bc	-2.7698202
48	0xc02aeed6	-2.6708274
49	0xbd1f3122	-0.038865216
50	0xc0097897	-2.1479852
51	0xc00e15ae	-2.2200732
52	0x3e840af4	0.25789607
53	0x3fd85126	1.6899765
54	0xc015854e	-2.3362613
55	0x401e4568	2.4729862
56	0xbf8518f6	-1.0398242
57	0xbfb6a638	-1.4269476
58	0xbf053c36	-0.52045
59	0xbfcb7bcb	-1.5897154
60	0xc0045d4b	-2.0681942
61	0xbfdd703f	-1.729988
62	0x3f85651b	1.042148
63	0x3f6c4061	0.92285734
64	0xc02a2629	-2.658579
65	0xbfb6396e	-1.4236276
66	0xbfbcb7f2	-1.4743636
67	0xbfd55413	-1.6666282
68	0x4026bc26	2.6052337
69	0xbf68be65	-0.9091552
70	0xbfbd8a8c	-1.4807906
71	0xc00aa739	-2.1664565
72	0xbfdec141	-1.7402726
73	0xbfce33fa	-1.6109612
74	0xc00b51f2	-2.1768765
75	0xc0196410	-2.3967323
76	0x3f1e7c6d	0.6190861
77	0xc017f8da	-2.3745637
78	0xbfce84bb	-1.6134256
79	0xbf89e8ed	-1.0774208
80	0xc01f2750	-2.4867744
81	0x3f2e3206	0.6804508
82	0xbff0f888	-1.8825846
83	0xbfc89962	-1.5671809
84	0xc020dc87	-2.51346
85	0x3ff048e4	1.8772244
86	0xbfc5d387	-1.5455178
87	0xc01649a8	-2.3482456
88	0xc017d82d	-2.3725693
89	0xbff6b96d	-1.9275337
90	0xbff8ede6	-1.9447601
91	0x401f9fa4	2.4941187
92	0x3fca7363	1.5816463
93	0xbf5a4060	-0.8525448
94	0xc0094751	-2.1449778
95	0xc004b20e	-2.0733676
96	0xbf659983	-0.89687365
97	0x400cad27	2.1980684
98	0x3f686a3b	0.90787095
99	0xbf3175e4	-0.6932051
100	0xc00099a8	-2.0093784
101	0x3f212df3	0.6296074
102	0xbf0e6eda	-0.55637896
103	0xbde5d319	-0.11221904
104	0x40259768	2.587366
105	0xbfb78d41	-1.4339982
106	0x3fe4a191	1.7861806
107	0xbfe071fb	-1.7534784
108	0xbfe3756c	-1.7770209
109	0x40006073	2.0058868
110	0x4023cc89	2.5593588
111	0xbfc4a338	-1.536231
112	0xbf4ac690	-0.7920923
113	0x3fc0f5d5	1.5075022
114	0x3ffc2519	1.9698821
115	0xc0127747	-2.28853
116	0x3ee5262a	0.4475568
117	0xbff5b96d	-1.9197212
118	0x3fbceaf5	1.4759203
119	0x3ff7f65d	1.9372059
