Python/SpeechRecognition/DeepSpeech/models/taskClassifierPhon.tflite (tflite, 47072 bytes, 4 tensors)

sequential/dense/BiasAdd/ReadVariableOp f4 [20]
-0.68511856 -1.1482419 -1.2205416 -0.17990549 -1.2497232 0.6645987 -1.0028298 0.7797738
-1.1621809 -0.58195454 -1.1198312 -0.9635842 0.13966347 0.24295872 -1.3267481 -1.2405658
0.2685586 1.1839893 0.47745624 -0.7885639
00000000: ee63 2fbf 97f9 92bf b53a 9cbf 2539 38be
00000010: eef6 9fbf 2423 2a3f ba5c 80bf 419f 473f
00000020: 58c2 94bf f9fa 14bf a156 8fbf 74ad 76bf
00000030: f103 0f3e 2cca 783e e2d2 a9bf dcca 9ebf
00000040: 8380 893e f68c 973f 2575 f43e 53df 49bf

sequential/dense_1/BiasAdd/ReadVariableOp f4 [6]
-0.040465303 0.200358 -0.044029534 0.17207234 -0.5560244 -0.26927748
00000000: f2be 25bd a62a 4d3e 5058 34bd bb33 303e
00000010: 9d57 0ebf bdde 89be

sequential/dense/MatMul f4 [20, 565]
-0.9460156 -0.27116135 0.08681938 -0.12642527 -0.5054607 -0.08800531 -0.71517384 -0.32719007
-0.34654158 -0.3705611 -0.2638807 -0.48632756 -0.15557438 -0.32514265 0.007492898 -0.31950238
-0.049190104 0.2891277 -0.34390885 -0.21768637 -0.26187253 -0.35825974 0.001935085 -0.027441269
0.07982415 -0.24271762 -0.4651739 -0.052045766 0.03253968 0.0028413169 -0.517097 -0.20713498
-0.30278826 -0.2943936 0.2931397 -0.25966662 -0.05896623 -0.20353039 -0.36738947 -0.087109745
-0.027512943 -0.14626092 0.035801742 0.13237748 -0.2263419 -0.13906354 0.19293827 -0.060497954
-0.39900672 0.31966397 -0.5370223 -0.47568282 -0.37695366 -0.2795869 -0.4703503 0.11696955
-0.47804013 -0.54403794 -0.1615718 -0.04564649 0.108164996 0.052589312 0.22140615 -0.45738724
0.19736686 -0.0006083089 -0.25762028 0.06773695 -0.16539428 -0.18884747 0.46748453 0.009274698
-0.55378985 0.007636991 -0.8219414 -0.07854865 -0.08291614 -0.11761064 -0.41433766 -0.07301104
-0.59529936 -0.23899882 -0.192137 -0.16391203 -0.16867617 0.0065241284 -0.21822171 -0.33457106
-0.3638303 -0.066829294 -0.012025543 -0.30484134 -0.35694495 -0.377707 -0.124523796 -0.3977956
-0.30037186 -0.6599566 -0.30805188 -0.33358565 -0.23800172 -0.42420843 -0.6580415 -0.17464744
-0.3083295 -0.29703277 0.29688686 -0.20106182 0.0035905242 -0.27378258 -0.07098265 0.00068371
-0.0015954226 0.068058 -0.33003402 -0.2432716 -0.14436857 -0.47770458 -0.35418954 -0.29009408
-0.15225825 -0.35135183 0.052870005 0.20846313 -0.37364325 -0.43160585 -0.28140786 -0.19310363
-0.44543692 -0.44525698 -0.1644343 -0.28151485 0.097721785 0.15037042 -0.40290597 -0.26492727
-0.31020448 0.010428478 -0.20157467 -0.3575733 0.0014381465 -0.5260231 0.40199557 0.089503035
0.02192616 -0.59276605 0.26020655 0.20859006 -0.34928527 -0.46938986 -0.2482544 -0.27422452
-0.38626596 -0.40425912 -0.26802576 -0.26026145 -0.009777144 0.18902256 -0.09573734 -0.04899676
-0.40557328 -0.21655692 -0.5700837 -0.54599476 -0.3237377 -0.15588152 -0.25021464 -0.06764349
-0.29579595 -0.3966164 -0.098003164 -0.1931198 -0.38357013 -0.23706542 -0.40638635 -0.5940356
0.01900065 -0.22876877 -0.38167235 0.0106647005 -0.48145995 -0.3530805 -0.5507764 -0.080828495
0.046649754 -0.20109408 -0.348333 0.04935218 -0.89263487 -0.3589998 0.025687229 -0.3667042
-0.018314678 -0.23883133 -0.7602353 -0.38446102 -0.41458163 0.09448695 -0.3009973 -0.08116279
-0.2855131 -0.015240118 -0.28575748 -0.41272566 -0.32904124 -0.58679116 -0.1973129 -0.10327632
-0.2711662 -0.15248676 0.09480128 -0.1687845 -0.13565455 -0.14914444 -0.41756162 -0.019376356
-0.4416486 -0.20387213 -0.6015029 -0.07766711 -0.19451478 -0.15343486 0.022823252 0.019684568
-0.078671664 -0.07032251 -0.40055624 0.106303886 0.014957053 -0.47431496 -0.48216367 -0.024501856
-0.30013192 -0.24225241 -0.24537922 -0.021628821 0.031627398 0.51041627 -0.2915222 0.09815261
0.053355783 -0.344393 -0.37071475 -0.15810698 0.16114415 -0.4130173 -0.003887729 -0.06909915
-0.398188 -0.017198578 -0.384862 -0.5259674 0.21961738 -0.102932245 -0.26842666 -0.081000686
00000000: 142e 72bf a9d5 8abe 5cce b13d a075 01be
00000010: df65 01bf 213c b4bd a215 37bf 7585 a7be
00000020: e66d b1be 2fba bdbe 5f1b 87be edff f8be
00000030: e44e 1fbe 1979 a6be fc86 f53b d195 a3be
00000040: 907b 49bd 8c08 943e d214 b0be 2de9 5ebe
00000050: 2814 86be d26d b7be aea2 fd3a 83cc e0bc
00000060: d87a a33d f88a 78be 462b eebe f12d 55bd
00000070: 5448 053d 6335 3a3b 7860 04bf 311b 54be
00000080: 1007 9bbe c2ba 96be 6816 963e 06f3 84be
00000090: 9386 71bd 456a 50be 791a bcbe 9866 b2bd
000000a0: d362 e1bc 6cc5 15be d9a4 123d f68d 073e
000000b0: 2cc6 67be ac66 0ebe 9c91 453e b4cc 77bd
000000c0: 9c4a ccbe ffaa a33e 4b7a 09bf b38c f3be
000000d0: 1200 c1be 0426 8fbe c1d1 f0be bb8d ef3d
000000e0: adc1 f4be 1246 0bbf 1473 25be d0f7 3abd
000000f0: 9c85 dd3d e467 573d 4bb8 623e a92e eabe
00000100: 8a1a 4a3e eb76 1fba cee6 83be acb9 8a3d
00000110: 1e5d 29be 3b61 41be 225a ef3e e7f4 173c
00000120: 2cc5 0dbf b93f fa3b c06a 52bf 1dde a0bd
00000130: f0cf a9bd d9dd f0bd 1124 d4be d086 95bd
00000140: 8a65 18bf 1bbc 74be 90bf 44be 8ed8 27be
00000150: 72b9 2cbe 5bc8 d53b 8375 5fbe e64c abbe
00000160: f747 babe ccdd 88bd c806 45bc 2a14 9cbe
00000170: 7dc1 b6be d062 c1be 5506 ffbd ddab cbbe
00000180: 57ca 99be eaf2 28bf fab8 9dbe bdcb aabe
00000190: b9b6 73be d931 d9be 6875 28bf c7d6 32be
000001a0: 5ddd 9dbe ae14 98be 8e01 983e 26e3 4dbe
000001b0: 004f 6b3b 3b2d 8cbe 5a5f 91bd 003b 333a
000001c0: 801d d1ba fe61 8b3d 38fa a8be 311c 79be
000001d0: 5bd5 13be b295 f4be 5558 b5be 3687 94be
000001e0: 96e9 1bbe 63e4 b3be 388e 583d 5c77 553e
000001f0: 2b4e bfbe 71fb dcbe b114 90be f5bc 45be
00000200: 4f10 e4be b9f8 e3be 7761 28be b722 90be
00000210: 5c22 c83d b4fa 193e b149 cebe 8ca4 87be
00000220: 1fd3 9ebe 35dc 2a3c 9769 4ebe d913 b7be
00000230: 3080 bc3a 73a9 06bf 5dd2 cd3e 5e4d b73d
00000240: 7e9e b33c 84bf 17bf cb39 853e a298 553e
00000250: 85d5 b2be de53 f0be 6736 7ebe 2867 8cbe
00000260: a7c4 c5be 0dfb cebe ac3a 89be fd40 85be
00000270: 5030 20bc 218f 413e f011 c4bd d4b0 48bd
00000280: 4da7 cfbe 19c1 5dbe 01f1 11bf 50c6 0bbf
00000290: f3c0 a5be 689f 1fbe 221c 80be ac88 8abd
000002a0: 9172 97be 4e11 cbbe e2b5 c8bd 32c1 45be
000002b0: 4e63 c4be 47c1 72be df11 d0be b812 18bf
000002c0: 40a7 9b3c 5c42 6abe 8f6a c3be ffba 2e3c
000002d0: eb81 f6be f8c6 b4be afff 0cbf 6989 a5bd
000002e0: d013 3f3d 9beb 4dbe b458 b2be 8325 4a3d
000002f0: b883 64bf d2ce b7be 066e d23c a7c0 bbbe
00000300: aa08 96bc 3390 74be c89e 42bf 13d8 c4be
00000310: 0b44 d4be 6082 c13d 511c 9abe ad38 a6bd
00000320: c62e 92be b0b1 79bc ce4e 92be c750 d3be
00000330: 1878 a8be f237 16bf 650c 4abe 8982 d3bd
00000340: 4cd6 8abe 7d25 1cbe 2c27 c23d d8d5 2cbe
00000350: 07e9 0abe 52b9 18be a3ca d5be 2abb 9ebc
00000360: c41f e2be dbc3 50be 18fc 19bf ef0f 9fbd
00000370: e22e 47be 071e 1dbe d4f7 ba3c 8841 a13c
00000380: 9c1e a1bd 4005 90bd b515 cdbe dab5 d93d
00000390: 6d0e 753c 69d9 f2be 28de f6be 1eb8 c8bc
000003a0: e4aa 99be 0411 78be b144 7bbe ed2e b1bc
000003b0: bb8b 013d a4aa 023f 6642 95be 3c04 c93d
000003c0: 988b 5a3d 4754 b0be 53ce bdbe cce6 21be
000003d0: f902 253e 0177 d3be 45c9 7ebb db83 8dbd
000003e0: 4cdf cbbe 08e4 8cbc a20c c5be cda5 06bf
000003f0: 61e3 603e 24ce d2bd 386f 89be b0e3 a5bd

sequential/dense_1/MatMul f4 [6, 20]
-1.1691251 0.19672132 1.0129511 -1.3784215 -0.60143113 -1.1810803 -1.192899 -1.6654079
-0.66980255 -1.7068365 0.29688075 0.99995613 2.0430522 -0.9345795 -1.209277 1.5497774
-1.6007047 -1.1033252 -1.5600878 -0.9332542 0.06712809 -1.532164 0.42027658 -0.9905378
0.46293882 -1.1588317 0.54342544 -1.1548926 1.0381984 -1.7081171 -1.3479583 -1.54948
-1.7818387 -1.6646504 -0.10292542 -1.3561703 -1.5970143 -0.930627 2.078807 -0.9512813
-1.5013013 -1.7026678 -0.8398478 -1.4984425 -1.2117856 -1.0253793 -0.41661933 -0.9861649
-1.0461917 0.6510711 -1.5199186 -0.52261144 -1.2599124 2.032279 -0.85744745 -1.1664037
-1.9629875 -1.7042332 -1.8422943 1.5198334 -1.3617176 -1.5297803 -1.2305901 1.794092
-1.1990522 -1.4084141 1.155766 -1.6268264 0.11445446 -1.7400458 1.089463 -1.3082895
-1.9504949 -1.4717681 0.17426443 -0.9575533 1.8780661 -1.4910086 -1.7464058 -1.6536924
0.6916828 -0.11514595 -0.4575431 -1.5119982 -1.1789532 -1.4864185 -1.2245789 1.6733882
-1.0481403 0.64262956 0.9897373 -1.6600827 -0.15260242 -1.9085288 -1.0024365 -1.2325234
-1.9291658 -1.5881212 -1.9243487 -1.3068541 1.6007037 1.0237491 -0.15328237 0.6737052
0.9947133 1.7693517 -0.81185377 1.2100686 0.4344681 0.7705601 -0.8866536 1.3224697
-1.8586912 -0.8572001 0.6752127 0.1095355 -1.0045339 2.087029 -1.4717503 -0.7540026
00000000: e4a5 95bf 5071 493e 62a8 813f 1e70 b0bf
00000010: 64f7 19bf a42d 97bf eab0 98bf 162c d5bf
00000020: 2e78 2bbf 9e79 dabf c100 983e 20fd 7f3f
00000030: 5ec1 0240 9a40 6fbf 97c9 9abf 1b5f c63f
00000040: e4e3 ccbf c339 8dbf f5b0 c7bf bfe9 6ebf
00000050: 747a 893d f31d c4bf 7e2e d73e e393 7dbf
00000060: 5106 ed3e 9954 94bf ee1d 0b3f 85d3 93bf
00000070: afe3 843f 95a3 dabf e689 acbf 5c55 c6bf
00000080: 4a13 e4bf 4413 d5bf 90ca d2bd fd96 adbf
00000090: f76a ccbf 923d 6ebf 2d0b 0540 2c87 73bf
000000a0: a42a c0bf 05f1 d9bf 4400 57bf f7cc bfbf
000000b0: ca1b 9bbf a13f 83bf 214f d5be 4e75 7cbf
000000c0: 9ce9 85bf 98ac 263f b18c c2bf ddc9 05bf
000000d0: cf44 a1bf dc10 0240 ad81 5bbf b74c 95bf
000000e0: 2d43 fbbf 5024 dabf 4dd0 ebbf e789 c23f
000000f0: c34c aebf d7cf c3bf fa83 9dbf cfa4 e53f
00000100: 8b7a 99bf ea46 b4bf 24f0 933f d93b d0bf
00000110: 1a67 ea3d d2b9 debf 8673 8b3f 0876 a7bf
00000120: d1a9 f9bf e662 bcbf 6072 323e 3722 75bf
00000130: 7864 f03f 5fd9 bebf 3a8a dfbf 31ac d3bf
00000140: 2012 313f a4d1 ebbd 1743 eabe 2889 c1bf
00000150: f0e7 96bf f642 bebf 00bf 9cbf 9631 d63f
00000160: 7629 86bf 5f83 243f 6c5f 7d3f 977d d4bf
00000170: cf43 1cbe ac4a f4bf d74f 80bf 54c3 9dbf
00000180: e8ee f6bf 8e47 cbbf 0f51 f6bf ff46 a7bf
00000190: dce3 cc3f 360a 833f 0ef6 1cbe f277 2c3f
000001a0: 88a5 7e3f 1e7a e23f a6d5 4fbf 87e3 9a3f
000001b0: 9a72 de3e 6d43 453f bbfb 62bf b046 a93f
000001c0: 98e9 edbf 7771 5bbf bdda 2c3f 2654 e03d
000001d0: 9194 80bf e291 0540 5062 bcbf 5006 41bf
