Python/SpeechRecognition/DeepSpeech/autonom_manual.tflite (tflite, 11296 bytes, 4 tensors)

sequential/dense/BiasAdd/ReadVariableOp f4 [20]
0	0xbd70dfeb	-0.058807295
1	0xbeb2f8f4	-0.3495556
2	0xbeb2df3b	-0.34935936
3	0x3d800b6a	0.06252177
4	0xbec6e1a1	-0.38844016
5	0xbe99bb9e	-0.30025953
6	0xbeadb2fe	-0.33925623
7	0x3df3fb2f	0.11913144
8	0x3eb8e9ac	0.36115777
9	0x3e5728a8	0.21011603
10	0xbec4e471	-0.38455537
11	0xbe83330d	-0.25624886
12	0x3e5c7d4f	0.21532176
13	0xbeb6a243	-0.3567067
14	0xbeb33075	-0.34997907
15	0xbec55642	-0.38542372
16	0xbecd8b0a	-0.4014514
17	0x3eb65482	0.3561135
18	0xbeb013c9	-0.34390095
19	0xbebc8f26	-0.36827964

sequential/dense_1/BiasAdd/ReadVariableOp f4 [2]
0	0xbdf078c5	-0.11741785
1	0x3df078c4	0.11741784

sequential/dense/MatMul f4 [20, 122]
0	0x3e479bc5	0.19493015
1	0x3d8d6780	0.06904507
2	0xbebf5044	-0.37365925
3	0xbe054c22	-0.13017324
4	0x3d9d067c	0.076672524
5	0x3ead8650	0.33891535
6	0xbe736d05	-0.23772056
7	0x3e3d70ae	0.18500015
8	0xbde9362a	-0.11387284
9	0x3e81253f	0.2522373
10	0xbcd073c4	-0.025445826
11	0xbe948046	-0.29004115
12	0xbd16a9fb	-0.0367832
13	0xbde4b333	-0.11166992
14	0xbe860408	-0.2617495
15	0xbe123513	-0.14278059
16	0x3e32db42	0.17466453
17	0xbec412e4	-0.38295662
18	0xbeed6ebb	-0.46373543
19	0x3e1edde2	0.15514329
20	0x3e60a530	0.21938014
21	0x3db0b2eb	0.08627876
22	0x3ee0fc99	0.43942717
23	0x3e06197e	0.13095662
24	0x3e831dea	0.2560876
25	0xbe70883a	-0.23489466
26	0xbcf9d7d8	-0.03049843
27	0xbec06720	-0.37578678
28	0xbdb66450	-0.08905852
29	0xbd5f5b5e	-0.054530494
30	0xbe394e1b	-0.18096201
31	0x3e1232bd	0.14277168
32	0xbeaec8a5	-0.34137455
33	0x3e5b9187	0.21442233
34	0xbe11891d	-0.14212461
35	0xbeab9345	-0.33510795
36	0x3cbf8e40	0.02338326
37	0x3e485a6f	0.19565748
38	0x3df5fcf6	0.12011139
39	0x3de44ba7	0.11147242
40	0xbeafd0d4	-0.3433901
41	0xbe8e7f7e	-0.27831644
42	0x3e945815	0.2897345
43	0xbeb7916a	-0.3585313
44	0x3e3d0d50	0.1846211
45	0x3d2fb8f3	0.04290099
46	0xbd649c24	-0.05581297
47	0xbe9de357	-0.3083751
48	0xbe4958fe	-0.19662854
49	0xbeb6dc23	-0.35714826
50	0x3dc39c1f	0.09551262
51	0xbd0b139f	-0.03395426
52	0xbd8d6660	-0.06904292
53	0x3db1e36d	0.08685956
54	0xbe40c26a	-0.18824163
55	0xbe9b904b	-0.30383524
56	0xbee554ba	-0.44791204
57	0x3e66e983	0.22550015
58	0x3e1fb700	0.15597153
59	0x3e2e8bf4	0.17045575
60	0xbc9ce83c	-0.019153707
61	0x3e42d8a5	0.19027956
62	0x3d0ad5d6	0.033895336
63	0xbe8cff56	-0.27538556
64	0xbe33c095	-0.17553933
65	0xbcf3d1b7	-0.029763086
66	0xbed7716a	-0.42078716
67	0x3e93d085	0.28870025
68	0x3dd9d037	0.10635417
69	0xbe8c1edc	-0.27367294
70	0x3c3e9845	0.011632984
71	0xbe0213f7	-0.12702928
72	0x3bc78004	0.0060882587
73	0xbe2fc515	-0.17165025
74	0xbec7de49	-0.39036778
75	0xbda526df	-0.08064055
76	0x3dee5f42	0.11639263
77	0x3e3a580a	0.18197647
78	0xbedc5164	-0.43030846
79	0x3e2b89a4	0.16751724
80	0xbde70484	-0.11280158
81	0xbe9964df	-0.2995977
82	0x3dae083d	0.08497665
83	0x3e92640a	0.2859195
84	0xbe4c66fd	-0.19961162
85	0x3d932e3b	0.07186552
86	0x3cace0cb	0.021103283
87	0xbe1b44cd	-0.15162964
88	0x3e1c66b0	0.15273547
89	0x3c31afe4	0.010845158
90	0xbe693157	-0.22772728
91	0xbbbaf560	-0.0057055205
92	0x3e5648fa	0.20926276
93	0xbe33e01c	-0.1756596
94	0xbe683bc2	-0.22679046
95	0x3e741c16	0.23838839
96	0xbd2a8838	-0.041633815
97	0xbd8ba237	-0.068180494
98	0xbe0a75e8	-0.1352154
99	0x3da7e5c2	0.0819812
100	0x3ed17b77	0.4091451
101	0x3e3e29b8	0.18570602
102	0xbeeab01c	-0.45837486
103	0xbe2fbe5e	-0.17162463
104	0x3e343908	0.1759988
105	0xbc240f65	-0.010013436
106	0x3d44c45a	0.048038818
107	0xbec200d0	-0.37891245
108	0xbebeded8	-0.3727939
109	0xbea16ddc	-0.3152913
110	0xbdea37e3	-0.11436441
111	0xbe637c71	-0.2221544
112	0xbdb98fc9	-0.09060628
113	0xbe9cc3c9	-0.30618122
114	0x3db1216b	0.08648952
115	0xbe5e0afd	-0.21683879
116	0x3d10d5da	0.035360195
117	0x3e5e1024	0.21685845
118	0x3d3d96fd	0.04628657
119	0xbe9565b0	-0.29179144
120	0x3d9d1f60	0.07672
121	0xbdb5604d	-0.088562585
122	0xbd955dbf	-0.07293271
123	0xbeb97a6a	-0.36226207
124	0xbebe5a6f	-0.3717837
125	0xbe198638	-0.14992607
126	0xbca2b7a8	-0.019862965
127	0xbe31e6b3	-0.17373161
128	0xbda48d0b	-0.08034714
129	0xbdca0474	-0.098641306
130	0xbe8efc68	-0.27926946
131	0xbc87e5bf	-0.016589044
132	0xbe99b5f4	-0.30021632
133	0xbe7bd6ab	-0.24593608
134	0xbe3ebe74	-0.1862734
135	0xbe3afb2e	-0.1825988
136	0xbece91c2	-0.4034558
137	0xbd84db52	-0.064871445
138	0x3e44df54	0.19225818
139	0xbea96baf	-0.3308997
140	0xbe8fff0b	-0.2812427
141	0x3e06d106	0.13165674
142	0xbc46cf05	-0.012134318
143	0xbeb8fb02	-0.36129004
144	0xbe728b0a	-0.23685852
145	0x3d96408e	0.073365316
146	0x3d389971	0.045068208
147	0xbe663d01	-0.22484209
148	0xbe7ce363	-0.24696116
149	0xbebe8982	-0.37214285
150	0xbe111ed0	-0.1417191
151	0xbe00d52d	-0.1258132
152	0xbea3db5f	-0.32003304
153	0x3c6a49dd	0.014299837
154	0xbe831e08	-0.2560885
155	0xbe21d03c	-0.15802091
156	0xbd08f457	-0.033436146
157	0xbee136d3	-0.4398714
158	0xbdc39f9f	-0.0955193
159	0xbe8e70bd	-0.27820387
160	0xbad45e8d	-0.0016202495
161	0xbdc401d4	-0.09570661
162	0xbde9c700	-0.11414909
163	0xbe352825	-0.17691095
164	0xbe076ed2	-0.13225868
165	0xbe4b7a53	-0.19870882
166	0xbd9a747a	-0.075417474
167	0xbeaf8694	-0.34282362
168	0xbe93f95f	-0.28901193
169	0xbd0020d4	-0.031281307
170	0xbe7230af	-0.23651384
171	0xbea1b644	-0.3158437
172	0xbe34bbd0	-0.1764977
173	0xbdc33b16	-0.09532754
174	0xbdcaee99	-0.0990879
175	0x3d40bb6e	0.047053747
176	0xbe8bf15f	-0.2733259
177	0xbe8d192c	-0.27558267
178	0xbe2226f0	-0.15835166
179	0xbe8fe366	-0.2810318
180	0x3d707bf0	0.058711946
181	0xbe1ffda8	-0.15624106
182	0xbe09b3b4	-0.13447458
183	0x3cfa4f3e	0.030555364
184	0xbe4bb239	-0.19892205
185	0xbe6ea153	-0.23303728
186	0xbcfeec15	-0.031118432
187	0x3b2917ee	0.0025801617
188	0xbe2d49d7	-0.16922699
189	0xbe835f19	-0.2565849
190	0xbe593b1e	-0.21213958
191	0xbeb1ee79	-0.34752253
192	0xbd7793c6	-0.060443662
193	0xbe872bda	-0.26400644
194	0xbe9b02a8	-0.30275464
195	0xbbabff40	-0.005248934
196	0xbeaf4518	-0.34232402
197	0x3c9950ca	0.018715281
198	0xbe88f778	-0.26751304
199	0x3d9c0c3d	0.07619522
200	0xbe44a732	-0.19204405
201	0xbea6b6c8	-0.32561326
202	0xbe0c43ea	-0.13697782
203	0xbe5f3ac4	-0.21799761
204	0xbe7562a4	-0.2396341
205	0x3e058977	0.1304072
206	0xbea63cf6	-0.32468385
207	0xbda21ad9	-0.07915277
208	0xbea6e896	-0.32599324
209	0x3d85842d	0.06519351
210	0x3d7b2da6	0.06132283
211	0xbea4adfe	-0.32163996
212	0xbeb02b22	-0.34407908
213	0xbd1a4150	-0.037659943
214	0x3da2d50a	0.0795079
215	0xbeda74a5	-0.42667118
216	0xbeaa2a22	-0.3323527
217	0x3e286545	0.16444881
218	0x3e067e12	0.1313403
219	0xbec1577c	-0.37762058
220	0xbe9026e4	-0.2815467
221	0xbddb77e6	-0.10716228
222	0xbdf3da2e	-0.11906849
223	0xbeb1be21	-0.3471537
224	0xbecde80c	-0.402161
225	0xbe37b456	-0.17939886
226	0xbe92e32f	-0.28688952
227	0xbea55ad6	-0.32295865
228	0xbe6bc005	-0.23022468
229	0xbe8d04c4	-0.27542698
230	0xbdbcb869	-0.09214861
231	0xbe9821d2	-0.29713303
232	0xbe980830	-0.29693747
233	0xbe62888b	-0.221224
234	0xbe8de75c	-0.27715576
235	0xbd5ba832	-0.0536272
236	0x3dd21d11	0.1025945
237	0xbe96c988	-0.2945063
238	0xbd99b1a2	-0.07504584
239	0xbde8b4a3	-0.11362579
240	0xbeb8e953	-0.36115512
241	0xbc88e6cb	-0.016711613
242	0xbd3c79a9	-0.04601446
243	0xbea87377	-0.32900593
244	0xbdcee199	-0.10101623
245	0xbe9a16a6	-0.30095404
246	0x3de96a41	0.113972194
247	0xbe253b3c	-0.16135877
248	0x3dac893b	0.08424612
249	0xbec834ed	-0.3910288
250	0xbe5b47eb	-0.21414153
251	0xbca67611	-0.02031997
252	0xbd2bce69	-0.041944895
253	0x3ccbf1b9	0.024895536
254	0xbe646dd1	-0.22307517
255	0xbd74cc42	-0.059765108

sequential/dense_1/MatMul f4 [2, 20]
0	0xbdb27d23	-0.08715274
1	0xbf3bd11c	-0.7336595
2	0x3efe4737	0.49663708
3	0x3f274627	0.6534142
4	0xbe6fb46f	-0.23408674
5	0x3f07c23b	0.5303075
6	0x3f23545f	0.63800615
7	0xbec7b160	-0.39002514
8	0x3f687bb3	0.9081375
9	0x3f6e1322	0.92997944
10	0x3e8127a0	0.25225544
11	0xbe4d1eed	-0.20031328
12	0xbeba1572	-0.36344486
13	0xbf2c48b2	-0.67298424
14	0xbf11ef49	-0.57005745
15	0x3e0853fc	0.13313287
16	0x3e5d0bd7	0.21586548
17	0xbf74bb9c	-0.9559877
18	0xbeadac18	-0.3392036
19	0x3e991c9f	0.2990465
20	0x3f5bcf76	0.85863435
21	0xbe6aa471	-0.22914292
22	0xbe711ded	-0.23546572
23	0xbf4f58bc	-0.8099477
24	0xbe7b1b27	-0.24522077
25	0xbf01572b	-0.5052363
26	0xbe9661b7	-0.29371426
27	0x3f64709f	0.89234346
28	0xbf54ac1f	-0.83075136
29	0xbf460614	-0.77353024
30	0x3ee21d5e	0.4416303
31	0x3f42ea34	0.76138616
32	0x3f5ea283	0.86966723
33	0xbdb2a08e	-0.087220296
34	0x3c8ce79e	0.017200287
35	0xbe0ae44b	-0.1356365
36	0xbdd4ec6a	-0.10396655
37	0x3edab694	0.4271742
38	0x3e8ed063	0.2789336
39	0xbee62f4f	-0.4495797
