Python/SpeechRecognition/DeepSpeech/autonom_manualRNN.tflite (tflite, 546588 bytes, 32 tensors)

sequential_1/dense_2/BiasAdd/ReadVariableOp f4 [20]
000000 88 62 64 3d 97 bd 05 3d 1b 87 0f 3d c8 90 5e 3d
       0.05575803 0.03265151 0.035040956 0.054337293
000010 24 03 7e bc 89 64 3c 3d d5 b0 26 3d 45 50 4d 3c
       -0.0155036785 0.045994315 0.040695984 0.012531345
000020 60 44 23 3d 45 92 34 3d ff 29 30 bc 03 52 8f 3c
       0.03986013 0.044084806 -0.0107522 0.01749516
000030 98 e6 15 3d 25 4b 17 3d 7c 8e 49 3d ba 87 1d bc
       0.036596864 0.036936898 0.04920815 -0.009614879
000040 f1 24 e6 bb 00 34 ad 3c e1 c4 91 3d 78 fb d7 3d
       -0.0070234467 0.02114296 0.0711763 0.10546011

sequential_1/lstm/TensorArrayV2_1 f4 [1, 1, 64]
000000 00 00 00 00 00 00 00 00 00 00 00 00 00 00 00 00
       0.0 0.0 0.0 0.0
000010 00 00 00 00 00 00 00 00 00 00 00 00 00 00 00 00
       0.0 0.0 0.0 0.0
000020 00 00 00 00 00 00 00 00 00 00 00 00 00 00 00 00
       0.0 0.0 0.0 0.0
000030 00 00 00 00 00 00 00 00 00 00 00 00 00 00 00 00
       0.0 0.0 0.0 0.0
000040 00 00 00 00 00 00 00 00 00 00 00 00 00 00 00 00
       0.0 0.0 0.0 0.0
000050 00 00 00 00 00 00 00 00 00 00 00 00 00 00 00 00
       0.0 0.0 0.0 0.0
000060 00 00 00 00 00 00 00 00 00 00 00 00 00 00 00 00
       0.0 0.0 0.0 0.0
000070 00 00 00 00 00 00 00 00 00 00 00 00 00 00 00 00
       0.0 0.0 0.0 0.0
000080 00 00 00 00 00 00 00 00 00 00 00 00 00 00 00 00
       0.0 0.0 0.0 0.0
000090 00 00 00 00 00 00 00 00 00 00 00 00 00 00 00 00
       0.0 0.0 0.0 0.0
0000a0 00 00 00 00 00 00 00 00 00 00 00 00 00 00 00 00
       0.0 0.0 0.0 0.0
0000b0 00 00 00 00 00 00 00 00 00 00 00 00 00 00 00 00
       0.0 0.0 0.0 0.0
0000c0 00 00 00 00 00 00 00 00 00 00 00 00 00 00 00 00
       0.0 0.0 0.0 0.0
0000d0 00 00 00 00 00 00 00 00 00 00 00 00 00 00 00 00
       0.0 0.0 0.0 0.0
0000e0 00 00 00 00 00 00 00 00 00 00 00 00 00 00 00 00
       0.0 0.0 0.0 0.0
0000f0 00 00 00 00 00 00 00 00 00 00 00 00 00 00 00 00
       0.0 0.0 0.0 0.0

sequential_1/lstm_2/StatefulPartitionedCall/BiasAdd/ReadVariableOp f4 [256]
000000 ff c8 e3 3d b2 d0 92 3d 21 f7 e9 3d d6 3b fb 3d
       0.11122321 0.07168712 0.11424089 0.12267272
000010 71 54 c0 3d 5e 39 06 3e c6 6c c7 3d ad 5b 03 3e
       0.09391106 0.13107821 0.09737544 0.1282794
000020 96 87 d3 3d f3 e4 e2 3d 6e f6 b1 3d 6e 71 01 3e
       0.10328595 0.11078825 0.08689581 0.12640926
000030 77 15 0b 3e da b0 fb 3d 30 eb 11 3e de f8 01 3e
       0.13582407 0.12289591 0.14249873 0.12692592
000040 f9 ff 92 3d c6 21 03 3e 2c 41 00 3e 08 e1 00 3e
       0.07177729 0.12805852 0.12524861 0.12585843
000050 9c e4 f5 3d 49 02 11 3e cf 0b fe 3d d5 5a db 3d
       0.120064944 0.14161028 0.12404596 0.10710684
000060 c3 21 ea 3d cb e0 f6 3d 5c be e3 3d fc d4 e5 3d
       0.11432221 0.120545946 0.111202925 0.11222264
000070 c4 a3 fe 3d f0 6e 03 3e 3e cd e7 3d e7 fc c0 3d
       0.124335796 0.12835288 0.11318444 0.09423237
000080 48 6a 02 3e 9c 76 0b 3e c7 1a e3 3d d7 f8 e6 3d
       0.12735856 0.13619465 0.11089092 0.11277931
000090 b0 7e d4 3d ed 8f 08 3e 75 91 0b 3e d6 a9 f6 3d
       0.10375726 0.13336153 0.13629706 0.120441124
0000a0 5e 9a 10 3e cd a4 00 3e 19 c5 15 3e 3e 7e f7 3d
       0.14121386 0.12562867 0.14625968 0.12084626
0000b0 de 0e 06 3e cd 88 92 3d d0 65 f0 3d b4 0b 09 3e
       0.13091609 0.07154999 0.11738169 0.1338337
0000c0 73 00 d2 3d c7 68 f4 3d 0c 2d 07 3e d5 54 09 3e
       0.10253992 0.11934047 0.13200778 0.13411267
0000d0 d0 ea db 3d f6 d9 01 3e 84 ab fe 3d bc 6c dd 3d
       0.10738146 0.12680802 0.12435058 0.10811755
0000e0 6c 8b e4 3d 29 08 06 3e e2 8e 07 3e 5c 63 6f 3d
       0.11159405 0.1308905 0.13238099 0.058444366
0000f0 62 3c be 3d 15 23 00 3e d2 ef 07 3e b8 a3 fd 3d
       0.09288861 0.12513383 0.13275078 0.123847425
000100 00 00 80 3f 00 00 80 3f 00 00 80 3f 00 00 80 3f
       1.0 1.0 1.0 1.0
000110 00 00 80 3f 00 00 80 3f 00 00 80 3f 00 00 80 3f
       1.0 1.0 1.0 1.0
000120 00 00 80 3f 00 00 80 3f 00 00 80 3f 00 00 80 3f
       1.0 1.0 1.0 1.0
000130 00 00 80 3f 00 00 80 3f 00 00 80 3f 00 00 80 3f
       1.0 1.0 1.0 1.0
000140 00 00 80 3f 00 00 80 3f 00 00 80 3f 00 00 80 3f
       1.0 1.0 1.0 1.0
000150 00 00 80 3f 00 00 80 3f 00 00 80 3f 00 00 80 3f
       1.0 1.0 1.0 1.0
000160 00 00 80 3f 00 00 80 3f 00 00 80 3f 00 00 80 3f
       1.0 1.0 1.0 1.0
000170 00 00 80 3f 00 00 80 3f 00 00 80 3f 00 00 80 3f
       1.0 1.0 1.0 1.0
000180 00 00 80 3f 00 00 80 3f 00 00 80 3f 00 00 80 3f
       1.0 1.0 1.0 1.0
000190 00 00 80 3f 00 00 80 3f 00 00 80 3f 00 00 80 3f
       1.0 1.0 1.0 1.0
0001a0 00 00 80 3f 00 00 80 3f 00 00 80 3f 00 00 80 3f
       1.0 1.0 1.0 1.0
0001b0 00 00 80 3f 00 00 80 3f 00 00 80 3f 00 00 80 3f
       1.0 1.0 1.0 1.0
0001c0 00 00 80 3f 00 00 80 3f 00 00 80 3f 00 00 80 3f
       1.0 1.0 1.0 1.0
0001d0 00 00 80 3f 00 00 80 3f 00 00 80 3f 00 00 80 3f
       1.0 1.0 1.0 1.0
0001e0 00 00 80 3f 00 00 80 3f 00 00 80 3f 00 00 80 3f
       1.0 1.0 1.0 1.0
0001f0 00 00 80 3f 00 00 80 3f 00 00 80 3f 00 00 80 3f
       1.0 1.0 1.0 1.0
000200 b6 6e 2c 3d 1b 5d c0 3c 1e e7 8b 3d d7 c6 71 bd
       0.04209777 0.023481896 0.068311915 -0.05902752
000210 b9 d5 3d 3d 63 7c d4 3c 01 dd 82 bd 63 59 08 3d
       0.0463464 0.025938218 -0.063898094 0.03328837
000220 f0 0d 09 3d 5d 9d 1f bd 23 7f ed 3c 76 d9 64 3d
       0.033460557 -0.038968433 0.028991288 0.05587145
000230 65 64 a8 3c 9b 3d 59 bd 90 89 d8 bc fe 15 ba bc
       0.020555684 -0.053037267 -0.026432782 -0.022715565
000240 c6 95 c3 bc 21 f9 25 bd 18 b2 35 3d 7a 95 3a 3c
       -0.023875128 -0.04052079 0.044359297 0.011388177
000250 96 42 06 bc 9b ed 04 bd b8 6f c7 bc 91 5f 5d 3d
       -0.008194586 -0.03245316 -0.024345264 0.054046217
000260 c2 d3 44 3d 16 8c 87 bc 90 e2 1a bd 08 6d 8c bd
       0.04805351 -0.01654629 -0.037813723 -0.068567336
000270 bc 90 20 bc e0 31 b4 bc 3c 8a 9e bc d8 87 29 3b
       -0.009800132 -0.021996439 -0.019353025 0.0025868323
000280 32 3b 70 3d af b2 a5 3b 28 ce 23 bd 44 8c 09 3c
       0.058650203 0.005056701 -0.039991528 0.008395258
000290 84 73 4d bc a8 87 ec bc c8 cd 82 bb 0d 61 27 bd
       -0.012539748 -0.02887328 -0.003991816 -0.04086404
0002a0 a2 6e d9 ba 4e 32 a9 3b 8c 84 a9 bb 58 0b 8b bd
       -0.0016588757 0.0051634675 -0.0051732715 -0.06789273
0002b0 85 b7 46 bd 96 98 ed bc 3a 70 3c 3d e4 c4 99 bc
       -0.04851486 -0.029003423 0.046005465 -0.018770643
0002c0 07 d8 35 3d bb cc 8d 3d f9 63 e3 bc 53 0b 96 3c
       0.044395473 0.06923815 -0.027757632 0.018315947
0002d0 22 e1 24 3d d0 57 a5 bc c3 36 66 3c 0d cf b3 bc
       0.040253766 -0.020183474 0.014051142 -0.021949315
0002e0 69 d4 bc 3c e8 3d 55 bd 6d 89 c9 bc 31 ce f6 3c
       0.023050504 -0.05206099 -0.024601663 0.030127617
0002f0 ad f2 c9 bc 20 2a 32 3d 9b 57 b7 bc fe d4 72 bb
       -0.02465185 0.043497205 -0.02238064 -0.0037053223
000300 13 d1 f2 3d ce 74 94 3d 72 c2 f1 3d d0 60 fd 3d
       0.11856284 0.07248841 0.118046656 0.12371981
000310 88 d4 c2 3d f3 95 07 3e 72 c7 c8 3d fd cb 04 3e
       0.09513193 0.13240795 0.09803666 0.1296844
000320 5e a5 d6 3d b9 86 ef 3d 3c 68 a6 3d 22 14 04 3e
       0.1048076 0.11695618 0.0812535 0.12898305
000330 94 a5 0d 3e 53 2e fe 3d 4b 18 18 3e d6 b8 03 3e
       0.13832694 0.124111794 0.14853017 0.12863478
000340 8e 4b 92 3d 14 f1 03 3e 21 76 01 3e 14 3a 03 3e
       0.07143317 0.12884933 0.12642719 0.12815124
000350 4f be f6 3d 09 6e 12 3e dc 3c 02 3e 09 00 da 3d
       0.12048017 0.14299788 0.12718529 0.10644538
000360 e9 c3 e9 3d 08 20 fc 3d 06 79 e6 3d 8a 5a e6 3d
       0.1141432 0.12310797 0.11253552 0.11247738
000370 ba 0a 01 3e c0 72 05 3e f6 f8 e9 3d 52 bd bc 3d
       0.12601748 0.13032055 0.11424439 0.092157975
000380 dc 0d 07 3e 9f 5c 0e 3e 0b 51 e2 3d ef 71 e4 3d
       0.1318888 0.1390252 0.11050614 0.111545436
000390 33 81 d3 3d 7c 20 09 3e e5 fe 09 3e 60 59 fb 3d
       0.10327377 0.13391298 0.13476141 0.12272906
0003a0 fa b0 12 3e 5d 00 01 3e 87 b9 18 3e f8 a0 01 3e
       0.14325324 0.12597795 0.14914523 0.12659061
0003b0 96 49 08 3e ad 13 97 3d 42 55 f6 3d d4 45 0d 3e
       0.13309321 0.073768 0.120279804 0.13796169
0003c0 98 74 d4 3d 57 ba f8 3d 27 9b 09 3e 3e 2f 0c 3e
       0.10373801 0.121449165 0.13438092 0.13689896
0003d0 cf 86 e7 3d 46 08 03 3e de be 00 3e 1b 77 df 3d
       0.113050096 0.12796125 0.1257281 0.109113894
0003e0 c7 33 e8 3d bf 0f 08 3e 6b 37 0a 3e 24 27 6b 3d
       0.11338001 0.13287257 0.13497703 0.057410374
0003f0 bb 4a c0 3d 3a 7c 02 3e bf 2c 0b 3e fe ef 00 3e
       0.09389254 0.12742701 0.13591288 0.1259155

sequential_1/output/BiasAdd/ReadVariableOp f4 [2]
000000 12 2a 0d bd 13 2a 0d 3d
       -0.03446395 0.034463953

sequential_1/lstm/lstm_cell/MatMul_7 f4 [1, 64]
000000 00 00 00 00 00 00 00 00 00 00 00 00 00 00 00 00
       0.0 0.0 0.0 0.0
000010 00 00 00 00 00 00 00 00 00 00 00 00 00 00 00 00
       0.0 0.0 0.0 0.0
000020 00 00 00 00 00 00 00 00 00 00 00 00 00 00 00 00
       0.0 0.0 0.0 0.0
000030 00 00 00 00 00 00 00 00 00 00 00 00 00 00 00 00
       0.0 0.0 0.0 0.0
000040 00 00 00 00 00 00 00 00 00 00 00 00 00 00 00 00
       0.0 0.0 0.0 0.0
000050 00 00 00 00 00 00 00 00 00 00 00 00 00 00 00 00
       0.0 0.0 0.0 0.0
000060 00 00 00 00 00 00 00 00 00 00 00 00 00 00 00 00
       0.0 0.0 0.0 0.0
000070 00 00 00 00 00 00 00 00 00 00 00 00 00 00 00 00
       0.0 0.0 0.0 0.0
000080 00 00 00 00 00 00 00 00 00 00 00 00 00 00 00 00
       0.0 0.0 0.0 0.0
000090 00 00 00 00 00 00 00 00 00 00 00 00 00 00 00 00
       0.0 0.0 0.0 0.0
0000a0 00 00 00 00 00 00 00 00 00 00 00 00 00 00 00 00
       0.0 0.0 0.0 0.0
0000b0 00 00 00 00 00 00 00 00 00 00 00 00 00 00 00 00
       0.0 0.0 0.0 0.0
0000c0 00 00 00 00 00 00 00 00 00 00 00 00 00 00 00 00
       0.0 0.0 0.0 0.0
0000d0 00 00 00 00 00 00 00 00 00 00 00 00 00 00 00 00
       0.0 0.0 0.0 0.0
0000e0 00 00 00 00 00 00 00 00 00 00 00 00 00 00 00 00
       0.0 0.0 0.0 0.0
0000f0 00 00 00 00 00 00 00 00 00 00 00 00 00 00 00 00
       0.0 0.0 0.0 0.0

lstm_cell/MatMul_4 f4 [64, 64]
000000 c0 f3 bd bc 96 54 a1 bb 0f de 9b 3d c0 9c 8d ba
       -0.023187518 -0.0049234135 0.07610714 -0.0010804161
000010 58 a7 a7 3d 4b a2 8e 3d f2 1d a5 3d 9e 22 88 3d
       0.08186215 0.06964549 0.08062352 0.06647228
000020 f7 dd 31 3e 90 6e 18 bd 53 a0 86 bc 34 f6 0e bd
       0.17369829 -0.037214816 -0.01643387 -0.034902766
000030 ae 94 0e 3d d9 7b b4 bd 38 ed 34 bc 62 a5 f8 bc
       0.03480976 -0.088126846 -0.0110428855 -0.030352298
000040 f8 29 3b bd 92 c3 08 3d e0 99 a7 bc 7b 17 16 bc
       -0.04569432 0.033389635 -0.020459116 -0.009160872
000050 8c 43 e2 3d c0 06 66 3b 64 4c a3 3d 42 c1 95 3d
       0.1104804 0.0035099238 0.07973555 0.073122516
000060 10 cc da bb ef d1 bc bd f6 f8 4d bd 8d d3 b1 bd
       -0.006677158 -0.09219729 -0.050286256 -0.08682928
000070 4e cf 25 3d 2e 34 e1 bb 99 bd ca 3c 00 88 d0 3c
       0.040480904 -0.0068726754 0.02474861 0.025455475
000080 dc 5f 07 be 32 84 b4 b9 a1 54 53 3d f2 de 5f bd
       -0.13220161 -0.0003443077 0.05159438 -0.054655977
000090 80 73 52 bd ee 34 bc 3d b7 97 72 bd 87 a6 94 3c
       -0.05137968 0.09189783 -0.059226718 0.018145813
0000a0 9a 9b 77 bd c5 1a 68 3d ac 05 2c bd bd f0 30 bd
       -0.060451128 0.056666154 -0.041997597 -0.043198336
0000b0 d5 39 e4 3c 19 ba 1c 3d 26 84 af 3c 0c 67 54 3a
       0.027859608 0.038263414 0.021425318 0.00081025134
0000c0 9c f1 a4 bb 8c 9b 24 3d e4 06 4f 3b e4 15 e0 bd
       -0.005033685 0.040187404 0.00315898 -0.10941675
0000d0 17 92 8a bd 8c ab 5c 3d 5e 20 8d 3d 35 c0 4a bd
       -0.06766146 0.053874537 0.06890939 -0.04949971
0000e0 bb a1 c1 bc ca 79 7c bd 02 13 0d 3d 73 31 86 3c
       -0.02363669 -0.061639585 0.034441955 0.016381001
0000f0 62 16 31 3d ea 44 12 bd 87 a0 36 bd 38 d8 b8 3d
       0.043234237 -0.035710253 -0.044586685 0.090256155
000100 63 7d 35 3c e0 cc e5 bd fe 19 dc bd c6 6c b7 3d
       0.011077258 -0.112207174 -0.10747145 0.08956294
000110 58 f6 8e bc 0a 8a da bd 30 0a cf bd 00 b4 9b 3d
       -0.01745145 -0.1067086 -0.10109365 0.07602692
000120 72 76 99 3c e8 4b 36 3d 6f 95 53 3c 54 10 2e bc
       0.018733237 0.044505984 0.012914046 -0.01062401
000130 8c 53 0f 3c da e5 97 bc ee b6 49 3d 8e 9f bd bd
       0.0087479465 -0.018542219 0.04924672 -0.09258948
000140 3a 33 a8 3c 06 d1 b7 3c 59 61 c2 3b 6e fc 58 3c
       0.02053224 0.022438537 0.005932015 0.013243778
000150 d8 d7 1c 3d bd 07 a1 3d 84 76 99 bc 3c 25 02 bd
       0.038291782 0.07862804 -0.01873327 -0.03177379
000160 93 19 fd 3d 2a 7b 55 3d 7e 6d a5 3d 98 06 42 bd
       0.123583935 0.05211941 0.080775246 -0.04736957
000170 eb 03 c4 3c 5e 26 a7 bc c4 56 68 bc 0f 2b 89 3d
       0.02392765 -0.020404037 -0.014180843 0.06697666
000180 64 75 8d bb 3e 37 82 bd 92 7c 56 bc 76 0d af 3d
       -0.0043169726 -0.06358193 -0.013091223 0.08547489
000190 e1 db d9 3c ff 19 9a 3d c7 82 2b 3e 7c 56 9d bd
       0.026594104 0.075244896 0.16749106 -0.07682511
0001a0 e7 54 32 bd c2 1a 04 3c 4c 94 d3 bc 84 12 9c bc
       -0.043538 0.00806302 -0.02582755 -0.019051798
0001b0 f3 93 b6 bd ce 30 f7 bc fe 27 df 3d fa 0d 51 3d
       -0.08914938 -0.03017464 0.108963 0.05103872
0001c0 31 e7 43 bc 48 ac d5 3d 43 2b 5a 3d 2b f3 a7 3d
       -0.011956976 0.10433251 0.053263914 0.082006775
0001d0 28 c3 0b bd fb 15 d3 bc 4a e4 77 bd 67 9b bf bd
       -0.034121662 -0.025767317 -0.060520448 -0.093558125
0001e0 79 4d f5 bc 25 23 1f 3d 17 b4 0e 3c f2 31 62 3d
       -0.029944168 0.038851876 0.008709929 0.055223413
0001f0 04 5c 05 bd 67 9c 49 bd 02 2d 01 3e 90 84 83 3d
       -0.032558456 -0.049221423 0.12614825 0.06421769
000200 6a 3d 5c bd 0b c8 a6 bd c0 4a 6e 3d 5b b3 a6 3c
       -0.053769507 -0.08143624 0.058176756 0.020349195
000210 81 05 3f 3d 46 f7 ab 3d 2c 18 d0 3c c0 80 a7 bd
       0.04663611 0.08396773 0.025402151 -0.08178854
000220 fa bf bc 3c e6 6a 2d 3d 2a b4 77 bc 75 e5 5f 3d
       0.02304076 0.042338274 -0.015118638 0.054662187
000230 bf 37 c0 3d 74 38 53 bd 5f 61 ca 3d 10 a2 bf bd
       0.09385633 -0.05156751 0.09881853 -0.09357083
000240 09 77 ff bd ae 51 2b bd ae 62 10 3d 34 20 fb bc
       -0.12473876 -0.041825943 0.03525036 -0.030655004
000250 cd 11 c0 3d 23 7f d5 3d 97 43 6c bd cb e1 52 bb
       0.09378395 0.1042464 -0.057681646 -0.003217804
000260 46 33 d0 bd 58 40 ac bd 17 96 18 bd 1d a6 82 bd
       -0.1016603 -0.0841071 -0.03725251 -0.0637934
000270 c3 3e 8d bd 39 25 bd 3d 48 bd 7b 3d 1e 70 b1 3d
       -0.068967365 0.09235615 0.06145981 0.08663963
000280 05 a6 29 3c ca 1e 99 3d 05 ad 00 3e d5 f8 5d 3d
       0.010354524 0.07476576 0.12566002 0.054192383
000290 2f 15 93 bd 2c c0 65 3c b7 81 2e 3d bb d7 89 bd
       -0.07181775 0.014022868 0.042604174 -0.067306004
0002a0 94 50 10 bd 4e 06 a8 3c 27 c1 07 be c2 72 aa bd
       -0.035233095 0.020510819 -0.13257276 -0.083226696
0002b0 41 a4 af 3d 7e a8 5f bc 39 7e 4d bd 7f aa 6f 3d
       0.08576251 -0.0136510115 -0.050169203 0.058512207
0002c0 86 99 29 3d 3e b5 7b bd 60 3c 54 bc ff 1c 53 3d
       0.041406177 -0.061452143 -0.012953848 0.051541325
0002d0 4b e9 81 3c 75 be 8e bc 88 e5 e9 3c bc 42 b1 3b
       0.015858313 -0.017424801 0.028551832 0.0054095667
0002e0 7e 8d 7d bd 4c fd 6b bd 03 fa df 3c f7 9e 9d 3c
       -0.061902516 -0.05761461 0.027340895 0.01924084
0002f0 92 b2 d7 3c c6 aa 3b bd 82 22 fd 3c 4d ac 6a bd
       0.026330266 -0.04581716 0.030900244 -0.057293225
000300 70 17 c3 3d 26 a1 92 bd 9a 03 75 bc 40 27 9e bd
       0.09525955 -0.07159643 -0.014954472 -0.0772233
000310 06 af 4a bd a3 b2 b9 bd 10 55 8a 3d b8 4d 6b bd
       -0.04948332 -0.090672754 0.06754506 -0.057447165
000320 fb 9f 29 bc fa 23 9c bc 1e 5b 9c 3d bc 40 40 bc
       -0.010353084 -0.019060124 0.07634567 -0.011734184
000330 96 9e c3 bd d6 f5 e5 bc d4 00 af ba 4b 77 76 bb
       -0.09551732 -0.028071325 -0.0013351687 -0.0037607725
000340 c6 19 4f bd a4 cc 85 bc e7 3f ab 3d df ca 54 bd
       -0.05056169 -0.016332932 0.08361798 -0.051951285
000350 a6 82 ff 3b 60 9d 56 bc 98 d8 8d 3d 3e c8 bc 3d
       0.007797557 -0.013099045 0.069260776 0.09217881
000360 c5 8b 10 be 16 e9 66 bd ed 95 10 bd c6 9c 35 3c
       -0.14115818 -0.05637463 -0.03529923 0.011084741
000370 50 ee 2b 3d db 0e a4 bd 4d f5 23 be 53 df 2d 3c
       0.04197532 -0.08010646 -0.16011544 0.010612327
000380 78 1d a6 bb be 62 8b 3c 5c 2b 0d bb ae 41 a3 bb
       -0.005069431 0.017014857 -0.0021540737 -0.004982195
000390 14 ab 72 3c d1 77 93 bd 40 60 34 bb 4b 3d 0e be
       0.014811296 -0.072005875 -0.002752319 -0.13890569
0003a0 38 c0 87 bd 4c 0d 31 3d 87 02 c5 bc 44 0c e0 ba
       -0.0662846 0.04322557 -0.024049057 -0.0017093499
0003b0 1a 18 b6 3b 68 8e 2d 3e 7e 8d de 3d a6 21 c8 bb
       0.0055570723 0.16948855 0.10866831 -0.006107527
0003c0 7f f8 46 bd c4 a7 be bd 4c d3 84 3d 50 5b 22 bd
       -0.048576828 -0.093093425 0.06485614 -0.039637864
0003d0 2a 0e b7 3c 8f 38 e3 bc 4d 3c bb bd ff 50 2e bd
       0.022345621 -0.02773693 -0.09142361 -0.042557713
0003e0 bd 54 84 3d 1c 44 5b bd 46 00 fb 3a e6 21 a2 bd
       0.06461475 -0.05353175 0.0019149862 -0.07916622
0003f0 13 6a 9a bd 31 d1 2c bd 80 46 90 3d 02 c5 2f bd
       -0.07539763 -0.042191688 0.07044697 -0.04291249

lstm_cell/MatMul_5 f4 [64, 64]
000000 42 e2 13 bd 07 3d 79 bd 7a a6 8e bd 74 b7 35 bc
       -0.03610445 -0.060849216 -0.06965347 -0.011091102
000010 1e ad 15 bc 20 ba a0 3d 6e d8 78 3d bc 7b 71 bd
       -0.009135513 0.078480005 0.06075328 -0.058955893
000020 03 51 2f 3d 3d 68 89 bc 58 65 77 3d 12 38 15 bc
       0.04280187 -0.016773337 0.060399383 -0.0091076065
000030 78 98 e3 3d b2 9f 82 3d f1 a4 96 bd fc 0d ca bc
       0.111130655 0.06378116 -0.07355679 -0.024664871
000040 01 c9 33 3d d3 ac b4 bc 48 e2 c4 bb 92 28 a5 bd
       0.043892864 -0.022055065 -0.00600842 -0.08064379
000050 07 a3 9e 3c f6 dc ba 3d 33 1d 91 bd a2 6c 80 bd
       0.019364847 0.09124176 -0.070856474 -0.0627072
000060 d2 69 a4 3d ab 1d d3 3d 63 ae 2d 3d a5 a3 ca bc
       0.08027996 0.10308393 0.042402636 -0.024736235
000070 70 22 6c 3d e6 23 64 3d 1a d2 06 bd fc 90 10 3d
       0.05765003 0.055698298 -0.032915212 0.035294518
000080 17 16 48 3d d0 4e e1 3b fc e1 e3 bb 48 09 92 3c
       0.04884919 0.0068758503 -0.0069544297 0.017826691
000090 9e a2 e3 3c 66 80 5e bd 1c f4 a6 bc 27 af 5e bd
       0.027787503 -0.05432167 -0.020380072 -0.054366257
0000a0 e8 60 c7 ba 63 97 c7 bd 80 a9 af 39 74 c7 92 bd
       -0.0015211375 -0.097456716 0.00033504888 -0.07166949
0000b0 86 94 9f bd 95 04 36 bc 48 31 f6 bc b5 dc 11 be
       -0.077920005 -0.011109491 -0.030052796 -0.1424435
0000c0 5a f8 66 bc 64 6d 77 bc 2b 15 e6 3d e8 0f ec 3d
       -0.014097298 -0.015101764 0.11234506 0.115264714
0000d0 bc a6 ba bb 46 70 96 bd 76 08 1a 3d 6f d4 c9 3d
       -0.005696146 -0.07345633 0.037605725 0.098549716
0000e0 07 a9 b1 bd 50 74 ad bd b4 8e 4b 3d dc 4a 0d bb
       -0.086748175 -0.084694505 0.04969664 -0.0021559512
0000f0 ff c3 33 bd 3f 05 84 3d 08 0a 9e bd 5a 07 5c 3d
       -0.04388809 0.06446313 -0.07716757 0.05371795
000100 b6 5f 1a 3d fc 5a ca ba 57 14 f7 bd 07 f7 27 be
       0.037688933 -0.0015438492 -0.120644264 -0.16402827
000110 00 be 9f 39 4d 61 0b 3e 0a a1 f2 3d e9 32 bc 3c
       0.00030468404 0.13611336 0.11847122 0.022973495
000120 62 11 c3 3c e6 57 55 3d 07 ad 03 bd e6 2f 23 3d
       0.023812 0.05208578 -0.032147434 0.0398406
000130 80 ea 42 3a 78 1b a2 bc 68 df 3a 3b a0 7a dc bc
       0.0007435456 -0.019788489 0.0028514508 -0.02691394
000140 8d ac 8b 3d 04 bf 49 3d d4 26 9c bd 4d 32 26 3d
       0.06820021 0.049254432 -0.076245934 0.040575314
000150 3f a0 70 bc 20 95 8f 3c 9d a2 98 bd 7a d9 91 bd
       -0.014686643 0.017527163 -0.07452891 -0.071215585
000160 dc 52 27 bc e6 53 c5 3d 46 dd 3a bd 70 71 c2 bd
       -0.010212626 0.09635143 -0.04562118 -0.09494293
000170 dc b8 a9 3c 23 30 5c 3d 3f 01 85 3d 93 76 49 3d
       0.02071803 0.053756844 0.06494378 0.049185347
000180 97 23 b0 bd d2 c1 29 3d 87 a3 3d 3d cc 2c 11 3d
       -0.08600538 0.041444607 0.04629853 0.035443112
000190 53 49 04 3d 3e d0 2c 3d c2 bb 8c bd fa 92 cb bd
       0.03229649 0.042190783 -0.068717495 -0.09940143
0001a0 fa 84 f5 bc db 17 83 3d 95 ac 60 3d 64 40 b1 3c
       -0.029970635 0.064010344 0.054852087 0.02163715
0001b0 24 b0 41 bb 38 b6 62 bc 67 ae a3 3c 02 bc 8e 3d
       -0.002955445 -0.01383739 0.019980622 0.069694534
0001c0 76 63 ca bd e2 d4 21 bc 44 11 27 3d e2 78 71 bd
       -0.09882252 -0.009877415 0.04078795 -0.058953173
0001d0 3f cc 4b bc 3e 19 86 3c 70 36 08 be 48 dc 7b 3d
       -0.012438833 0.016369458 -0.13302016 0.061489373
0001e0 e2 90 23 3d b4 cb a9 bc 85 6b 72 bd eb 07 34 3d
       0.039933093 -0.020727016 -0.05918457 0.043952864
0001f0 b0 28 3c 3d 49 40 56 3d dc 43 b6 3b f3 5e 04 3e
       0.04593724 0.0523074 0.0055622887 0.12926845
000200 72 fe 12 bb 4a 66 61 3d 52 7f f9 bc 9e 2b 08 3d
       -0.0022429493 0.05502919 -0.030456219 0.03324472
000210 9b 26 af bd 3a 45 6e 3c c1 08 4e 3d 51 52 aa 3d
       -0.08552285 0.014542872 0.050301317 0.08316482
000220 a4 a5 2f bd 27 02 65 3d ac e1 73 bd 12 9f 6e 3d
       -0.042882577 0.055910256 -0.05954139 0.05825717
000230 46 34 cb 3d 1f 0b 6a bd 55 66 b5 3c 7d 7d e8 bd
       0.0992208 -0.057139512 0.022143522 -0.1135206
000240 c3 49 40 3d 0a 1a e5 3d c1 c6 38 3c ac 82 7f bc
       0.046945345 0.11186607 0.011277855 -0.015595119
000250 2d b7 fd 3d 9b e4 4b bd a0 a2 3d bb 71 49 02 bd
       0.12388454 -0.049778562 -0.0028936043 -0.03180832
000260 3d e7 b3 bd 74 7e ca bb 0c 54 5b bc 9e 3e f3 3c
       -0.087843396 -0.006179625 -0.013386738 0.029692944
000270 fc c9 49 bc 2a de 01 3d 26 88 db 3c 19 3a 8c bd
       -0.012316223 0.031706013 0.02679832 -0.06847019
000280 45 8e 7c 3d a2 b7 17 be 16 a0 e7 bc 3e 72 62 bc
       0.061659116 -0.14816144 -0.028274577 -0.013821183
000290 34 fd de bd 70 aa dd 3d a8 22 e1 bc 4f c8 97 3c
       -0.108881384 0.10823524 -0.027482346 0.018528132
0002a0 7a 67 7b bd 70 5a 29 bd b6 4d d6 3d 56 ca 86 bd
       -0.06137798 -0.041346014 0.10464041 -0.06581561
0002b0 76 59 df bd a2 38 a6 3d 02 e6 67 bd 1f 16 68 bd
       -0.10905735 0.081162706 -0.056615837 -0.05666172
0002c0 5e df 0b bd 72 ef 03 bc b4 98 a3 3c 73 b0 81 bd
       -0.034148566 -0.008052694 0.019970275 -0.06332483
0002d0 a6 ba 7a 3c 8d ae a5 bd bc 73 0b bd 3c fc cb 3c
       0.0153032895 -0.080899335 -0.03404592 0.024900548
0002e0 62 b4 ae bd b5 d3 0e 3e 6f 47 de bc 99 47 99 3d
       -0.08530499 0.13947947 -0.027133672 0.07484359
0002f0 e9 75 e4 bd 6e 31 3b bd 43 c3 9f 3d 9e 1d 88 3c
       -0.11155302 -0.045701437 0.07800915 0.016615685
000300 29 29 a7 3d b1 0c f7 3c d0 c6 66 3c ae eb 46 3c
       0.081621476 0.030157419 0.0140854865 0.012141151
000310 8c 4f 00 bd 5b ba 84 bc b1 58 f4 bd 4c 1c 06 bd
       -0.03132586 -0.016202142 -0.11930979 -0.03274183
000320 04 ac 45 bd ad dd 56 bd 89 62 92 bd 29 10 9d 3b
       -0.04825975 -0.0524575 -0.071477 0.004793186
000330 4e 01 ad bc b4 ec aa 3d 3c dd 07 bd b1 72 96 3d
       -0.021118786 0.08345929 -0.03316997 0.073460944
000340 33 16 2a bd 7b 27 da bd 8d 93 18 3d 9f 25 36 bc
       -0.041525077 -0.106520616 0.03725009 -0.011117368
000350 24 fd a6 3b c2 eb bc bd 8c eb a6 bb 3a ac 78 bd
       0.0050960947 -0.09224655 -0.0050939973 -0.060711123
000360 46 14 52 3d 98 17 2e bd d1 90 eb bc 6a 35 21 bd
       0.051288866 -0.04250297 -0.028755577 -0.03935758
000370 50 9b 95 3d d5 64 c5 3d 80 fc d0 b9 60 79 84 ba
       0.07305014 0.09638373 -0.0003986098 -0.0010106973
000380 90 36 7d 3d ad 5c 86 3d 65 e0 5b bc 62 03 85 bd
       0.061819613 0.06560645 -0.013420199 -0.06494786
000390 64 1e 6f 3d 4f dd ec bc 8f 35 c4 3d 17 e8 4f 3d
       0.058378592 -0.028914122 0.09580528 0.050758447
0003a0 6a f0 48 bd a6 4c 11 3c 9f 08 da 3d 80 df a8 3a
       -0.0490574 0.008868372 0.106461756 0.0012883991
0003b0 3a 40 c1 bd 9b ad a9 bd e6 fa d1 bd f8 f2 2c bd
       -0.09436078 -0.08285066 -0.10252933 -0.0422239
0003c0 c8 3c 91 3b ba c0 ff 3c b0 b0 77 3d 95 c4 d0 bc
       0.0044322945 0.031219829 0.060471237 -0.025484363
0003d0 fd 80 17 3c 2d d1 e6 3d 10 1a 88 bd 59 3a a4 3d
       0.009247062 0.11270366 -0.06645596 0.080189414
0003e0 08 7f 3b 3c 16 b5 d0 bc 9e 14 7c 3d 50 0f 2c 3d
       0.011443861 -0.025476974 0.0615431 0.04200679
0003f0 80 54 91 3b b0 7c 21 bd 4b b2 4c bd b2 70 d7 3c
       0.004435122 -0.039425552 -0.04997472 0.026298855

lstm_cell/MatMul_6 f4 [64, 64]
000000 f3 02 ae bc bd 17 3f bc d3 aa b1 bd c3 7f 3c 3d
       -0.02124164 -0.0116633745 -0.0867516 0.04602028
000010 ef b6 ab 3d 56 e7 2b bc 50 20 ce bc 3a 70 37 3d
       0.08384501 -0.0104921665 -0.025161892 0.044784762
000020 c5 76 3e bd 29 18 be 3c fb 06 05 3e d8 97 23 3d
       -0.046499986 0.02320488 0.12990944 0.03993973
000030 92 43 ec 3c 9e e7 82 3a f8 38 db 3c b9 c2 94 3d
       0.028840814 0.000998724 0.026760563 0.07263703
000040 c6 56 1e 3d 6d d8 29 3c 0a 6f d8 3d 69 78 64 bd
       0.038656972 0.010366541 0.10568054 -0.055778895
000050 e4 08 3f 3d 44 e5 d2 bd 1b 14 48 bd 5a 89 11 bd
       0.046639338 -0.10297635 -0.0488473 -0.03553138
000060 a6 91 7a 3d da b1 25 3d 0f 93 0b 3e a6 b2 1d 3c
       0.061174057 0.040452816 0.13630317 0.009625113
000070 e3 db a4 bd 6a 59 4f bd f4 bc fb bd ea c4 42 bd
       -0.080497526 -0.05062238 -0.12291899 -0.047551073
000080 76 81 63 bd bd 44 ba 3d 6f 2f b3 bd 40 4e 15 3d
       -0.055543385 0.09095142 -0.087492816 0.03645158
000090 23 92 66 bd 44 55 51 3d f6 1a 73 bc aa 56 23 bd
       -0.05629171 0.051106706 -0.014837971 -0.03987757
0000a0 fb 35 d8 3c 4c 43 08 3e 5e 35 74 3d a3 31 b9 bd
       0.026392927 0.13306922 0.059621207 -0.090426706
0000b0 0f 83 ab bc 18 80 3e bd 5c 71 26 3d 76 35 3c bc
       -0.020936517 -0.04650888 0.04063545 -0.011487355
0000c0 b7 0e 34 3c 48 0a b6 3d 20 d9 5a 3c 74 06 08 3b
       0.010989836 0.0888868 0.013357431 0.00207558
0000d0 50 b8 d0 3c 3c 87 ab bd 94 86 27 3d 1e cf 90 3d
       0.025478512 -0.08375403 0.040899828 0.070707545
0000e0 ef 01 b9 bc f9 ae 1e bd 1e 44 24 bd 96 4e c5 bc
       -0.02258393 -0.038741086 -0.040104024 -0.024085324
0000f0 62 38 01 bd 74 eb 11 bd 3f 8f 8d bc e0 7b a9 3b
       -0.03154791 -0.035624936 -0.01728022 0.0051722378
000100 cf d1 24 3c d7 d4 51 bc e2 d3 4f bd 51 ea fe 3d
       0.010059788 -0.012807093 -0.050739177 0.12447036
000110 fe 4f e1 bd 15 ad 93 bc 47 44 03 bc e6 1a 81 3d
       -0.110015854 -0.018026868 -0.008011884 0.063039586
000120 9b 19 36 bd 09 68 a0 bd a8 aa be bd 97 ed d6 bd
       -0.044458013 -0.07832343 -0.09309894 -0.104945354
000130 75 68 29 bd 2f a4 f4 3d f2 6e 6a bd 06 3b 04 bd
       -0.041359384 0.11945378 -0.057234712 -0.03228285
000140 c0 f0 e3 b9 00 96 03 bd 2f d3 df 3c 45 5b e9 bc
       -0.00043476187 -0.032125473 0.02732238 -0.028485904
000150 5e 56 c0 3c 0c 26 36 3c 90 89 b4 bc 17 e4 32 3d
       0.023478683 0.0111174695 -0.022038251 0.043674555
000160 62 89 8e 3d 3b 55 ed bd 68 25 35 bd 45 1f 1a 3d
       0.069597974 -0.11588522 -0.044225127 0.037627477
000170 20 4a b5 3b 95 7f c5 3d b4 e1 46 bc 9a ae f2 3c
       0.005532518 0.09643475 -0.012138773 0.029624272
000180 76 b3 1c 3c d0 6d a5 bc 28 7c 51 bd 6f ab 1e be
       0.009564271 -0.020193964 -0.051143795 -0.15495084
000190 07 01 8b bc 0c a7 3a 3d 24 3d e4 3a 4b 73 c6 bc
       -0.016968263 0.045569465 0.0017413241 -0.024224898
0001a0 b0 a3 80 3d 59 dc 15 bd 78 1a 7e 3d 27 97 83 bd
       0.06281221 -0.036587093 0.06203696 -0.064253144
0001b0 a7 79 c4 3c 46 53 0d bd 94 ff 2f 3d 47 af 21 be
       0.02398379 -0.034503244 0.042968348 -0.15789519
0001c0 18 e0 c9 3b 3b eb f1 bd 4e 56 43 bd 52 79 eb 3c
       0.0061607473 -0.11812445 -0.04768973 0.028744373
0001d0 8c e2 7a bc 46 0e eb 3c a0 34 fb bd 1e 0b 42 3d
       -0.015312802 0.02869333 -0.12265897 0.047373883
0001e0 6c b7 c8 3d 76 52 52 3d 94 3a ec bd 5a 95 6a 3d
       0.0980061 0.051348172 -0.115346104 0.05727134
0001f0 26 8a 7a 3c 31 8d 11 bc 56 18 c8 3d 6e 64 e1 3c
       0.015291726 -0.00888376 0.09770267 0.027513709
000200 f2 d5 ab 3d 55 28 fd 3d 2a 0d e8 3b f0 36 7a bd
       0.08390416 0.12361208 0.0070816474 -0.06108755
000210 55 09 de 3c 7d e3 36 3d 29 3f 29 bd 7b 0d 56 bd
       0.02710406 0.044650543 -0.04132 -0.05225895
000220 53 57 ef bc 6d 24 2c bd 0c 27 4c 3d 97 f0 fb bd
       -0.029216444 -0.042026926 0.049841926 -0.12301748
000230 98 9a 41 3b 04 a9 de bd 58 c7 8f bd b8 d8 01 3d
       0.0029541608 -0.10872081 -0.07020444 0.03170082
000240 ba 39 0d 3d 3c 0e b9 3d 06 df 59 bc d7 18 a4 bd
       0.03447888 0.09035918 -0.013297802 -0.0801255
000250 14 4a 90 3d b5 20 47 bc 40 61 8c 3c b6 c2 1d bc
       0.07045379 -0.012153794 0.017136216 -0.009628942
000260 e9 e6 8f bc 78 09 5e bc d2 fb 2f 3c c8 fb bc 3d
       -0.017566161 -0.013552062 0.010741191 0.09227711
000270 00 34 52 3d 5c 58 46 bc 61 af 47 3c 3a f9 e9 3c
       0.051319122 -0.012106027 0.01218781 0.028561223
000280 d0 7c 63 bd 6f 56 10 3d d6 7b 3e 3d 91 0b 81 bb
       -0.055538952 0.03523868 0.046504818 -0.0039381464
000290 44 05 62 bb fe e8 fe 3c 7a 69 bf 3d 4c 04 e2 bd
       -0.0034488002 0.031116959 0.0934629 -0.11035976
0002a0 d6 88 c1 3d 84 92 87 bd 5e 4e ce 3c 51 23 6d 3d
       0.094499275 -0.066197425 0.025183853 0.05789501
0002b0 18 a1 35 3d 2e 1f a2 3c 35 ba 1f 3c 2c e5 80 bd
       0.044343084 0.019790258 0.009748985 -0.06293711
0002c0 14 bf 21 3d 4b 86 89 3d e1 54 ae bb 64 e5 ad 3d
       0.039488867 0.067150675 -0.005320177 0.084910184
0002d0 ea 77 76 bc 71 80 98 bd 7b a2 b1 bd c4 1a 89 bd
       -0.015043238 -0.07446373 -0.08673569 -0.06694558
0002e0 e2 3e c4 bc 42 83 05 3d 0c 42 56 3c d7 81 63 3d
       -0.023955766 0.03259588 0.01307727 0.055543747
0002f0 00 1b 96 3d 3a bb 92 bd 99 d6 88 3c e6 f5 46 3d
       0.073293686 -0.07164617 0.01670389 0.04857435
000300 95 58 91 3d d9 8b b8 b9 f6 1e ca bd 2f 18 7a bd
       0.07096974 -0.0003519941 -0.098691866 -0.06105822
000310 2e 34 bf bc c4 a3 6e 3d cb ae 42 3d c8 d4 fb ba
       -0.02334031 0.058261648 0.047529977 -0.0019213194
000320 89 c5 f6 bc 9a 95 2e 3c 1e bb b6 3c 59 1e dd 3c
       -0.030123489 0.010655785 0.022306021 0.02699201
000330 ad aa 71 3d 32 cb ab bd 4c 15 cd 3b 53 88 69 bd
       0.05900066 -0.08388366 0.0062586423 -0.057014775
000340 76 c3 14 3d d5 55 47 bc 0d 51 1f 3d 67 9c 73 3d
       0.03631922 -0.01216646 0.038895655 0.05947533
000350 9b a0 0e 3d 4b 9a 4e 3d 22 58 a5 bc 9a bd 96 bc
       0.034821134 0.050440114 -0.020183627 -0.018400956
000360 bf 7d ad 3d dc 06 d6 3b da 2b 30 3e 5f 59 59 3d
       0.0847125 0.0065315794 0.17204228 0.053063747
000370 99 59 67 3d 32 92 41 bd 82 6c 32 3d 15 a3 81 3d
       0.05648193 -0.047258563 0.043560512 0.063299336
000380 6c 3d 54 bd 46 21 49 bc 7c 2b cb 3b 38 2b 2f bb
       -0.05181639 -0.012275999 0.006200252 -0.0026728641
000390 da 4b e7 bc 05 d5 1a 3d 38 f5 34 bb 64 57 d1 bd
       -0.028234411 0.037800808 -0.0027611982 -0.102217466
0003a0 85 d3 40 3d 32 a8 c0 bd 68 d3 4b bd d4 ab 7a bc
       0.04707672 -0.09407081 -0.04976216 -0.015299756
0003b0 66 ae 6c 3c a9 55 49 be fc 2b 1b 3d 7a 6d 9f 3c
       0.014445877 -0.19661583 0.037883744 0.019461382
0003c0 bc aa 29 bc ef 5c 64 bd 9c 31 a6 3d 54 6d 56 3c
       -0.010355648 -0.05575269 0.08114931 0.013087589
0003d0 f8 cf 9e bd 50 a5 90 3d ea 65 62 3d a1 be 13 bd
       -0.07754511 0.07062781 0.055272974 -0.03607047
0003e0 e0 81 84 ba a7 23 40 bd 51 7f cc 3d 6a be 30 3d
       -0.0010109507 -0.046909 0.09985221 0.043150343
0003f0 e0 8f 1e 3b 68 6c 64 bd ad 38 cd 3d 94 55 0d bd
       0.0024194643 -0.055767447 0.10020576 -0.03450544

lstm_cell/MatMul_7 f4 [64, 64]
000000 04 a7 5a bd 72 2c 0d bc ec 3e 25 bb a7 17 5a bd
       -0.053381935 -0.008616554 -0.0025214506 -0.053245213
000010 ae c2 b4 3d 79 53 1d 3d 86 a0 26 3d d9 85 a4 bd
       0.08826195 0.038409684 0.04068043 -0.08033342
000020 12 f2 a1 3d f7 1d 8f bd 8f b8 04 3d a6 ce 4b 3a
       0.079074994 -0.06988137 0.03240257 0.00077746285
000030 53 f8 01 3d b6 6d a6 bd 24 4e 94 bb 03 99 f0 bc
       0.03173096 -0.081263945 -0.0045259167 -0.029369837
000040 f6 81 72 3d 4c 77 81 bd 99 4f a2 bd 5b 43 87 bd
       0.05920597 -0.06321582 -0.07925338 -0.06604644
000050 de d1 94 3d 74 57 39 bc c2 f1 09 bd b3 47 83 bd
       0.072665915 -0.011312354 -0.033677824 -0.0641016
000060 9e 1f 95 3d de 8d 37 bd 2e 88 ec 3d 9b e8 82 3d
       0.07281421 -0.04481303 0.11549412 0.06392022
000070 ec 50 3a 3d b3 ed 8f bd 32 e3 91 3d 37 a7 96 bd
       0.04548733 -0.070277594 0.07123412 -0.073561125
000080 48 88 fb 3d e5 f2 54 3d 1c a4 9b 3b 55 1d 0f be
       0.12281853 0.051989455 0.004749788 -0.13976033
000090 c2 ee b7 bd 31 fb 49 bd 6f 2c 9e 3d f3 fd af 3c
       -0.08981086 -0.04931182 0.07723319 0.021483397
0000a0 ff 67 09 3d f5 cd aa 3d e9 3d 61 3d 7d de 4c bd
       0.033546444 0.083400644 0.054990683 -0.05001687
0000b0 cc e3 3c bd 80 24 35 3c 1e c8 0c bc e8 8c 6e bd
       -0.04611568 0.011056066 -0.0085926335 -0.058239847
0000c0 28 6d 2d bd b0 02 c4 bc f0 2b d6 bc 7c 95 67 bd
       -0.042340428 -0.023927063 -0.026143998 -0.056539044
0000d0 ce ec e5 bc 04 71 96 bd 4c 27 bf 3c 7b 8d 4d bd
       -0.028067019 -0.07345775 0.023334168 -0.050183754
0000e0 58 91 7c 3d ea d9 9b 3d 1f e2 d6 3c 84 4b 0c be
       0.061662048 0.07609923 0.02623087 -0.13700682
0000f0 3c 93 ee bc 47 ab 8e 3c 02 fc 88 bd 41 da 1d be
       -0.029122941 0.017415656 -0.06688692 -0.15415289
000100 e1 ff 33 3d fd 2e c6 3d 7d 49 3d bc 62 da 88 3b
       0.043945197 0.09676931 -0.0115531655 0.004176424
000110 0f 9b 29 bd 63 63 0e 3e 58 27 71 3d 56 35 06 3d
       -0.04140764 0.139051 0.05887541 0.03276571
000120 65 f2 94 bd dd 6f 04 3d 2f e6 3b be 10 e2 a0 bd
       -0.072727956 0.032333244 -0.18349527 -0.07855618
000130 c8 8c aa 3c 7a c4 ac bd 74 32 69 3c 5c 5e c1 bd
       0.020819083 -0.084359124 0.01423322 -0.09441826
000140 02 60 bd bc 30 11 fb 3a 36 dc 2f bd 3f f6 42 bd
       -0.02311707 0.0019154903 -0.04293462 -0.04759812
000150 b5 25 f8 bc bc 63 0c 3e 0c 2d 37 bb aa 94 3f 3c
       -0.030291418 0.1370992 -0.0027950434 0.011693159
000160 8d 8e 88 3d a6 9a 76 bd 7a 54 40 3d c2 88 97 bd
       0.066678144 -0.060206078 0.046955563 -0.07399131
000170 91 d1 a5 3c 94 96 17 bd f6 33 83 3c 00 3a af b9
       0.02024153 -0.037008837 0.016015988 -0.00033421814
000180 ee ed 11 bd 44 14 0b bd ec 82 6e bc 0f 85 0e bd
       -0.035627298 -0.033954874 -0.014557581 -0.034794863
000190 5c 1c b3 3b fa df 03 3d a4 13 24 bd ba 48 52 bd
       0.005466027 0.032196023 -0.040057793 -0.05133889
0001a0 a6 49 4d 3d 01 45 09 3d f4 f3 82 3d d7 ac ee 3c
       0.050119065 0.033513073 0.063941866 0.02913515
0001b0 52 06 e2 bb a4 35 81 3d 57 e7 81 3d 55 d3 62 bd
       -0.006897726 0.06309059 0.06342953 -0.055377323
0001c0 87 9e 0d 3e c0 e5 a7 3d 88 16 16 bb ad 5c ec 3d
       0.13830005 0.08198118 -0.0022901613 0.11541114
0001d0 cc 41 8d 3d 2d b4 c3 bd 1c b0 d5 bc 6a d9 7e 3d
       0.068973154 -0.0955585 -0.026084952 0.06221906
0001e0 9b 6d 15 3d 62 b8 9a bd 63 51 c8 bc 8a 6d 91 bc
       0.03648148 -0.075546995 -0.02445287 -0.017752428
0001f0 61 93 36 be c7 0b c6 bd 80 54 3d bd 97 04 9e bd
       -0.17829658 -0.09670215 -0.046223164 -0.07715719
000200 e8 00 ad 3c df 42 b0 bc e7 88 d1 bc 4d 23 89 bc
       0.021118596 -0.021516262 -0.025577975 -0.016740466
000210 f2 c8 4b bd 20 d7 cd 3a dc 87 e5 3d 6e cc e5 bc
       -0.049752183 0.0015704371 0.11207554 -0.028051581
000220 1f 1d 18 3e c6 2c e6 3d c6 ea aa bd 7e 84 2f bc
       0.14854859 0.112390086 -0.08345561 -0.010712741
000230 07 e2 63 bc f0 79 70 bc 18 f7 8f bb fe 4e 3a 3d
       -0.01390887 -0.01467751 -0.0043934695 0.04548549
000240 c2 6a 03 3e 10 d3 55 3d a0 ef 9c ba aa a3 dd 3b
       0.12833694 0.052203238 -0.0011973269 0.006763895
000250 ae 5f 0d bb 30 fb ab bc f8 0b 99 bc e8 a9 8b bc
       -0.0021571922 -0.020993799 -0.018682465 -0.017048791
000260 cd f1 b3 bd 73 30 2b bd 74 f9 62 3d 9c 90 90 bd
       -0.08786354 -0.04179425 0.05541368 -0.07058832
000270 74 97 ae bb be 18 18 bd 7e 83 95 bc ef 7b 3c bd
       -0.005328113 -0.03713297 -0.018251177 -0.04601663
000280 c6 81 b5 3c 90 58 89 3b 3d da 23 3d 44 5e 55 3c
       0.022156607 0.0041914657 0.04000305 0.013022963
000290 c9 d7 1b 3d 98 ec ec 3d 80 6f aa 3a 40 d2 8f bd
       0.038047586 0.11568564 0.00130032 -0.07022524
0002a0 4f 52 2e bd c2 c5 db 3c 57 ec 88 3d dd 9a 60 bd
       -0.042558964 0.026827697 0.06685703 -0.05483519
0002b0 ca 67 bd 3d d7 a3 57 bc 9b 53 33 bd c3 0e 47 bd
       0.09248312 -0.013161621 -0.043780904 -0.048598062
0002c0 0c 85 f2 bc 07 21 a4 3d be 32 2d bd de 1b a3 bd
       -0.029604457 0.08014112 -0.04228472 -0.079642996
0002d0 87 54 dc 3d 22 c8 f4 3c ba 8e 51 bd 4c 00 67 3d
       0.1075831 0.029880587 -0.051161505 0.056396767
0002e0 78 db 31 3c 16 a0 70 bc 96 80 80 3b 72 c6 16 be
       0.010855548 -0.014686605 0.0039215786 -0.14724138
0002f0 9b 0b df bc 9c 89 f2 3c 97 c5 46 bd ea 98 00 be
       -0.027227214 0.029606633 -0.04852828 -0.12558332
000300 da 0f 9f 3d af 70 88 3c 45 9f a1 bd f3 67 5d bd
       0.07766695 0.016655294 -0.078917064 -0.05405421
000310 96 83 90 bd 70 fb f2 bc 6b b0 0b bc 62 f5 1b 3c
       -0.07056348 -0.02966091 -0.008525948 0.009518953
000320 1c d9 a2 bc 55 80 69 bd 4c 80 67 bd 24 d1 20 3b
       -0.019878916 -0.057007153 -0.056518838 0.002453872
000330 88 e8 5f bd b3 0b b2 3c e0 19 fe bd 25 cc f3 bc
       -0.05466512 0.021734094 -0.12407279 -0.02976043
000340 ba 4a 84 3d 12 dd 23 bd 7c 77 da 3d dc 29 a8 bd
       0.064595655 -0.04000575 0.10667321 -0.08211109
000350 41 fe ac bd 24 45 c1 3d f6 da 40 bd 80 91 9b 39
       -0.084469326 0.09437016 -0.047083817 0.0002967231
000360 3c 2a 32 bd 3c 13 43 bc c6 6c e4 3d 2a 50 34 3d
       -0.04349731 -0.011906441 0.111535594 0.044021763
000370 9c 74 af 3d dc 74 07 bd 1c 54 ea bc f0 fb 8c 3b
       0.08567163 -0.03307043 -0.02860456 0.004302494
000380 4d 2f 45 3c 4c da 7c bc 28 2c 8c 3d 76 8b 9a bd
       0.012035203 -0.015432905 0.0684436 -0.07546131
000390 c1 60 5a bc e1 19 a6 bc 20 7a 39 3b 8b 29 b6 3d
       -0.013328732 -0.020276012 0.0028301552 0.088946424
0003a0 d9 09 f2 bc 7d dc fb 3c da fa fd bc d6 69 8f bd
       -0.029545711 0.030744785 -0.031003404 -0.070026085
0003b0 a7 8e 29 3d df 4d f7 bb 97 25 04 3e 9a 52 c7 3d
       0.04139581 -0.0075471248 0.12904964 0.09732552
0003c0 f6 4f 8f bd b4 8a 0b 3d 08 3c 82 ba 21 4a e8 3c
       -0.06997673 0.034067824 -0.0009936104 0.02835566
0003d0 60 7a 15 3d 12 e1 b4 3c b8 6e 09 bc 99 73 e1 3c
       0.03649366 0.022079978 -0.008388214 0.027520942
0003e0 42 2a a4 3d cc 88 dd bc 9a f2 af 3d dc 42 18 3d
       0.080158725 -0.027042769 0.085911945 0.037173137
0003f0 f0 ac 3e 3d 68 ac d8 bc 90 1e d8 3c 2e 92 1f 3e
       0.046551645 -0.026449397 0.02638176 0.15583107

lstm_cell/split_1 f4 [64]
000000 a5 ae b1 3d 81 cc 07 3e 90 ce bb 3d e1 0c ef 3d
       0.08675889 0.13261606 0.09170258 0.11672378
000010 b9 2c e4 3d 98 9c f1 3d 85 e4 dc 3d 16 d3 ec 3d
       0.11141343 0.11797446 0.10785774 0.11563699
000020 49 11 b0 3d 15 85 94 3d bb 8c b0 3d 81 07 ed 3d
       0.08597047 0.07251946 0.08620592 0.11573697
000030 cc 10 ac 3d 3d 3b 93 3d d3 88 cf 3d e8 10 e8 3d
       0.08401641 0.07189033 0.10133519 0.113313496
000040 37 74 07 3e 70 43 d6 3d 68 63 aa 3d b6 82 d1 3d
       0.13227926 0.104620814 0.083197415 0.10230009
000050 b2 97 e5 3d 8e cc 99 3d c4 ca 17 3e 1a d3 ca 3d
       0.11210574 0.07509719 0.14823443 0.09903546
000060 2f bc bc 3d 3c 68 58 3d 22 da cb 3d c0 5c ad 3d
       0.09215581 0.05283378 0.09953715 0.08464956
000070 22 48 d9 3d 2b d0 d5 3d bd 7c d8 3d cf 19 b9 3d
       0.10609461 0.104400955 0.10570667 0.09038126
000080 a4 6b d2 3d 2f ab c9 3d 43 e6 d8 3d 73 8b ae 3d
       0.10274437 0.09847104 0.10590794 0.085226916
000090 2c 38 e7 3d 13 fa 0d 3e d7 49 b6 3d c0 12 e9 3d
       0.11290011 0.13864927 0.089008026 0.113805294
0000a0 18 88 97 3d 5e 4e d8 3d 2b c8 a4 3d d2 36 ab 3d
       0.07399005 0.10561822 0.080459915 0.083600655
0000b0 8a 56 99 3d 10 a8 a3 3d b5 86 82 3d ab 0f b4 3d
       0.07487209 0.0799104 0.063733496 0.08792051
0000c0 dd b2 a8 3d 2e 33 c7 3d 89 f7 6a 3d c1 19 c3 3d
       0.082372405 0.097265586 0.057364974 0.095263965
0000d0 ee 0a e3 bc 27 3d 9e 3d b8 22 e2 3d 5e cf dc 3d
       -0.027715173 0.07726508 0.11041778 0.1078174
0000e0 ff 48 eb 3d b7 ad ee 3d ba 07 a5 3d cc 45 c0 3d
       0.11488532 0.11654227 0.08058114 0.09388313
0000f0 37 4f 1b 3e ea 7e ca 3d 1a 76 b5 3d b6 1f b8 3d
       0.15166937 0.09887488 0.08860417 0.089904234

lstm_cell/split_11 f4 [64]
000000 dd b3 87 3d 57 c6 fd bd 16 2f 4f bd 25 ca 7d 3c
       0.06626103 -0.12391346 -0.050582014 0.01549009
000010 dc 0c 81 3a fe 22 8e 3c a2 f3 b8 3c 07 f6 0d bb
       0.0009845751 0.01735067 0.02257711 -0.0021661536
000020 ce 90 b3 3d db b9 40 bd 6f 52 d0 3c 38 dd f3 3d
       0.08767854 -0.047052246 0.025429932 0.119074285
000030 32 ad 1e bc 52 f4 1b bd e2 66 2d 3b 94 2c d4 3d
       -0.009684848 -0.0380748 0.0026459028 0.10360065
000040 2d ba dc 3c 44 4a 99 3a 38 8d ab 3d bf 56 8c 3d
       0.026944244 0.0011695107 0.08376545 0.06852483
000050 60 bf 9f 3c 75 a5 80 3c 85 c0 0c be dd 6e c2 bd
       0.019500434 0.015703896 -0.13745315 -0.09493802
000060 35 0b d9 3c cd a6 94 3b 0c e2 82 3d f2 0a fc 3b
       0.026494602 0.0045364858 0.06390771 0.0076917345
000070 ec 78 95 bb 3c 2d 11 3d 3a af 77 3b 01 a7 42 ba
       -0.004561534 0.03544353 0.0037793652 -0.0007425398
000080 66 fb 05 bd de 2f 91 3d 34 40 4a 3d 90 15 7e bd
       -0.032710455 0.07089208 0.049377635 -0.062032282
000090 96 52 0a 3e 38 12 10 be 4b 60 9f bc bd 30 32 bd
       0.13508067 -0.1406945 -0.019455096 -0.04350351
0000a0 91 c5 fc 3b 36 63 65 3d 5d bf 0d bd ab de 13 3d
       0.0077139814 0.056002818 -0.034606326 0.036101025
0000b0 e3 38 e5 bc 19 6f 82 3d f4 99 27 3d 37 a0 32 3d
       -0.027981227 0.063688464 0.040918306 0.043609824
0000c0 13 0f ef bc e7 78 29 3d d5 5b 8d bc 1b c2 bd 3d
       -0.029181993 0.041375067 -0.017255703 0.09265538
0000d0 e0 86 27 3d 3e 8c 9c bd b6 06 99 bd c2 11 23 3d
       0.04090011 -0.076439366 -0.07471983 0.039811857
0000e0 38 b9 36 3d 8f 86 0a be c2 fb 6c bd 35 4d 8a 3d
       0.044610232 -0.13527893 -0.057857282 0.06753007
0000f0 f5 82 24 be d7 cd c6 bb 16 a7 27 bd 00 64 9c 3c
       -0.16065581 -0.0060670185 -0.04093083 0.019090652

lstm_cell/split_12 f4 [64]
000000 c9 d3 ad 3d 16 92 08 3e 85 db c2 3d 73 37 f5 3d
       0.084876604 0.13336977 0.09514526 0.11973467
000010 25 24 dd 3d b6 4f d0 3d e0 11 db 3d ff b6 ec 3d
       0.1079791 0.10171454 0.10696769 0.11558341
000020 d2 53 b9 3d 23 aa 90 3d 40 b1 ba 3d 68 55 ea 3d
       0.090491906 0.07063701 0.09115839 0.11442071
000030 98 28 b6 3d 46 bf 90 3d 4a d1 c7 3d 69 61 d8 3d
       0.088944614 0.070677325 0.097567156 0.105654545
000040 4c 31 04 3e 23 81 d5 3d 17 ea aa 3d c5 92 dd 3d
       0.1290943 0.104250215 0.0834543 0.1081901
000050 d2 0f e0 3d b2 6d 99 3d 63 66 16 3e 36 f8 ad 3d
       0.109405175 0.07491626 0.14687495 0.08494608
000060 5e eb bb 3d c8 33 74 3d e8 e6 af 3d f7 d9 be 3d
       0.09175752 0.059619695 0.08588964 0.09318917
000070 fd db d3 3d 11 79 da 3d 6d 87 d7 3d 03 cd b1 3d
       0.10344694 0.10667623 0.10523877 0.08681681
000080 2a 98 c1 3d be c4 ba 3d 2d 38 df 3d fe 4c ac 3d
       0.09452851 0.09119557 0.108993866 0.084131226
000090 37 e4 f9 3d 9f 5a 0e 3e 14 a8 b7 3d 7a 58 e7 3d
       0.12201732 0.13901757 0.08967605 0.112961724
0000a0 51 f8 a5 3d e2 1a d7 3d a9 f5 9b 3d c4 82 b0 3d
       0.08104003 0.10503174 0.07615215 0.086186916
0000b0 ed ce b0 3d b7 a4 9f 3d 50 b6 64 3d 4b e0 99 3d
       0.08633218 0.07795089 0.05583793 0.075134836
0000c0 7c 05 ab 3d 93 fb c3 3d 11 43 73 3d 72 eb c6 3d
       0.083506554 0.09569468 0.05939013 0.097128764
0000d0 1c 31 f5 bc 24 bb 9c 3d b5 86 e6 3d 2f 02 e4 3d
       -0.029930644 0.07652882 0.11256162 0.11133229
0000e0 27 23 e7 3d 92 19 ee 3d 32 bf a2 3d f2 58 c1 3d
       0.11286002 0.11625971 0.07946624 0.09440793
0000f0 7a 07 1c 3e 4c fb d0 3d 86 69 bd 3d 1a 9b a7 3d
       0.15237227 0.10204181 0.092486426 0.0818388

lstm_cell/MatMul f4 [64, 122]
000000 4b 65 eb bd a2 34 02 bd 20 80 3a 3e 99 25 59 3c
       -0.114939295 -0.031788476 0.18212938 0.013253593
000010 85 fd 19 3e c0 90 1a be 6b 1d ea 3d 1c 75 f2 3d
       0.15038116 -0.1509428 0.11431392 0.11838743
000020 4a 73 90 3c 3d 17 3e bd 58 b2 f9 3c 47 46 21 3e
       0.0176331 -0.04640888 0.030480549 0.15749465
000030 b4 78 d5 3c a7 a7 5a 3c a2 98 b6 3d 50 1a 9c bd
       0.026058532 0.0133456355 0.08915831 -0.07622206
000040 48 eb 56 bd 59 b9 29 3e d4 3e 67 bd ce 23 0c be
       -0.052470475 0.16574611 -0.056456402 -0.13685533
000050 61 dd 98 3d 37 1f 98 bd a7 6a 95 3d 15 3a 8c 3d
       0.074641 -0.07427829 0.07295733 0.06847016
000060 ed e6 b3 bd 7b ad 2e 3d 8e e7 8a 3d f1 da ae 3d
       -0.0878428 0.042645913 0.06782447 0.085378535
000070 16 fc bf 3d 12 79 d0 bd 8b e7 82 bd 5e 3b a4 3d
       0.093742535 -0.10179342 -0.063918196 0.08019136
000080 e5 4f 99 3d 7e 90 8e 3d 95 2e f5 bd fa 2f 51 bc
       0.07485942 0.069611534 -0.119717754 -0.012767786
000090 1e df af bc 2f cb b6 3d 31 8e 8d bd 79 65 26 3e
       -0.021468695 0.08925473 -0.069118865 0.16249646
0000a0 ba 82 06 bd 5c a3 de bc bb f4 1d 3d ea 70 49 3d
       -0.032839514 -0.027177505 0.03856347 0.04917995
0000b0 ea 49 b8 bb 9e df 2e 3d 2d 87 05 3c 6e e1 d1 3d
       -0.0056240456 0.042693727 0.008149904 0.102480754
0000c0 84 7c cc 3d 6f 0f da bd 2d ef 15 bc f1 29 00 3b
       0.09984687 -0.10647475 -0.009151262 0.001955625
0000d0 67 9b 30 bd 87 8d b7 3b e8 e3 9c 3c 59 a7 dc 3d
       -0.043116953 0.005601588 0.019151643 0.107741065
0000e0 46 ec fc 3d 28 a2 87 3d d8 98 0d bd 91 41 24 3c
       0.12349753 0.06622726 -0.03456959 0.010025398
0000f0 f9 bd c2 bd 4d 88 83 bd b4 b3 30 bd 2a 3a 30 bd
       -0.09508891 -0.06422482 -0.04314013 -0.04302422
000100 6f 4c cb 3b 78 ab 19 3d 3b fc 70 bc 43 36 b5 3d
       0.00620418 0.03751704 -0.014708574 0.0884824
000110 1c 27 27 bd 28 fa 26 3d 8e 93 19 3e 4d 8e f2 3c
       -0.040808782 0.04076591 0.14997694 0.02960887
000120 bc 3d af 3d 5f 2b db bc 89 53 42 3d ea 2f 1f 3d
       0.08556697 -0.02675408 0.047442947 0.038864054
000130 49 79 9c bd 42 1b d1 bb 47 ea 3b 3d ea e6 2c 3d
       -0.07640321 -0.006381423 0.04587772 0.042212404
000140 29 93 1a 3e 05 3f 04 bd b5 78 f7 3c ae 06 2d 3d
       0.150952 -0.032286663 0.030208925 0.0422427
000150 fe 36 3e 3d d7 aa 55 3d 2b 10 03 3e aa 2c b5 bd
       0.046439163 0.05216488 0.12799136 -0.088464096
000160 93 e9 fe 3c 7f ff ce 3d 7f ef 46 bd 7f bf 03 bd
       0.031117236 0.10107326 -0.048568245 -0.032165047
000170 df 47 91 3d 13 96 d3 3d ed 6b 12 3e b7 fe 86 bc
       0.070937864 0.10331359 0.14298983 -0.01647888
000180 13 e2 9c bb cf 21 13 3e 61 94 af bd e5 7c 17 bd
       -0.0047876923 0.14368366 -0.08573223 -0.036984343
000190 57 43 bf 3d d7 46 30 3e 43 29 d9 bc e2 ce 0e 3e
       0.09339016 0.17214523 -0.026508933 0.13946107
0001a0 5d 6d 2e 3d 35 83 65 3c 19 6c ae 3d 66 a2 93 bc
       0.042584766 0.014008333 0.08516712 -0.018021774
0001b0 ef 18 ea 3d d8 75 da bc a5 5d ee 3c 2c df 82 3d
       0.11430537 -0.02666752 0.029097388 0.06390223
0001c0 ef 01 12 3e 7b 20 f1 3d 39 7f 3a 3d 45 6b 55 bd
       0.1425855 0.11773773 0.045531485 -0.052104253
0001d0 2f f2 a9 3d 02 7f fa 3d 23 ad 27 3d 8e 65 ea 3d
       0.08298146 0.12231256 0.0409366 0.11445151
0001e0 8b e8 49 bd 93 94 0a bd d0 98 f4 3b 63 b8 fd 3d
       -0.049294036 -0.033833098 0.0074645057 0.123886846
0001f0 4e 30 a3 3d 03 6f 3e 3c 59 75 12 3e 40 fd 81 bd
       0.07968198 0.011623147 0.14302577 -0.06347132
000200 a0 05 24 3e 0b ce 9e 3d 9e b8 88 3d 81 26 9d 3d
       0.16017771 0.07754143 0.06675838 0.0767336
000210 44 f3 8a 3d 25 8c 36 3e 59 2c d1 3c 41 f2 27 bd
       0.067846805 0.17826898 0.025533842 -0.041002516
000220 b9 9f 15 3d 87 4c 97 3d 27 6c 0f 3d c5 ba b1 3d
       0.036529277 0.07387643 0.03501525 0.086782016
000230 a2 02 29 3e 28 8c c8 3d 21 a6 f8 bc 18 ae 0b bd
       0.1650491 0.09792358 -0.030352654 -0.034101576
000240 9a ad 37 3d 86 e6 0f 3e 4b 57 a7 3d 93 3f 21 3e
       0.044843294 0.14052781 0.08170947 0.15746908
000250 94 f1 24 3e 91 96 90 3d e7 79 04 3d 72 25 d5 bc
       0.1610778 0.07059968 0.032342818 -0.026018832
000260 91 34 fd 3d bf c3 1e 3e b7 5d 05 3e 83 f6 31 bd
       0.12363542 0.15504359 0.1302403 -0.043447983
000270 b2 73 b3 bc a7 1a 28 3e fa 02 90 3d 38 f1 1b 3e
       -0.021905754 0.16416417 0.07031818 0.15228736
000280 47 9f 31 3d fb e8 ac 3d 1f 1c 03 3e 36 e6 df 3d
       0.04336479 0.08442875 0.12803696 0.10932581
000290 40 36 be 3d 24 13 f4 3b 8b 3c f0 3d 93 55 f4 bc
       0.09287691 0.007448571 0.11730298 -0.029825961
0002a0 c7 45 f7 3c 1c 75 0d bc a0 0b f8 bb a3 2d 4d 3c
       0.03018464 -0.008633878 -0.007569745 0.012523088
0002b0 72 bf 99 3d e4 79 1b 3d 27 72 3b 3b 52 bb dd 3d
       0.075072184 0.03795804 0.0028601976 0.10826744
0002c0 46 db 9c 3d dc 11 98 3d 8e f6 81 3d 29 ad a1 bd
       0.076590106 0.074252814 0.06345855 -0.07894356
0002d0 e9 01 a9 3d d3 a3 0e 3e 5f 1c de 3c 27 37 39 3e
       0.082523175 0.13929681 0.027113138 0.18087445
0002e0 b6 85 08 3e b8 7e b2 3d d5 bb ab 3c 5b 97 07 3e
       0.13332257 0.08715576 0.020963589 0.13241331
0002f0 c5 29 47 3e bc 19 e8 3d 23 43 c7 3d 67 8f ae bb
       0.19449528 0.113330334 0.09729602 -0.0053271535
000300 c5 1b 1c 3e 74 f2 0e 3e 6f 56 04 3c e7 0d a7 3d
       0.15244968 0.13959676 0.008077248 0.081569485
000310 ef 1f fc 3d 8a 5a 1e bd ca 9d a4 3d ce 92 7b bd
       0.12310778 -0.038660564 0.080379084 -0.0614193
000320 7f 2b 23 3e 3e ab a9 bd 59 93 ce 3d 9a e9 8e bd
       0.15934561 -0.08284615 0.10086698 -0.0697815
000330 24 01 89 3d 0e cc 8c 3d 36 68 ea 3b 64 06 cb 3d
       0.06689671 0.06874858 0.007153536 0.09913328
000340 f4 6b f1 ba 05 4f 2b 3d 1e 37 06 3e 99 9b 03 3e
       -0.0018419013 0.041823406 0.13106963 0.12852325
000350 76 82 07 3d c0 f4 de 3d 57 76 0d 3e 23 f7 8d bb
       0.0330834 0.10886526 0.13814674 -0.0043324395
000360 7d 06 2c 3d 94 ee d1 bd d5 dc c5 3b ca f5 43 3e
       0.041998375 -0.10250583 0.006038288 0.1913673
000370 a4 b3 a1 3d 16 7c 2c 3e 53 e8 b9 bd df bf af bc
       0.07895592 0.1684421 -0.090775155 -0.021453796
000380 89 f2 b4 3d 49 51 b7 3c 16 ae 95 3d 89 6e 1a 3d
       0.088353224 0.022377627 0.07308595 0.03770307
000390 48 c4 6f bd a5 9f 83 3d d4 3d 62 bd 79 13 5f 3d
       -0.058536798 0.06426934 -0.055234745 0.05446193
0003a0 9c 3c 06 3e 26 b5 a8 bd 6c f1 a6 3d 66 e5 0c 3e
       0.13109058 -0.08237676 0.08151516 0.13759384
0003b0 64 b2 8c bd f5 6f 40 3d 02 23 d2 3d fd a7 8f 3b
       -0.06869963 0.04698177 0.102605835 0.0043840394
0003c0 b7 89 e8 3d 70 64 9a bd 96 96 0a 3c d5 e5 44 3d
       0.11354392 -0.07538688 0.008458754 0.048070747
0003d0 c6 ec 76 3d 0c bc 00 3e 28 21 93 3d c4 51 01 3e
       0.0602844 0.12571734 0.071840584 0.12628847
0003e0 43 02 a2 bd ae 12 13 be f8 66 ae 3d e8 db 30 bd
       -0.07910588 -0.14362594 0.085157335 -0.04317847
0003f0 3b f8 a0 bb c3 10 61 3d 5b 14 c9 3d f3 ba 1e bd
       -0.004912404 0.054947626 0.098183356 -0.038752507
