Python/SpeechRecognition/DeepSpeech/taskClassifier.tflite (tflite, 10096 bytes, 4 tensors)

dense/MatMul_bias f4 [20]
000000 7d ba 9f be 8e d5 c1 bf 30 8d 3c 3f 36 34 d5 bf
       -0.31196967 -1.5143297 0.73652935 -1.6656559
000010 04 c0 8f bf f6 99 6e bf e2 bd 3f 3e 8d 9e eb 3d
       -1.1230474 -0.93203676 0.18724778 0.115048505
000020 45 f9 09 be df 3c be bf b6 21 e2 bf 6b ea b1 bf
       -0.13473995 -1.4862326 -1.7666538 -1.3899664
000030 bf 53 13 3e 50 cd 6a 3d cc 24 7a be e2 3d fa 3e
       0.14387415 0.057324708 -0.244281 0.48875338
000040 1b 0f e4 3e 2e ad 02 bf a6 be 27 3f 3b 5a a3 bf
       0.44542775 -0.510455 0.6552528 -1.2761911

dense/kernel/transpose f4 [20, 104]
000000 31 91 4c bf 25 14 86 bf e8 db 02 bf 14 5f 11 3f
       -0.79909045 -1.0474898 -0.511168 0.567857
000010 cc 27 5d bf f7 e1 26 3f 0e c3 24 be 43 1b 53 bf
       -0.8638885 0.65188545 -0.16090032 -0.82463473
000020 44 15 08 bf a8 4a 3b bf 14 43 88 3e d7 62 6f bf
       -0.5315745 -0.7316079 0.26613677 -0.9351019
000030 ef eb 12 3f 9c be 4c 3f 2f 65 45 bf f2 75 3d be
       0.57391256 0.79978347 -0.7710752 -0.18502024
000040 0e 1e 1a 3f 9e b5 54 3f 39 75 fa 3e 30 33 84 be
       0.6020211 0.83089626 0.4891756 -0.25820303
000050 38 d8 86 bf 73 72 06 bf 10 99 86 bf a8 a9 36 bf
       -1.0534735 -0.52518386 -1.0515461 -0.71352625
000060 20 cd 60 3f f7 f2 03 bf 48 b8 95 3f 42 02 fe be
       0.87812996 -0.5154261 1.1696863 -0.49611098
000070 f1 31 bc bf 2e bc 25 bf bc f8 04 3f 26 9a 0f bf
       -1.4702741 -0.64740264 0.5194204 -0.56094587
000080 20 df 61 bf b4 30 3d bf 02 49 39 bf ed 24 2e be
       -0.88231087 -0.7390244 -0.72377026 -0.17006274
000090 70 f2 d1 be dd 2e 83 3f 98 4c 9d 3e c1 05 1d bf
       -0.41005278 1.0248677 0.307225 -0.61336905
0000a0 fb d8 12 bf ee 82 05 3f 5e 98 25 bf f9 90 80 bf
       -0.57362336 0.5215291 -0.6468562 -1.0044242
0000b0 15 d6 92 be 8c 1a 2a bf 10 fe 20 bf 0f a6 79 bf
       -0.28678957 -0.6644676 -0.6288767 -0.9751901
0000c0 30 ca 25 bf 7e 6f 22 bf 7c 1c 0b 3f 67 24 05 bf
       -0.6476164 -0.63451374 0.5434034 -0.5200867
0000d0 9b 5e 15 3f 18 8c 8b 3e a5 d1 24 bf 5c 90 0e 3f
       0.5834748 0.2725532 -0.6438239 0.55689025
0000e0 6c 32 52 bf 26 af 5b bf 05 a4 6c 3f 48 97 31 bf
       -0.8210819 -0.8581413 0.92437774 -0.6937146
0000f0 d5 84 0d 3f b0 d4 31 3f 5f 97 0e bf 07 5b 95 bf
       0.5528081 0.6946516 -0.55699724 -1.1668404
000100 a8 9b 26 bf 6f 3b 8e bf a1 0c 9f be 8f 4d 1a bf
       -0.6508126 -1.1111888 -0.31064323 -0.60274595
000110 a3 11 24 bf 3d f1 97 be d8 84 2a 3f e2 17 8e be
       -0.6408941 -0.29676238 0.66608953 -0.27752596
000120 2d 0d 0d bf f0 31 34 bf dd ce 48 bf 40 2b 0d bf
       -0.5509823 -0.703887 -0.7844065 -0.5514412
000130 37 11 ef be d7 45 08 3f 95 61 37 3f a8 7e da 3e
       -0.4669282 0.5323157 0.71633273 0.42674756
000140 72 77 b6 be 52 66 2b 3f 49 84 1b 3f ff f7 69 3e
       -0.35638005 0.66953003 0.60748726 0.22848509
000150 0c e5 14 bf 2e a2 68 bf a1 af 5d bf 21 05 0c 3f
       -0.58162 -0.90872467 -0.86596113 0.54695326
000160 8b fa dc be 7d 1f 41 bf a3 e4 29 bf 60 be 85 bf
       -0.431599 -0.7543867 -0.66364497 -1.0448723
000170 ac ee 31 bf bf d6 45 bf 74 83 57 bf 09 e9 29 bf
       -0.6950481 -0.772808 -0.84184957 -0.6637121
000180 63 ee 2c 3f 5d 4f ad be 27 c5 0f 3e 90 54 bc bc
       0.6755125 -0.33849612 0.14040051 -0.022989541
000190 d0 ab 8c 3f f4 18 13 bf 13 47 19 bf 65 5a 1a bf
       1.0989933 -0.5745995 -0.59874076 -0.6029418
0001a0 38 72 a0 bd 89 18 d9 bd 2d 60 83 be 06 e8 76 be
       -0.078342855 -0.10600383 -0.25659314 -0.24111947
0001b0 7f ac d5 be 45 e5 f8 be 77 a7 30 be 0f 81 79 be
       -0.41733167 -0.4861242 -0.17251383 -0.24365638
0001c0 74 24 20 3e b4 56 75 be bd ec da be 4b 53 0a bf
       0.15638906 -0.23958856 -0.42758742 -0.54033345
0001d0 d1 09 11 bf da 41 3e bf 7c c5 a5 be 7f 12 11 bf
       -0.56655604 -0.7431923 -0.3237723 -0.5666885
0001e0 67 a5 5f bf 08 1f cd be aa b6 00 bf 25 3f 2f bd
       -0.8736176 -0.40062737 -0.50278723 -0.04278483
0001f0 40 19 d2 3e eb 7c 8d bd 76 e5 5b be a5 e5 89 bf
       0.4103489 -0.06908592 -0.21474251 -1.0773207
000200 c2 96 25 bf bc 20 38 bf 4a 32 51 bf 39 54 d5 be
       -0.64683163 -0.7192495 -0.8171736 -0.4166582
000210 01 63 47 be 3a 0a 1a be e7 1b 1a bf a3 88 10 bf
       -0.1947136 -0.15042964 -0.60198826 -0.5645849
000220 cf ba 19 be 65 46 a8 be c5 10 a5 bd 6b ba 18 bf
       -0.15012668 -0.32866207 -0.08059839 -0.5965945
000230 2f f1 ea be a1 06 a3 bf 4f 7b 20 bf f5 4a a5 be
       -0.45887133 -1.2736398 -0.62688154 -0.3228375
000240 17 f6 5f bf f9 bf 04 bf c7 5e 96 be b0 38 48 bf
       -0.8748488 -0.5185543 -0.29369184 -0.782115
000250 c2 92 ab be 07 da 94 be 66 5c 19 bf 5b 8a 4e bf
       -0.33510405 -0.29072592 -0.59906614 -0.80679864
000260 80 07 c3 be 65 d2 7b be 29 f1 80 be fe 9e c0 bd
       -0.3809166 -0.24591978 -0.2518399 -0.09405325
000270 07 7d 0b bf ad d2 c6 be 18 7e 2b be f9 f1 d6 be
       -0.5448765 -0.38832608 -0.1674732 -0.41981485
000280 3d 55 0e bf 64 4b 39 be 7a 95 19 bf 68 ab 06 bf
       -0.55598813 -0.18095165 -0.5999371 -0.52605295
000290 97 2a 16 bf e8 7c 3d bf 2b 46 74 3e 9a 48 a9 bf
       -0.58658737 -0.74018717 0.23854892 -1.3225281
0002a0 58 79 8d be 2d 13 fc be 78 8f aa be a2 07 e2 be
       -0.2763164 -0.4923338 -0.33312583 -0.44146448
0002b0 63 1a eb be 31 53 42 bf a3 51 5c bf 7d 15 3c bf
       -0.4591857 -0.7590819 -0.8606207 -0.7347029
0002c0 d2 a0 66 bf fc 57 62 be 33 1a 64 bf e0 37 49 bd
       -0.9008914 -0.22103876 -0.89102477 -0.049125552
0002d0 c8 a9 ba be 73 13 0c bf df d0 25 bf ea 08 1f bf
       -0.36457658 -0.5471718 -0.64771837 -0.62122977
0002e0 13 71 38 bf b3 40 a4 bf 20 9b 2c bf 23 9f 9d bf
       -0.7204754 -1.2832245 -0.674242 -1.231419
0002f0 98 97 85 3e 35 a2 56 bf be b0 5f be 7d 97 39 bf
       0.2609222 -0.8384126 -0.21844766 -0.7249678
000300 54 5e 4f bf fa a9 c1 be 0b d7 f2 be 8e 58 5c bf
       -0.8100331 -0.37824994 -0.4742969 -0.86072624
000310 f7 9a b7 be f6 95 18 bd a5 0d 5a bf 6e 24 49 bf
       -0.35860416 -0.03725239 -0.8517707 -0.7857121
000320 bf b2 a0 be 1c 00 3c bf f8 15 58 bf e1 39 97 be
       -0.31386372 -0.73437667 -0.8440852 -0.29536346
000330 43 c2 80 bf c3 6b b0 be 36 01 30 bf 7c 03 ff 3e
       -1.0059284 -0.34457216 -0.6875185 0.49807346
000340 d2 5c 22 bf 71 85 5b 3d 56 dd 3b bf 4d 5d 05 bf
       -0.6342288 0.053594057 -0.73384607 -0.5209549
000350 1c 77 13 3f 9c 3c 81 bf 26 c1 c4 be 43 ed 99 bf
       0.5760362 -1.0096622 -0.3842861 -1.2025532
000360 22 fa c7 be 49 0c 4d bf 50 76 7e bf 01 08 eb 3e
       -0.39058024 -0.8009687 -0.9939928 0.45904544
000370 b0 f0 12 bf 14 75 10 bf b2 71 67 bf 69 33 2d 3f
       -0.5739851 -0.5642865 -0.9040786 0.6765657
000380 c9 f7 96 bf 5f 8c 53 bf 8a 46 e3 be ca 36 f8 be
       -1.1794368 -0.82636064 -0.44389755 -0.484793
000390 a7 df 3e bf 3f 3b 46 bf 6b cd 6e bf 97 17 a7 3f
       -0.74560016 -0.7743415 -0.9328219 1.3054074
0003a0 9f df 9c bf 95 5e 82 3f 7e 4a 57 bf 5b 53 ea 3e
       -1.2255744 1.0185114 -0.8409804 0.4576672
0003b0 4d b7 bd bf ec 42 26 bf 16 c4 85 bf 9f 85 49 3f
       -1.4821564 -0.64945865 -1.0450466 0.78719515
0003c0 60 22 5f bf da 0e 2b bf 26 53 3b bf a4 49 b5 bf
       -0.8716183 -0.66819537 -0.7317375 -1.4163098
0003d0 d2 da bb 3e 5f dd c4 bf df b8 ca bf 47 83 16 bf
       0.36690384 -1.5380057 -1.5837668 -0.58794063
0003e0 e6 6e 56 3f 77 93 a0 be d8 b0 4d bf 66 a8 0a 3f
       0.8376297 -0.31362507 -0.8034797 0.54163206
0003f0 62 30 24 3f 58 af 32 bf 26 0c 47 3f bf 60 3c 3f
       0.64136326 -0.69798803 0.7775291 0.7358512

dense_1/MatMul_bias f4 [5]
000000 74 cd 98 bd f0 da e2 bd af 69 06 be c0 18 1c 3e
       -0.07461062 -0.11076915 -0.13126253 0.15243816
000010 b3 11 27 3d
       0.040788364

dense_1/kernel/transpose f4 [5, 20]
000000 20 03 6d bf 2c 3e 7d 3f 7e 4d e1 bf e6 6d 53 bf
       -0.92582893 0.9892299 -1.7601774 -0.82589567
000010 16 87 c3 bf b9 37 bf bf b0 d0 0b c0 56 d7 ee bf
       -1.52756 -1.493888 -2.1846123 -1.8659465
000020 08 90 d5 bf fb 20 d4 3f a2 2d 17 be b5 0d 91 bf
       -1.668458 1.6572565 -0.14763501 -1.1332308
000030 a3 6c 01 c0 17 4f 0e c0 59 89 e5 3f 64 72 82 bf
       -2.0222557 -2.2235773 1.793254 -1.0191159
000040 ca 02 d5 bf b3 37 e6 3f 4a 4d 16 40 28 97 a7 bf
       -1.6641476 1.7985748 2.3484674 -1.3093004
000050 61 23 19 bf 2b a1 67 3f a9 dd f2 bf 34 ab 7a 3f
       -0.5981961 0.904803 -1.8973895 0.97917485
000060 b2 97 c0 bf 80 ee e6 bf 37 97 09 40 c8 66 f0 bf
       -1.5046294 -1.8041534 2.1498544 -1.8781366
000070 1e 96 f5 bf a2 6f 26 bf bf 7f 29 bf 8f d8 a0 bf
       -1.9186437 -0.6501409 -0.6621055 -1.2566088
000080 86 0f ac 3d 2d be 76 be 75 ef f1 bf 9c ca 14 40
       0.08401398 -0.24095984 -1.8901201 2.3248663
000090 1b e8 e8 bf 8b f2 05 c0 89 08 4c bf 94 14 dd 3f
       -1.8195833 -2.0929286 -0.79700524 1.7271905
0000a0 e3 77 11 c0 75 2d 9a bf 27 33 18 40 04 f6 03 3f
       -2.2729423 -1.2045122 2.378122 0.51547265
0000b0 95 24 a7 bf f4 27 4b 3e 1f b8 a4 bf 91 dd f6 3f
       -1.3058039 0.1983946 -1.2868689 1.9286367
0000c0 57 a2 a0 be a2 44 c1 bf 42 61 a6 be 1e 6e 24 3f
       -0.31373855 -1.509907 -0.32496077 0.64230525
0000d0 49 a9 c3 bf 47 f7 07 c0 22 56 5c bf 02 c4 fc bf
       -1.5286037 -2.1244676 -0.8606893 -1.9747317
0000e0 9b f4 da bf 47 62 06 c0 66 82 fd bf ff e1 c7 bf
       -1.7105898 -2.0997484 -1.980542 -1.5615844
0000f0 fb 27 0c 40 ee 51 c0 bf c6 ff e6 bf bf f7 98 bf
       2.1899402 -1.5025003 -1.8046806 -1.1950606
000100 24 73 ab 3e d4 d5 af bf 90 01 80 bf 27 06 eb bf
       0.33486283 -1.373713 -1.0000477 -1.8361253
000110 10 0d 0f 40 8e 47 b6 bf 8f c5 d5 3e 98 37 dd 3f
       2.2351723 -1.4240587 0.41752288 1.7282591
000120 70 dc ea bf 4d ef 09 40 b0 41 fd bf 64 84 c5 bf
       -1.8348522 2.1552308 -1.9785671 -1.5431027
000130 41 4e d9 bf 6f 84 d5 be c4 3a cd bf 57 61 3d bf
       -1.6977006 -0.417026 -1.6033559 -0.73976654
000140 4c 8d f3 bf ee 16 92 3f d6 b4 d0 bf b9 52 87 bf
       -1.9027495 1.1413248 -1.6305187 -1.057212
000150 06 6b dd 3f 67 ee ca 3f 83 a6 11 c0 5b 7a cd bf
       1.7298286 1.5854005 -2.275788 -1.6052965
000160 c2 65 0d c0 c5 71 a9 bf 70 71 97 bd 78 fe 92 bf
       -2.2093358 -1.3237845 -0.07394683 -1.1483908
000170 c1 2c 02 40 ef a8 df bf 96 94 b9 3f 4e eb fa bf
       2.0339816 -1.747343 1.449847 -1.9603059
000180 59 73 f5 3f 54 0b 23 3f 3e b8 fc bf 24 6d ae bf
       1.9175826 0.6368916 -1.9743726 -1.3627057
