Python/SpeechRecognition/DeepSpeech/taskClassifierPhon.tflite (tflite, 29232 bytes, 4 tensors)

sequential/dense/BiasAdd/ReadVariableOp f4 [20]
0.81622386 0.3020343 -0.7045412 -0.14915656 -1.1340839 -0.8912651 0.41182056 0.29806873
-0.8264716 0.33577892 0.8253877 -1.1571704 -0.7995911 -0.107269004 -1.0936456 -0.9891617
-1.1617471 -1.0336205 0.41778314 -0.90384555
00000000: 0cf4 503f 3da4 9a3e d05c 34bf 7fbc 18be
00000010: a929 91bf f329 64bf 25da d23e 779c 983e
00000020: a593 53bf 37eb ab3e 9c4c 533f 291e 94bf
00000030: 01b2 4cbf daaf dbbd 94fc 8bbf b339 7dbf
00000040: 21b4 94bf ad4d 84bf ace7 d53e 6c62 67bf

sequential/dense_1/BiasAdd/ReadVariableOp f4 [6]
0.26092482 0.20546857 -0.21839283 0.1381613 -0.76147723 -0.20032082
00000000: f097 853e 5a66 523e 5fa2 5fbe 287a 0d3e
00000010: 2cf0 42bf e720 4dbe

sequential/dense/MatMul f4 [20, 342]
-0.48819894 0.51747644 -0.13763587 -0.49605495 -0.54589534 0.08198112 -0.660188 0.28085747
-0.19902888 -0.60867804 -0.5096862 -0.4123012 0.33308506 -0.080253825 -0.37790096 -0.61067474
-0.39797187 0.14666905 -0.25771967 -0.24161167 -0.44061127 -0.23918252 0.3602121 0.19219509
0.46015188 -0.44421133 -0.32492167 0.57031316 0.19627452 -0.3141605 -0.22902393 -0.45916328
0.4513219 0.8378581 -0.32884413 -0.6296202 -0.22727333 0.32620582 -0.26536992 0.48141882
-0.84343064 -0.52223057 -0.28058937 0.33569407 -0.2638309 0.33370388 0.4869723 -0.29524255
-0.31657374 -0.31746793 0.83149385 -0.24810223 0.075491935 -0.79454964 0.0960201 -0.16815452
-0.5929341 0.30052003 -0.07999866 -0.5978933 -0.23581862 -0.19695926 -0.28233194 -0.279701
-0.31234366 -0.5282989 -0.6857316 0.5034961 -0.19713333 -0.12972707 -0.24413687 -0.3522005
-0.53045493 -0.38167715 -0.5522919 -0.451705 0.38477018 1.2471995 -0.14966202 -0.5844614
-0.36483797 0.60746044 -0.4412325 0.14300689 -0.16218346 0.41208872 -0.15625046 -0.15114594
-0.24985638 0.56920105 -0.6079818 0.43732882 -0.3479636 -0.2125695 0.40654376 0.5525251
0.37352246 -0.35868934 -0.39880335 0.54458326 -0.25792786 -0.77306175 -0.29857436 -0.43139312
0.17062408 -0.46306944 -0.38381496 0.4006801 -0.17030875 0.20741989 -0.29868922 -0.25524163
-0.32003325 0.51420116 -0.21588457 0.23575975 0.38187125 -0.048216857 -0.30949393 -0.41793546
-0.3917757 -0.29303327 -0.1672185 -0.3701499 -0.3638315 -0.50267464 -0.5491559 -0.2981266
1.2141948 0.8701118 -0.16513912 -0.26934585 -0.4289579 -0.2890599 -0.5728484 -0.45408908
-0.14731643 -0.31206518 0.4277734 -0.3626372 -0.46370602 -0.5135862 -0.23816225 -0.17691144
-0.0020511793 -0.44338906 -0.26404163 -0.24129708 0.39506823 -0.42293254 -0.22606339 0.21691824
-0.28879312 -0.28867793 -0.7196244 -0.5740757 0.3298431 -0.36474186 -0.37261736 0.7305947
-0.26455566 -0.7220704 -0.36985683 -0.33017692 0.50263536 0.15088296 -0.27369776 0.17014396
-0.5384039 0.539566 -0.3501666 0.2549933 -0.33337188 -0.21777344 -0.7290253 -0.5261854
-0.39418873 0.50138396 -0.2253976 -0.2992109 -0.7823963 -0.5879442 0.393358 -0.35908192
-0.07639695 0.05210096 1.1074114 -0.42756784 0.39959425 -0.21833497 -0.3575665 -0.45557866
-0.36726907 0.3827172 -0.36247498 -0.3075592 -0.2742658 0.52348864 0.12794292 -0.55122703
-0.92118174 -0.29318133 -0.1485907 0.21533635 -0.32254422 0.377351 -0.3157759 -0.29910728
-0.3065815 -0.37271962 -0.5111072 -0.39522865 0.04338197 0.12383619 -0.6880937 -0.2950604
-0.23253058 -0.38821894 -0.5987751 0.85100585 -0.34976345 0.4020522 -0.37985262 -0.41867557
0.3640958 -0.1840801 0.43413708 -0.32993913 0.5633723 -0.02226699 0.02009516 -0.42265093
-0.5109203 -0.2719353 0.14495283 -0.48259008 -0.22710581 -0.59395283 -0.61226964 0.45153317
-0.27550292 0.2275327 0.18047534 -0.23961699 0.8450626 -0.429333 -0.36366546 -0.44125462
0.32280332 -0.5555233 0.24825573 -0.6445143 -0.7004132 -0.5196614 -0.38861462 -0.30989912
00000000: 36f5 f9be 5679 043f 6bf0 0cbe eafa fdbe
00000010: ccbf 0bbf b8e5 a73d 1502 29bf 8dcc 8f3e
00000020: 3ace 4bbe 53d2 1bbf cb7a 02bf 2519 d3be
00000030: 208a aa3e 1e5c a4bd 3c7c c1be 2e55 1cbf
00000040: f8c2 cbbe 6930 163e d5f3 83be 0d69 77be
00000050: cd97 e1be 43ec 74be b86d b83e cace 443e
00000060: 0799 eb3e ab6f e3be 225c a6be 0b00 123f
00000070: 30fc 483e a5d9 a0be 4085 6abe 7317 ebbe
00000080: aa13 e73e de7d 563f 425e a8be ca2e 21bf
00000090: 57ba 68be 7304 a73e 91de 87be 877c f63e
000000a0: 12eb 57bf e7b0 05bf 69a9 8fbe 18e0 ab3e
000000b0: d814 87be 3cdb aa3e 6f54 f93e 082a 97be
000000c0: f415 a2be 288b a2be c8dc 543f 830e 7ebe
000000d0: 849b 9a3d 9b67 4bbf 30a6 c43d b330 2cbe
000000e0: 87ca 17bf c3dd 993e 56d6 a3bd 890f 19bf
000000f0: 707a 71be b0af 49be d08d 90be f834 8fbe
00000100: 82eb 9fbe 993e 07bf 1b8c 2fbf 1fe5 003f
00000110: 52dd 49be 2cd7 04be 04ff 79be a053 b4be
00000120: e5cb 07bf 306b c3be 0163 0dbf e145 e7be
00000130: 9900 c53e 3ca4 9f3f 0041 19be 439f 15bf
00000140: 0bcc babe 8782 1b3f 3ae9 e1be 6670 123e
00000150: 6c13 26be 4bfd d23e 1f00 20be 00c6 1abe
00000160: 5ada 7fbe 29b7 113f b2a4 1bbf 90e9 df3e
00000170: 4928 b2be d2ab 59be 8126 d03e 4972 0d3f
00000180: 563e bf3e 21a6 b7be f42f ccbe cf69 0b3f
00000190: 1f0f 84be 60e7 45bf bdde 98be 8fdf dcbe
000001a0: 14b8 2e3e 7017 edbe 6583 c4be f125 cd3e
000001b0: 6b65 2ebe e165 543e cbed 98be 08af 82be
000001c0: 66db a3be b0a2 033f d810 5dbe 016b 713e
000001d0: a184 c33e 0a7f 45bd fd75 9ebe a3fb d5be
000001e0: d396 c8be 7508 96be 543b 2bbe 4a84 bdbe
000001f0: 1f48 babe 49af 00bf 7b95 0cbf 0da4 98be
00000200: bc6a 9b3f a6bf 5e3f 3b1a 29be b3e7 89be
00000210: 5fa0 dbbe a9ff 93be 31a6 12bf 5d7e e8be
00000220: 1eda 16be 02c7 9fbe 1d05 db3e 95ab b9be
00000230: e06a edbe 637a 03bf cee0 73be 4628 35be
00000240: 146d 06bb e403 e3be 7730 87be 9516 77be
00000250: 6246 ca3e 9d8a d8be 297d 67be d11f 5e3e
00000260: b1dc 93be 98cd 93be 4e39 38bf a0f6 12bf
00000270: 32e1 a83e 72bf babe b4c7 bebe 4108 3b3f
00000280: d773 87be 9bd9 38bf e05d bdbe f30c a9be
00000290: b6ac 003f 1081 1a3e 1d22 8cbe 383a 2e3e
000002a0: d7d4 09bf ff20 0a3f 0949 b3be 7b8e 823e
000002b0: b8af aabe 0000 5fbe 67a1 3abf 16b4 06bf
000002c0: 1bd3 c9be b35a 003f a1ce 66be 2c32 99be
000002d0: 204b 48bf 8383 16bf 3866 c93e 96d9 b7be
000002e0: 0176 9cbd d167 553d a8bf 8d3f 2cea dabe
000002f0: 9e97 cc3e 3493 5fbe f512 b7be 9b41 e9be
00000300: b10a bcbe 82f3 c33e 5296 b9be 6678 9dbe
00000310: 916c 8cbe 5a03 063f 7803 033e 371d 0dbf
00000320: 91d2 6bbf dd1b 96be 2928 18be 2281 5c3e
00000330: 8424 a5be 2634 c13e 61ad a1be 9724 99be
00000340: 40f8 9cbe 1bd5 bebe ecd7 02bf 695b cabe
00000350: 4bb1 313d d49d fd3d e926 30bf 2812 97be
00000360: 7f1c 6ebe a2c4 c6be 5349 19bf 85db 593f
00000370: 3214 b3be c9d9 cd3e 0b7c c2be a55c d6be
00000380: c46a ba3e 7e7f 3cbe 3747 de3e c8ed a8be
00000390: 2b39 103f 4369 b6bc 9b9e a43c b465 d8be
000003a0: accb 02bf 1b3b 8bbe 846e 143e 0c16 f7be
000003b0: 6d8e 68be 4b0d 18bf b4bd 1cbf 5b2f e73e
000003c0: b80e 8dbe 55fe 683e 87ce 383e 285e 75be
000003d0: 0656 583f 89d1 dbbe 5c32 babe 20ec e1be
000003e0: 7a46 a53e c636 0ebf c036 7e3e e4fe 24bf
000003f0: 484e 33bf 8808 05bf 7ff8 c6be 19ab 9ebe

sequential/dense_1/MatMul f4 [6, 20]
-1.1479007 1.8606652 -0.67327356 1.6067431 -0.7510647 -0.8524591 -1.2624797 -1.6842088
-0.6273188 -1.5827633 -1.4196188 -1.0043312 0.36575314 -1.6150557 -0.676056 -1.1683445
-1.2964733 0.12884891 -1.6800221 0.8461977 -1.3650988 -1.6266698 -0.55062634 -0.7684025
0.118624315 -1.2826294 1.8385805 -0.15542717 -1.1237252 -1.1301895 -0.78093535 -0.011387579
1.009997 -1.5631227 1.0022895 0.97924906 -1.0351233 0.08681047 -1.5788968 -1.0603616
-0.51491135 -1.3453498 -0.9575549 -1.4410715 0.58778554 1.0222645 -1.6246306 -1.2186329
-1.447953 -1.6509482 -1.6261553 -1.1411629 -0.8763206 1.44021 0.68185157 -1.0239506
-0.70561874 -1.1141852 1.4521538 0.38784674 -1.6097031 -1.4610589 -0.29147512 -1.2163793
-0.8086792 0.11091159 -1.2180332 1.8042059 -1.3448372 0.6698647 -1.0899465 -0.66990435
-0.8121597 0.10543346 -0.7002214 -1.0139349 -0.16323346 -0.41797435 -1.5766994 -1.1283169
1.3709278 -0.65886265 -0.023531128 -1.4939336 -1.2215233 -1.3279569 -1.6510004 -1.5739752
0.77771306 -1.4570727 -1.4482877 0.70827377 -1.0564618 -1.3479483 -0.8305169 0.7433847
0.4482445 -1.0190883 0.8743934 0.9675155 1.5463607 -0.9564763 1.4774169 -0.1742621
0.032555304 1.0843612 -1.7649035 -1.40202 0.8619802 1.2359711 1.6462018 0.39065945
-0.48475522 0.69119465 -0.05842558 0.6335493 0.2612812 0.12298796 -0.44920832 -0.5559446
00000000: 69ee 92bf 472a ee3f a85b 2cbf c2a9 cd3f
00000010: c745 40bf c23a 5abf ef98 a1bf 2794 d7bf
00000020: f797 20bf fd97 cabf 12b6 b5bf ed8d 80bf
00000030: ff43 bb3e 25ba cebf 0212 2dbf 508c 95bf
00000040: d6f2 a5bf f8f0 033e f70a d7bf 6aa0 583f
00000050: 8fbb aebf b736 d0bf d9f5 0cbf 07b6 44bf
00000060: 4ef1 f23d 332d a4bf 9b56 eb3f 4d28 1fbe
00000070: 3ad6 8fbf 0daa 90bf 61eb 47bf f892 3abc
00000080: 9547 813f 6814 c8bf 064b 803f 11b0 7a3f
00000090: ec7e 84bf b0c9 b13d 4a19 cabf eeb9 87bf
000000a0: 3bd1 03bf 6c34 acbf 5122 75bf 0875 b8bf
000000b0: 1d79 163f 90d9 823f e5f3 cfbf 2afc 9bbf
000000c0: 8656 b9bf 4552 d3bf db25 d0bf a011 92bf
000000d0: 8c56 60bf cd58 b83f d38d 2e3f d010 83bf
000000e0: 6ea3 34bf 9f9d 8ebf 2de0 b93f d993 c63e
000000f0: c00a cebf fa03 bbbf 3a3c 95be 51b2 9bbf
00000100: 9a05 4fbf 9e25 e33d 83e8 9bbf 38f0 e63f
00000110: a023 acbf 417c 2b3f 5e83 8bbf da7e 2bbf
00000120: b3e9 4fbf 7fed d73d b641 33bf 9ec8 81bf
00000130: ac26 27be bc00 d6be 49d1 c9bf b06c 90bf
00000140: 907a af3f 39ab 28bf 5ac4 c0bc 3739 bfbf
00000150: e05a 9cbf 7efa a9bf fb53 d3bf 0578 c9bf
00000160: 3418 473f 5c81 babf 7e61 b9bf 6e51 353f
00000170: 243a 87bf 9289 acbf c19c 54bf 764e 3e3f
00000180: 4e80 e53e 7c71 82bf 3fd8 5f3f 19af 773f
00000190: 26ef c53f a1db 74bf ff1b bd3f c471 32be
000001a0: b658 053d 59cc 8a3f 5ce8 e1bf 6475 b3bf
000001b0: bcaa 5c3f 4d34 9e3f beb6 d23f 8404 c83e
000001c0: d631 f8be 22f2 303f a94f 6fbd 4930 223f
000001d0: a6c6 853e 1de1 fb3d a2fe e5be 6352 0ebf
