Python/SpeechRecognition/DeepSpeech/taskClassifier.tflite (tflite, 10016 bytes, 4 tensors)

dense/MatMul_bias f4 [20]
00000000: 5b71 d3bf 4b22 63bf 54f5 533e 72c3 acbf
00000010: cac2 94bf 5ba2 70bf 79f2 a4bf 0aea 7fbf
00000020: cbd2 c33e 5a88 10bf 249e 2abe 86b4 e13e
00000030: ab46 e43e 7b1a 943d b079 b8bf b34f b6bf
00000040: 535f 97be b530 633f 3294 03bf c603 99be
-1.6518968 -0.887242 0.20699054 -1.3497145 -1.1621945 -0.93997735 -1.2886497 -0.9996649
0.3824676 -0.56458056 -0.16661888 0.4408304 0.44585165 0.07231613 -1.4412136 -1.4243072
-0.29564914 0.88746196 -0.51398003 -0.2988569

dense/kernel/transpose f4 [20, 103]
00000000: f5fe c6be 5610 5ebe 7589 5ebf fd5b d7be
00000010: 6fbc e1be 07ae 38be 936c d33d 2ca9 abbe
00000020: 14a0 6ebf 210a 10bf edbd 85bd fe26 82bf
00000030: dbd0 2ebf e98b cfbe c27c eebe 5dd8 0abf
00000040: cdeb c9be d444 85bf 1d91 a13d 1789 39bf
00000050: 4dbd 0ebf 1bf4 a8be 62a5 27be 6e0b 86bf
00000060: fd00 22be f15d c5be 2a45 a2be 2e7c c6be
00000070: 31ee 61bf ce75 08bf 19c9 42bf 8cf9 3abf
00000080: aabd 38bf 255f 523e e555 0abf d3c9 e9be
00000090: 4aa9 03bf 5398 83be 9a89 63bf ac36 03bf
000000a0: 58a3 67bf 5b63 cebe a574 6cbf 6c84 00bf
000000b0: 2e64 0dbf 881b 6cbf d9d1 3dbe 444b cdbe
000000c0: 29a2 23bf 3206 b3bd 1f5a 0cbf 3a03 44bf
000000d0: 18ab e9be f45f 05bf 187a 6b3e 0155 b7be
000000e0: 082e 42bd 936c 8abf 1e93 d5be d635 96bd
000000f0: 836f 773e cc40 1abf 3937 10bf a7d0 84bf
00000100: d107 8fbe 2d8f 8ebe 3f9e 07bf 4f83 53bf
00000110: 056c a4bc e89d 42bf 7007 913e 2ced 063f
00000120: e5eb 55bf dbcb 48bf 7c90 24bf 1b5b d7be
00000130: 2a90 adbe a3c2 57bf e95b 2fbf f080 8e3c
00000140: 71e5 0cbd abae 58bf 0a28 e8be 2101 023e
00000150: 59b6 4cbf cad8 03be e8d5 4bbf b4db 78bd
00000160: 6593 f7be a502 13bf 60c2 b7be cee5 48bf
00000170: 8323 efbe 7598 d3be 7ecf 1abf e466 05bf
00000180: 9dbb 85bf f4c7 00bd 0913 06bf 74b9 dfbe
00000190: 1009 83bf bde8 24bf 5466 11bf d6c3 753e
000001a0: a48d 21bf 48c6 96bf 23e0 0dbf 0e5b 6dbf
000001b0: 785a 51bf f779 27bf e6eb abbe cc12 da3d
000001c0: 4438 ca3e 1749 15bf 6e87 72bf deb3 07bf
000001d0: f696 12bf d0b8 a2bd dd0a 1bbd 4652 7abe
000001e0: 7824 e5be 8c0f 72bf 806f 2e3e 550e a2be
000001f0: 1174 153e a785 77bf 0bea 22bf 7f84 13bd
00000200: 525d c1be e0fe 263e b683 913e 59c3 22bf
00000210: 39a6 353e 8f10 a3bf 04cd 2e3e 6d64 6d3d
00000220: aaef 35bf 7417 20bf e4f8 0fbe 1bad a73e
00000230: 05fd debd 1af8 673e f0a4 2ebf 0aa8 20be
00000240: ad1b 55bf 2a38 b03e b33e 17bf 63b2 cabe
00000250: b928 24bf 1773 8ebf 69aa 9fbf 1cf1 0dbf
00000260: d07b 08bf 5b73 9ebe 5d6d ff3e 29e8 26bf
00000270: 746a debe 5e1d 35bf f2ad 3c3e 5225 07bf
00000280: a2b4 7bbf aa32 18bf cfa8 44bf 17e8 07bf
00000290: 4b6e 20bf 6367 1dbf 6508 e6be 45d1 443d
000002a0: a1f9 11bf 326a 13bf f39c e23d f076 79bf
000002b0: d005 0a3f b025 ccbe 932a 48bf 2a58 2bbf
000002c0: dd65 24bf ede2 e2be ee97 a8be d87f 15bf
000002d0: ebdf 8abf 39b2 663e 27e6 12bf f8b6 35bf
000002e0: 206e 17be c965 04bf ee6c f4be bd04 b63e
000002f0: 4db0 2abf caf4 47bf 49ec 65be 1456 c2be
00000300: a80a 81bc 2c5e 78bd 03b6 8f3e 4acc f6be
00000310: 7fc2 f7be d9d3 33bf f595 153e 4a44 9fbf
00000320: dc15 52bf 7993 eabe 07da eabe 0bf7 74bf
00000330: 7cc2 12bf 1dcc 43bf bea4 b2be cef7 0fbf
00000340: 1f1b 933e 5c3e ebbe be29 4dbf c3a1 6a3f
00000350: 0990 443f 24a8 23bf 1a20 44bf f76c 6ebe
00000360: 72fe 5bbf 7bc3 92bf c039 37bf 14b1 3dbf
00000370: 4390 81be 436e d8be 05a7 9bbe 8429 82bf
00000380: 0442 863f c742 1abf 4914 1c3f 2cdf 65be
00000390: 913b d8be 3a3e 85bf d4ac 95be eaf9 84be
000003a0: b810 aebe 564c 82bc f36e 83bf b0df 84bd
000003b0: 0326 a13f 67b9 4fbf a7e4 93be b815 4c3f
000003c0: 3d94 73bf de6d 9fbe 3805 f1be 2aee 90be
000003d0: 0d5d 44bf 05da 1cbf 69c0 3cbf df3a 0abe
000003e0: f349 16bf 4656 88bf abfd 10bf 6aa4 a5bf
000003f0: 3839 823e a5f2 bd3f fe44 13bf d63d 483f
-0.38866392 -0.21685919 -0.8692849 -0.4206237 -0.44089076 -0.18035136 0.10323443 -0.33527505
-0.9321301 -0.56265455 -0.06530366 -1.016815 -0.6828744 -0.4053643 -0.46579558 -0.54236394
-0.39437714 -1.041163 0.07889006 -0.7247481 -0.557576 -0.32998738 -0.16371682 -1.0472238
-0.1582069 -0.38548234 -0.31693393 -0.38766617 -0.88254076 -0.53304756 -0.760881 -0.7303703
-0.72164404 0.20544107 -0.54037315 -0.45661792 -0.5143019 -0.25702152 -0.8888184 -0.512553
-0.9048362 -0.40310177 -0.92365485 -0.5020206 -0.5523099 -0.9222951 -0.18537082 -0.40096486
-0.6391931 -0.08741416 -0.54825014 -0.76567423 -0.45638347 -0.5209954 0.22995794 -0.3580704
-0.04740718 -1.0814384 -0.41713804 -0.07334487 0.24163632 -0.6025512 -0.56334263 -1.0376176
-0.2793565 -0.2784361 -0.5297584 -0.82622236 -0.020071039 -0.76022196 0.28325987 0.52705646
-0.8356307 -0.7843606 -0.64282966 -0.42061695 -0.3389905 -0.8428137 -0.6849962 0.017395467
-0.0343985 -0.8464152 -0.45343047 0.12695743 -0.7996574 -0.12875667 -0.7962327 -0.0607564
-0.4835464 -0.5742591 -0.35890484 -0.78475654 -0.4670678 -0.41327253 -0.6047286 -0.52110124
-1.044788 -0.03144069 -0.52372795 -0.43696177 -1.0237141 -0.6441763 -0.56796765 0.24000487
-0.6310675 -1.1779261 -0.5542013 -0.92717063 -0.8177867 -0.6542048 -0.33578414 0.106481165
0.39496052 -0.5831465 -0.947379 -0.5300883 -0.572616 -0.079454064 -0.037852157 -0.24445447
-0.44754386 -0.9455497 0.17034721 -0.3165156 0.14595057 -0.9668831 -0.6363837 -0.03601503
-0.3776651 0.16308165 0.284208 -0.63579327 0.1773919 -1.2739428 0.17070395 0.0579571
-0.71068823 -0.62535787 -0.14059788 0.32749256 -0.108881034 0.22653237 -0.68220425 -0.15689102
-0.83245355 0.3441785 -0.59080046 -0.39589223 -0.6412464 -1.1128873 -1.247388 -0.5544603
-0.5331392 -0.30947384 0.49888125 -0.65198 -0.43440592 -0.70747936 0.1842573 -0.5279132
-0.983225 -0.5945231 -0.7682008 -0.53088516 -0.62668294 -0.6148588 -0.4492828 0.048051137
-0.5702153 -0.57583916 0.11065092 -0.9744711 0.5391512 -0.39872503 -0.78189963 -0.669314
-0.6421793 -0.44313756 -0.32928413 -0.583982 -1.0849584 0.22528924 -0.57382435 -0.70982313
-0.14788103 -0.5171781 -0.47739357 0.3555049 -0.66675264 -0.78107893 -0.22453417 -0.37956297
-0.015752152 -0.060636684 0.2806855 -0.48202735 -0.48390576 -0.7024513 0.14607985 -1.2442715
-0.82064605 -0.45815638 -0.45869467 -0.9568946 -0.5732801 -0.7648333 -0.34891313 -0.56237495
0.2873163 -0.45946014 -0.8014182 0.9165308 0.7678228 -0.6392844 -0.76611483 -0.23283754
-0.8593513 -1.1465906 -0.71572495 -0.74098325 -0.25305375 -0.42271623 -0.30400863 -1.016892
1.0488896 -0.60258144 0.6096845 -0.22448415 -0.42232946 -1.0409615 -0.2923342 -0.2597192
-0.3399713 -0.01590554 -1.0268234 -0.064879775 1.2589725 -0.81142277 -0.28885385 0.7972064
-0.9514807 -0.3113851 -0.47074294 -0.28306705 -0.76704484 -0.6127017 -0.73731095 -0.1349902
-0.5870659 -1.0651329 -0.56637067 -1.29408 0.2543428 1.4839674 -0.5752715 0.78219354

dense_1/MatMul_bias f4 [5]
00000000: ce97 d23d d396 563d 13d5 54bc 969b 02bd
00000010: 59dc 66be
0.10282861 0.05238993 -0.012990254 -0.03188666 -0.22544993

dense_1/kernel/transpose f4 [5, 20]
00000000: 70ac a43f 9eb0 cebf 52f7 d53f ca91 b53f
00000010: 9c78 b7bf 86c5 d53f 33f9 a83d db2c 82bf
00000020: 5ca0 b8bf e18c c5bf 4c2c 05c0 bc6a e0bf
00000030: 8e5e bd3f 86a9 e2bf 1f8e 9b3c 2500 38bf
00000040: 0c9f f5bf 159a f3bf 9224 c8bf 9f09 e03f
00000050: b5d0 3abf 3659 41bf 4860 03c0 bc3c 79bf
00000060: 1f7c 653e 3d2c d4bf ba0b 9a3d 4271 ed3f
00000070: d3b8 0740 b2cf e8bf f194 3b3f 8424 d6bf
00000080: 5ab3 ddbf 7f5c e7bf 5c99 4b3d 3ac1 a33f
00000090: 5e1e 9c3f 9014 e7bf ba46 babf 387c ab3f
000000a0: e71d 98bf 3b6d d93f 2ef0 64bf a627 243f
000000b0: be39 bfbf ece3 003e ef57 abbf 0ca4 dfbe
000000c0: 1ae1 03c0 6653 ba3f 8109 f0bf 482b 03c0
000000d0: f812 01c0 1d68 4bbf ad10 dfbf f9ea d93e
000000e0: a711 e2bf 7e59 0440 a6c6 2bbf 3c26 ebbf
000000f0: f73c 0cbe 260b bdbf 541e e7bf e538 4c3d
00000100: 5d47 a53f 2c05 8bbf 3e4d e0bf 057e f9be
00000110: 9710 8ebf bacf 88bf 93ed ca3f 52e9 0a40
00000120: d4ac 03c0 f9af 98bf 0f8a c7be fb61 c1bf
00000130: 4417 c6bf bc55 d3bf 8aad d4be 52a7 7cbf
00000140: ecdc 0e3e 4aa0 0ebf 772b c5bf 757c 98bf
00000150: 8786 86bf 39f0 a9bf 7065 ad3f a6f2 a4bf
00000160: 0f35 43bf 3b09 a43f ca78 f5bf 9673 babf
00000170: 10d5 bf3f 8ade ec3f f419 b33f a7e8 c0be
00000180: bb4b af3f 31e8 c4bf ea1a ed3f b171 b1bf
1.2865124 -1.6147649 1.6716101 1.4185116 -1.4333682 1.6700904 0.08250656 -1.0169939
-1.4423938 -1.5433618 -2.0808287 -1.7532573 1.4794481 -1.7707984 0.018988667 -0.7187522
-1.9189162 -1.9031397 -1.563616 1.7502936 -0.7297471 -0.7552675 -2.0527515 -0.973583
0.2241063 -1.6576 0.07521768 1.8550189 2.1206558 -1.8188384 0.7327414 -1.6729894
-1.7320359 -1.8075103 0.0497068 1.2793343 1.2196767 -1.805315 -1.4552834 1.3397284
-1.1884125 1.698646 -0.89428985 0.64123 -1.4939497 0.12586945 -1.338621 -0.43679845
-2.060614 1.4556701 -1.87529 -2.0495167 -2.0167828 -0.7945574 -1.7426964 0.42562082
-1.7661637 2.0679622 -0.6709999 -1.8371043 -0.13695131 -1.4769027 -1.805613 0.049858946
1.2912403 -1.0860953 -1.7523572 -0.48728958 -1.1098813 -1.0688393 1.5853752 2.1704907
-2.0574236 -1.1928703 -0.38972518 -1.5108026 -1.547585 -1.6510539 -0.4153865 -0.9869281
0.13951463 -0.5571333 -1.540389 -1.1912981 -1.0509804 -1.3276435 1.3546581 -1.288655
-0.76252836 1.2815317 -1.9177487 -1.4566524 1.4986897 1.8505414 1.3992295 -0.376775
1.3694986 -1.5383359 1.8523839 -1.3862821
