Python/SpeechRecognition/DeepSpeech/taskClassifierRNN.tflite (tflite, 772204 bytes, 32 tensors)

sequential_1/dense_2/BiasAdd/ReadVariableOp f4 [20]
0	0xbdea941a	-0.114540294
1	0x3d2c41c8	0.04205492
2	0x3df44e55	0.11929003
3	0x3c5633b4	0.01307385
4	0x3c80bf48	0.01571621
5	0x3e6e706f	0.23285078
6	0xbe2bf315	-0.16791947
7	0x3db14e7a	0.08657546
8	0x3d35798a	0.04430536
9	0xbe536fcd	-0.20648117
10	0x3e771db9	0.24132432
11	0xbd241697	-0.040060606
12	0x3e7ae9fd	0.24503322
13	0x3e49ca97	0.19706188
14	0x3b40bae2	0.0029408266
15	0x3e0804c8	0.13283074
16	0xbcec14d7	-0.028818531
17	0x3de8c6fd	0.11366079
18	0xbda38af6	-0.07985489
19	0xbc2f6b4f	-0.010706737

sequential_1/lstm/TensorArrayV2_1 f4 [1, 1, 64]
0	0x00000000	0.0
1	0x00000000	0.0
2	0x00000000	0.0
3	0x00000000	0.0
4	0x00000000	0.0
5	0x00000000	0.0
6	0x00000000	0.0
7	0x00000000	0.0
8	0x00000000	0.0
9	0x00000000	0.0
10	0x00000000	0.0
11	0x00000000	0.0
12	0x00000000	0.0
13	0x00000000	0.0
14	0x00000000	0.0
15	0x00000000	0.0
16	0x00000000	0.0
17	0x00000000	0.0
18	0x00000000	0.0
19	0x00000000	0.0
20	0x00000000	0.0
21	0x00000000	0.0
22	0x00000000	0.0
23	0x00000000	0.0
24	0x00000000	0.0
25	0x00000000	0.0
26	0x00000000	0.0
27	0x00000000	0.0
28	0x00000000	0.0
29	0x00000000	0.0
30	0x00000000	0.0
31	0x00000000	0.0
32	0x00000000	0.0
33	0x00000000	0.0
34	0x00000000	0.0
35	0x00000000	0.0
36	0x00000000	0.0
37	0x00000000	0.0
38	0x00000000	0.0
39	0x00000000	0.0
40	0x00000000	0.0
41	0x00000000	0.0
42	0x00000000	0.0
43	0x00000000	0.0
44	0x00000000	0.0
45	0x00000000	0.0
46	0x00000000	0.0
47	0x00000000	0.0
48	0x00000000	0.0
49	0x00000000	0.0
50	0x00000000	0.0
51	0x00000000	0.0
52	0x00000000	0.0
53	0x00000000	0.0
54	0x00000000	0.0
55	0x00000000	0.0
56	0x00000000	0.0
57	0x00000000	0.0
58	0x00000000	0.0
59	0x00000000	0.0
60	0x00000000	0.0
61	0x00000000	0.0
62	0x00000000	0.0
63	0x00000000	0.0

sequential_1/lstm_2/StatefulPartitionedCall/BiasAdd/ReadVariableOp f4 [256]
0	0x3e7b094b	0.24515264
1	0x3df47a1b	0.11937352
2	0x3e5f177f	0.21786307
3	0x3eb5299b	0.35383305
4	0x3e7445fd	0.23854823
5	0x3eedb544	0.46427357
6	0x3ef0e47c	0.4704932
7	0x3ecc67ac	0.39922845
8	0x3ce3ec91	0.027822765
9	0x3eedd41c	0.4645089
10	0x3eb98b15	0.36238924
11	0x3eb2f2e5	0.3495094
12	0x3f00d412	0.50323594
13	0x3e6ce509	0.23134245
14	0x3de7d6a4	0.11320236
15	0x3eadd043	0.33947954
16	0x3e8ae32d	0.27126446
17	0x3eda379a	0.42620546
18	0x3eb63636	0.35588235
19	0x3eb2f17d	0.34949866
20	0x3f19aba0	0.60027504
21	0x3e8e339f	0.2777376
22	0x3ea1d6d9	0.31609228
23	0xbcd32ed0	-0.025779158
24	0x3dd5e0a1	0.10443235
25	0x3edc5f91	0.4304166
26	0x3e887322	0.2665034
27	0x3ea47418	0.32119823
28	0x3ecb564c	0.39714277
29	0x3cfba175	0.030716637
30	0x3e64e9de	0.22354838
31	0x3e9e3bc2	0.30904967
32	0x3e48c3ba	0.19605914
33	0xbc66a71f	-0.014077931
34	0x3eb1d178	0.34730124
35	0x3deb8729	0.11500389
36	0x3efd74d7	0.49503204
37	0x3ec2406a	0.3793977
38	0x3e80a400	0.25125122
39	0x3ec74271	0.38917878
40	0x3e0d054a	0.13771549
41	0x3ea1941a	0.31558305
42	0x3e6b947d	0.23005863
43	0x3eda7e57	0.42674515
44	0x3e7bb7d2	0.2458184
45	0x3f088596	0.53328836
46	0x3ed14838	0.4087541
47	0x3e35f665	0.17769773
48	0x3e1f2e50	0.1554501
49	0x3e531f32	0.20617369
50	0x3e8f2f0b	0.27965578
51	0x3e9a6c86	0.30160922
52	0x3e8cfb1f	0.2753534
53	0x3dc84836	0.09779398
54	0x3e9bbc12	0.30416924
55	0x3e517088	0.20453084
56	0x3ecc603c	0.3991717
57	0x3e8ae916	0.27130955
58	0x3ea14837	0.31500408
59	0x3eed3422	0.46328837
60	0x3ed76594	0.42069685
61	0x3e870595	0.26371446
62	0x3e9b3d25	0.30320087
63	0x3e331f51	0.17492415
64	0x3f800000	1.0
65	0x3f800000	1.0
66	0x3f800000	1.0
67	0x3f800000	1.0
68	0x3f800000	1.0
69	0x3f800000	1.0
70	0x3f800000	1.0
71	0x3f800000	1.0
72	0x3f800000	1.0
73	0x3f800000	1.0
74	0x3f800000	1.0
75	0x3f800000	1.0
76	0x3f800000	1.0
77	0x3f800000	1.0
78	0x3f800000	1.0
79	0x3f800000	1.0
80	0x3f800000	1.0
81	0x3f800000	1.0
82	0x3f800000	1.0
83	0x3f800000	1.0
84	0x3f800000	1.0
85	0x3f800000	1.0
86	0x3f800000	1.0
87	0x3f800000	1.0
88	0x3f800000	1.0
89	0x3f800000	1.0
90	0x3f800000	1.0
91	0x3f800000	1.0
92	0x3f800000	1.0
93	0x3f800000	1.0
94	0x3f800000	1.0
95	0x3f800000	1.0
96	0x3f800000	1.0
97	0x3f800000	1.0
98	0x3f800000	1.0
99	0x3f800000	1.0
100	0x3f800000	1.0
101	0x3f800000	1.0
102	0x3f800000	1.0
103	0x3f800000	1.0
104	0x3f800000	1.0
105	0x3f800000	1.0
106	0x3f800000	1.0
107	0x3f800000	1.0
108	0x3f800000	1.0
109	0x3f800000	1.0
110	0x3f800000	1.0
111	0x3f800000	1.0
112	0x3f800000	1.0
113	0x3f800000	1.0
114	0x3f800000	1.0
115	0x3f800000	1.0
116	0x3f800000	1.0
117	0x3f800000	1.0
118	0x3f800000	1.0
119	0x3f800000	1.0
120	0x3f800000	1.0
121	0x3f800000	1.0
122	0x3f800000	1.0
123	0x3f800000	1.0
124	0x3f800000	1.0
125	0x3f800000	1.0
126	0x3f800000	1.0
127	0x3f800000	1.0
128	0x3d40c4b7	0.047062602
129	0x3e10450f	0.14088844
130	0xbdc72b97	-0.09725111
131	0xbc01c527	-0.00792054
132	0xbdafdb18	-0.08586711
133	0xbe2177ab	-0.15768306
134	0x3e51b49f	0.20479058
135	0x3e216f43	0.15765099
136	0x3d373b93	0.04473455
137	0xbe89d9d7	-0.2692401
138	0xbd581c15	-0.052761156
139	0x3bda0829	0.006653805
140	0xbe3b13b0	-0.18269229
141	0x3e1f6eea	0.15569654
142	0xbcff24a6	-0.031145405
143	0xbe4a5a61	-0.1976104
144	0xbd755ba1	-0.059901837
145	0xbdc6e39f	-0.09711384
146	0xbcefe029	-0.029281693
147	0x3e03165f	0.12801503
148	0xbe8414b3	-0.25797042
149	0x3da9b17a	0.08285804
150	0x3d80651a	0.062692836
151	0xbae886ad	-0.0017740332
152	0xbd8b0413	-0.067878865
153	0x3e3c8084	0.184084
154	0xbd4bdd2f	-0.049771484
155	0x3c975609	0.018473642
156	0x3e50633f	0.2035036
157	0x3e036385	0.12830932
158	0xbdc2d759	-0.095137306
159	0x3c13e106	0.009025818
160	0x3d1d0de5	0.03834333
161	0xbd26c428	-0.040714413
162	0x3bf4a6c8	0.007466171
163	0x3e0208b0	0.12698627
164	0xbd67b053	-0.05656464
165	0xbe2ca7d5	-0.16860898
166	0xbe72b88d	-0.23703213
167	0xbe3c5547	-0.18391906
168	0xbe03367c	-0.12813753
169	0x3e5674cc	0.20942992
170	0xbe44a1cd	-0.19202347
171	0x3d88f2a9	0.06686909
172	0xbd151b9d	-0.036403287
173	0x3e472096	0.19446024
174	0xbdf840ab	-0.121217094
175	0x3d2e34c6	0.042530797
176	0xbd54ad13	-0.05192287
177	0xbc06ad0a	-0.008219967
178	0xbda6377c	-0.081160516
179	0x3d33476d	0.04376929
180	0x3e6a05f5	0.22853835
181	0xbc6e97be	-0.014562545
182	0xbcf1d236	-0.029519182
183	0x3d56895c	0.05237709
184	0x3e87d844	0.26532185
185	0xbe758e98	-0.23980176
186	0x3e510e19	0.20415534
187	0x3cd95fbd	0.02653491
188	0x3e51ec1e	0.20500228
189	0x3cce7c02	0.025205616
190	0xbda415e4	-0.08011988
191	0x3ce8a10c	0.028397106
192	0x3e831c08	0.25607324
193	0x3e0d14ee	0.13777515
194	0x3e5f833d	0.21827407
195	0x3eba195b	0.3634747
196	0x3e6ebf8a	0.23315254
197	0x3edb2b9b	0.42806706
198	0x3ef97cf0	0.48728132
199	0x3ecf2708	0.40459466
200	0x3d60aca8	0.054852158
201	0x3eee013a	0.4648531
202	0x3eb32e74	0.34996378
203	0x3eb610a8	0.35559583
204	0x3f047334	0.51738286
205	0x3e7e5efc	0.24840921
206	0x3df16977	0.11787694
207	0x3ea62d73	0.3245655
208	0x3e93f8f7	0.28900883
209	0x3edbdf4f	0.42943808
210	0x3eb5d073	0.35510597
211	0x3ebb7932	0.36615902
212	0x3f16d8d4	0.58924603
213	0x3e8ec1e3	0.278823
214	0x3ea12c32	0.3147903
215	0xbcef1f59	-0.029189752
216	0x3e14d752	0.14535263
217	0x3edc9c43	0.43087968
218	0x3e830b5c	0.25594604
219	0x3eaa49e4	0.332595
220	0x3ecf3728	0.40471768
221	0x3ccf6816	0.025318187
222	0x3e5a507b	0.21319763
223	0x3ea7c73b	0.32769188
224	0x3e48d676	0.1961306
225	0xbbf16862	-0.0073671797
226	0x3eb70fe0	0.357543
227	0x3dc5eeef	0.096647136
228	0x3efa8eae	0.4893698
229	0x3ec29de5	0.3801109
230	0x3e8b6f65	0.27233425
231	0x3ec213be	0.37905687
232	0x3e1a830f	0.15089057
233	0x3ea7cd78	0.32773948
234	0x3e77dd3a	0.24205485
235	0x3edd089f	0.4317064
236	0x3e80ef65	0.25182644
237	0x3f0556b0	0.520854
238	0x3ed2ddeb	0.41184935
239	0x3e38ae7d	0.18035312
240	0x3e1ff90d	0.15622349
241	0x3e5731a7	0.21015035
242	0x3e906f61	0.28209975
243	0x3ea9a424	0.33133042
244	0x3e9dd2a8	0.3082478
245	0x3dc65b52	0.09685387
246	0x3e9dcbf2	0.3081966
247	0x3e5b2156	0.21399435
248	0x3ece7196	0.40321034
249	0x3e993fcf	0.29931495
250	0x3ea2ea9c	0.31819618
251	0x3ee5d9d7	0.4489276
252	0x3ed9745d	0.4247159
253	0x3e862b08	0.26204705
254	0x3e9f8d0c	0.31162298
255	0x3e4ab9b1	0.19797398

sequential_1/output/BiasAdd/ReadVariableOp f4 [6]
0	0x3f1454f8	0.5794215
1	0xbede2aad	-0.43391934
2	0xbe7d90ef	-0.24762319
3	0xbf027873	-0.5096504
4	0xbcd05f87	-0.025436176
5	0x3ebf57cd	0.37371674

sequential_1/lstm/lstm_cell/MatMul_7 f4 [1, 64]
0	0x00000000	0.0
1	0x00000000	0.0
2	0x00000000	0.0
3	0x00000000	0.0
4	0x00000000	0.0
5	0x00000000	0.0
6	0x00000000	0.0
7	0x00000000	0.0
8	0x00000000	0.0
9	0x00000000	0.0
10	0x00000000	0.0
11	0x00000000	0.0
12	0x00000000	0.0
13	0x00000000	0.0
14	0x00000000	0.0
15	0x00000000	0.0
16	0x00000000	0.0
17	0x00000000	0.0
18	0x00000000	0.0
19	0x00000000	0.0
20	0x00000000	0.0
21	0x00000000	0.0
22	0x00000000	0.0
23	0x00000000	0.0
24	0x00000000	0.0
25	0x00000000	0.0
26	0x00000000	0.0
27	0x00000000	0.0
28	0x00000000	0.0
29	0x00000000	0.0
30	0x00000000	0.0
31	0x00000000	0.0
32	0x00000000	0.0
33	0x00000000	0.0
34	0x00000000	0.0
35	0x00000000	0.0
36	0x00000000	0.0
37	0x00000000	0.0
38	0x00000000	0.0
39	0x00000000	0.0
40	0x00000000	0.0
41	0x00000000	0.0
42	0x00000000	0.0
43	0x00000000	0.0
44	0x00000000	0.0
45	0x00000000	0.0
46	0x00000000	0.0
47	0x00000000	0.0
48	0x00000000	0.0
49	0x00000000	0.0
50	0x00000000	0.0
51	0x00000000	0.0
52	0x00000000	0.0
53	0x00000000	0.0
54	0x00000000	0.0
55	0x00000000	0.0
56	0x00000000	0.0
57	0x00000000	0.0
58	0x00000000	0.0
59	0x00000000	0.0
60	0x00000000	0.0
61	0x00000000	0.0
62	0x00000000	0.0
63	0x00000000	0.0

lstm_cell/MatMul_4 f4 [64, 64]
0	0x3d527260	0.051378608
1	0xbe1c37dd	-0.15255685
2	0x3ce68fa7	0.02814467
3	0xbbe37308	-0.006941203
4	0xbd37fff0	-0.044921815
5	0xbc136614	-0.008996505
6	0x3d9a80b8	0.075440824
7	0x38c48000	9.36985e-05
8	0x3cd9c5b0	0.026583523
9	0xbd49be93	-0.04925401
10	0x3cdd9334	0.027047731
11	0xbd84404c	-0.06457576
12	0x3a839100	0.001003772
13	0x3c1490e1	0.009067745
14	0x3d2f1c40	0.04275155
15	0x3caeb852	0.021328125
16	0xbd734f58	-0.05940184
17	0x3de048e0	0.109514
18	0x3d530db0	0.051526725
19	0xbd247965	-0.040154833
20	0xbb77a748	-0.0037788916
21	0xbc791310	-0.015202299
22	0xbba2f648	-0.0049732067
23	0xbc87414d	-0.01651063
24	0xbddd2656	-0.107983276
25	0xbd29c63c	-0.041448817
26	0x3c8e4411	0.017366441
27	0xbe027434	-0.1273964
28	0x3c210f76	0.009830346
29	0xbdce1dfb	-0.10064312
30	0xbcf9bd62	-0.030485813
31	0x3b5fd720	0.0034155324
32	0x3dc396f5	0.09550277
33	0xbd9ac86e	-0.0755776
34	0x3d29fa1e	0.041498296
35	0x3d635d18	0.055508703
36	0x3c0ec67c	0.008714315
37	0x3d8dd88e	0.0692607
38	0x3de08cc6	0.109643504
39	0xbdce2488	-0.100655615
40	0xbc6ad03e	-0.014331875
41	0xbd8c6505	-0.068552054
42	0xbbc2e43b	-0.0059476173
43	0x3ce4adaa	0.02791484
44	0x3d288ee5	0.0411519
45	0x3c04cd48	0.0081055835
46	0xbd2f77e3	-0.042838942
47	0x3cc9d2f8	0.02463673
48	0x3d5efda0	0.054441094
49	0x3dac0b27	0.08400565
50	0xbd9cf020	-0.07662988
51	0x3d3f5161	0.04670847
52	0x3cdb3123	0.026756829
53	0x3db86f58	0.09005612
54	0x3c6dd267	0.014515496
55	0x3cc97b30	0.024594873
56	0xbe01fe8b	-0.12694757
57	0xbc13b685	-0.009015684
58	0xbdedc1ea	-0.11609252
59	0xbd284d40	-0.041089296
60	0x3d13ff88	0.036132365
61	0xbd1aa9ef	-0.037759718
62	0x3cf28cae	0.029608097
63	0x3aa6bf4a	0.0012721804
64	0x3db4d7e8	0.08830243
65	0x3d0f0f00	0.034926414
66	0x3d94e2c1	0.072698124
67	0x3d59e789	0.053199325
68	0x3cc6165b	0.024180582
69	0xbd7dbb9a	-0.06194649
70	0x3d236566	0.039891623
71	0xbcc5b7ae	-0.024135437
72	0x3dcdba91	0.1004535
73	0x3c9441bc	0.01809775
74	0x3d2166ba	0.03940461
75	0xbd1eeb05	-0.03879835
76	0xbd2c622f	-0.042085823
77	0xbd9e50ef	-0.077302806
78	0x3d120406	0.03564837
79	0xbcde5cd6	-0.027143877
80	0x3acd41e8	0.00156599
81	0xbd6e340b	-0.0581551
82	0x3d1df8ac	0.03856723
83	0xbd01d641	-0.03169847
84	0x3c41f9b1	0.011839316
85	0x3d062ee0	0.032759547
86	0xbca368dc	-0.019947462
87	0xbc100ac6	-0.008791631
88	0x3b5fbd14	0.00341398
89	0x3c045b6e	0.008078439
90	0x3ce9197a	0.028454531
91	0x3dc8ec82	0.09810735
92	0x3b3d9a20	0.0028930977
93	0x3d187a6a	0.03722612
94	0xbd850e30	-0.06496847
95	0x3dab4502	0.083627716
96	0x3dfc31e2	0.12314202
97	0xbd051394	-0.032489374
98	0x3d158988	0.036508113
99	0xbe297959	-0.16550197
100	0x3ce9e657	0.028552217
101	0x3bcf02b7	0.0063174623
102	0x3e020a5c	0.12699264
103	0x3da2bf2a	0.07946618
104	0xbc03a845	-0.008035724
105	0xbd187ca0	-0.037228227
106	0xbcf16417	-0.029466672
107	0xbce16ae9	-0.027516799
108	0x3d9ab047	0.075531535
109	0x3c9f09ed	0.019413913
110	0xbb882578	-0.0041548572
111	0x3c067f36	0.00820904
112	0xbdac2b54	-0.08406702
113	0x3d7247b6	0.05915042
114	0x3ce00f88	0.027351156
115	0x3d06b754	0.03288968
116	0xbbf6e492	-0.007534572
117	0x3bdfbeab	0.0068281493
118	0x3e260a80	0.16214943
119	0x3da0efa0	0.07858205
120	0x3d0868dd	0.03330313
121	0xbd00fa6f	-0.031488832
122	0xbd8a33c4	-0.06748155
123	0xbd9dba80	-0.07701588
124	0x3dc5c1b8	0.096560895
125	0xbd16bc33	-0.036800575
126	0xbd20ffc8	-0.039306432
127	0x3dd2cdfb	0.10293194
128	0x3d455160	0.04817331
129	0x3d9a80b5	0.0754408
130	0x3deaf250	0.11471999
131	0x3ddbcd74	0.107325464
132	0xbdd4dab6	-0.10393278
133	0x3e356e57	0.17717873
134	0x3cfe1acd	0.031018639
135	0xbc1178b6	-0.008878877
136	0xbd2ef823	-0.04271711
137	0x3c9a5d0d	0.018843198
138	0x3dbdb919	0.0926382
139	0xba7cfb80	-0.00096505135
140	0xbc54f1a5	-0.012997066
141	0xbd9bca60	-0.07606959
142	0x3d93e05c	0.072205275
143	0xbc7763ba	-0.01509946
144	0xbd945d18	-0.07244319
145	0xbc720a0b	-0.014772902
146	0x3d174fd7	0.036941376
147	0x3c77d95e	0.015127508
148	0xbdb95a40	-0.09050417
149	0x3d911d30	0.07085645
150	0xb8be84e0	-9.084656e-05
151	0x3d5e9889	0.054344688
152	0x3d1b5b89	0.03792909
153	0x3c7a3903	0.015272382
154	0xbc0d96b7	-0.00864189
155	0x3d2c1fe2	0.042022593
156	0xbd01c750	-0.03168422
157	0xbc4f988f	-0.01267065
158	0x399bd930	0.0002972572
159	0xbd75d5bf	-0.060018297
160	0x3db292a8	0.08719379
161	0xbbec677a	-0.007214484
162	0x3cc990c9	0.024605172
163	0xba1d6fc0	-0.0006005727
164	0xbbf3e23e	-0.0074427417
165	0xbd95732f	-0.0729736
166	0x3d92c02f	0.07165562
167	0x3d10c4d5	0.035343964
168	0xbd3c0959	-0.045907352
169	0xbd61a4db	-0.05508886
170	0x3dbd6d1b	0.09249326
171	0x3dcea556	0.10090129
172	0xbd9ada48	-0.07561165
173	0xbb840d03	-0.0040298714
174	0x3e21e981	0.15811731
175	0xbd4a6e24	-0.049421445
176	0xbca6e0da	-0.02037089
177	0x3d40e0e5	0.047089476
178	0xbda1eb8e	-0.079062566
179	0x3b033c07	0.0020024793
180	0x3b08205b	0.0020771238
181	0x3d9e5bb3	0.07732334
182	0x3cc862b8	0.024461135
183	0x3d1a5513	0.03767879
184	0x3d8be679	0.068310685
185	0x3d49e2a9	0.049288426
186	0xbd803076	-0.06259243
187	0x3d4c2e29	0.04984871
188	0xbc7c453c	-0.015397366
189	0x3d0e589b	0.03475247
190	0xbd168cd0	-0.036755383
191	0x3d6c0b64	0.05762805
192	0x3d06027c	0.032717213
193	0xbcc12492	-0.023577008
194	0xbd847925	-0.06468419
195	0x3d8c1c70	0.068413615
196	0x3d60d2e3	0.054888617
197	0x3d405b46	0.046962045
198	0x3baf615c	0.0053521823
199	0x3d5c0525	0.053715844
200	0x3c91fa38	0.017819509
201	0xbd86ec9d	-0.06588099
202	0x3c33859b	0.010957147
203	0xbdb54d7a	-0.08852668
204	0x3d67f6cc	0.05663185
205	0xbdb928cc	-0.090409845
206	0xbd75ba1a	-0.059991933
207	0xbd1f4a9f	-0.038889524
208	0xbd0da6c3	-0.034582864
209	0xbd93e690	-0.07221711
210	0xbcd3d548	-0.025858536
211	0xbd1bab59	-0.038005207
212	0xbd8cadb8	-0.06869072
213	0x3d39189d	0.04518949
214	0x3d4fa06e	0.050690107
215	0x3e050d83	0.12993436
216	0x3d4cec3d	0.050029982
217	0x3ceec298	0.029145524
218	0x3d823238	0.06357235
219	0x3c53879c	0.01291075
220	0xbc9549dc	-0.018223695
221	0x3cb5aaa4	0.022176094
222	0xbdb7060a	-0.08936699
223	0x3bdc2fbc	0.0067195576
224	0xbd4f0c13	-0.050548624
225	0xbcaad7dd	-0.020854885
226	0x3c69890c	0.014253866
227	0xbd134ba4	-0.03596081
228	0xbd09c273	-0.033632707
229	0x3d1eda94	0.03878267
230	0xbbfefb49	-0.0077814204
231	0xbc9d4182	-0.019196276
232	0xbd26a3db	-0.04068361
233	0xbd8a5e7b	-0.06756302
234	0xbd9c9e4f	-0.076473825
235	0xbd081c98	-0.033230394
236	0xbc660c5a	-0.014041031
237	0x3d128dfb	0.035779934
238	0x3c953508	0.018213764
239	0x3da10ca5	0.0786374
240	0xbc29f22d	-0.010372681
241	0x3d5af18d	0.053453017
242	0xbd11e951	-0.0356229
243	0x3cb55508	0.022135273
244	0xbd4ba1e3	-0.049714934
245	0x3dd49adc	0.103810996
246	0xbdaf3d6e	-0.08556639
247	0x3c376a1e	0.011194734
248	0x3c3c5500	0.011494875
249	0x3d196dbe	0.037458174
250	0xbb17431c	-0.0023080772
251	0xbdeb4818	-0.1148836
252	0x3d103959	0.03521094
253	0xbdec5245	-0.11539129
254	0x3d083a06	0.03325846
255	0x3d17904a	0.03700284

lstm_cell/MatMul_5 f4 [64, 64]
0	0x3d101c8c	0.035183474
1	0x3d09b66e	0.033621244
2	0x3e1f9d21	0.15587284
3	0xbc9046e3	-0.017611926
4	0x3d00d1ce	0.031450085
5	0xbd06f9ec	-0.032953188
6	0xbd6647f6	-0.05622097
7	0x3d1a19f1	0.037622396
8	0xbd0d1c5a	-0.034450866
9	0x3ab123f0	0.0013514739
10	0x3da97373	0.08273973
11	0x3a5f7214	0.0008523774
12	0xbc2100ff	-0.009826898
13	0x3d03d95b	0.03218971
14	0x3bebcdd8	0.0071961693
15	0x3c2817da	0.010259593
16	0x3c6d4846	0.014482563
17	0x3d956ebd	0.07296512
18	0xbc03fec0	-0.008056343
19	0x3d77b7fb	0.06047819
20	0x3c6794e8	0.014134623
21	0xbe32a53a	-0.17445841
22	0xbc165244	-0.009174887
23	0x3d09b2ed	0.033617903
24	0x3ca5f716	0.020259421
25	0x3d6468cd	0.05576401
26	0x3d576169	0.052583132
27	0xbcb8fcf1	-0.02258155
28	0x3e0b4ce6	0.13603553
29	0x3dddbb4d	0.108267404
30	0x3dc7f9c1	0.09764434
31	0x3da415fe	0.08012007
32	0xbbc6e042	-0.006069214
33	0xbb2a7990	-0.0026012398
34	0x3da0a8fe	0.07844733
35	0x3d45c922	0.04828752
36	0x3dcbfa7b	0.09959885
37	0xbdabfb66	-0.0839756
38	0xbd1ba55a	-0.03799949
39	0x3caaf0a9	0.020866709
40	0xbd30768c	-0.043081805
41	0xba63c3c0	-0.0008688532
42	0x3b09af90	0.0021009184
43	0x3cf85ff8	0.030319199
44	0x3cbfb0e8	0.023399785
45	0xbc8d7086	-0.01726557
46	0xbd7cf209	-0.06175426
47	0xbcc40c2e	-0.023931589
48	0x3dbc6dc8	0.092006266
49	0xbac74020	-0.0015201606
50	0xbcdb9d57	-0.026808424
51	0x3e0922a7	0.13392125
52	0xbdad4808	-0.084610045
53	0x3d30278d	0.04300647
54	0xbd2599c8	-0.04042986
55	0x3d982fc8	0.074309886
56	0xbc7a52d4	-0.015278537
57	0xbd8c9a60	-0.06865382
58	0x3cfda7ce	0.030963805
59	0xbd8d87f2	-0.06910695
60	0x3a97c1f8	0.0011578193
61	0xbc0592d8	-0.008152686
62	0x3e521eb4	0.20519525
63	0x3d973d5f	0.073847525
64	0x3d9c1173	0.07620516
65	0x3dadaf0f	0.084806554
66	0x3ba27cf2	0.0049587423
67	0xbda5d89f	-0.08097958
68	0x3b9f072b	0.0048531494
69	0x3e39f0dd	0.18158288
70	0xbe0867be	-0.13320825
71	0x3cb76ee3	0.022391742
72	0x3ccf4d80	0.02530551
73	0xbd0a442f	-0.03375643
74	0xbd4a0472	-0.049320646
75	0xbab0a8cc	-0.001347804
76	0x3d896997	0.06709593
77	0x3a743bf0	0.0009316793
78	0x3c205b67	0.009787417
79	0x3b95f7f3	0.004576677
80	0xbd49cfb2	-0.04927034
81	0x3d616556	0.055028282
82	0xbdc0e8f7	-0.094194345
83	0x3c0fbf00	0.008773565
84	0x3cb0c5e2	0.021578733
85	0x3cece464	0.028917499
86	0x3b39543c	0.0028278967
87	0x3d6b4b5a	0.057444908
88	0xbdc8d292	-0.09805788
89	0xbbce7370	-0.0063003823
90	0x3cc98435	0.024599174
91	0x3d1a2ba4	0.037639275
92	0x3ca0ffa2	0.019653145
93	0xbd689576	-0.056783162
94	0xbde2fbcf	-0.11083185
95	0x3c9fcb60	0.019506156
96	0xbc1fb330	-0.0097473115
97	0x3dd46e7a	0.10372634
98	0x3c9b0423	0.018922871
99	0x3c3cb170	0.011516914
100	0x3c768167	0.0150455
101	0x3da7e622	0.08198191
102	0x3d417f76	0.047240697
103	0x3c05c546	0.008164709
104	0xbcca5742	-0.02469981
105	0xbd62c2c8	-0.05536154
106	0xbb9c1600	-0.004763365
107	0xbd2c6201	-0.04208565
108	0x3ad52660	0.0016262047
109	0xbca80b5c	-0.02051323
110	0x3da28fa6	0.07937555
111	0xbd1f7689	-0.038931403
112	0x3dcf8ba6	0.10134058
113	0x3d155734	0.036460117
114	0xbcc9cabe	-0.024632808
115	0x3d8e1e25	0.06939343
116	0xbb7cd4a4	-0.0038578892
117	0x3cbacc91	0.022802623
118	0x3d2641ab	0.04058997
119	0xbcb18452	-0.02166954
120	0xbdaab9ae	-0.08336197
121	0xbaa71b90	-0.0012749303
122	0x3d6bdcfa	0.057583787
123	0xbcfb7488	-0.030695215
124	0x3d8d0d26	0.068872735
125	0xbca17fcb	-0.019714257
126	0x3d96595e	0.07341264
127	0xbd8b2d3e	-0.06795739
128	0xbd3ffc1b	-0.046871286
129	0x3d0e0974	0.034676984
130	0xbd609587	-0.0548301
131	0x3cc1ba6e	0.023648467
132	0x3d25c9e5	0.040475745
133	0xbd0ff727	-0.035147812
134	0xbd58a4cf	-0.05289155
135	0xbd87ff22	-0.066404596
136	0x3d99d2ba	0.07510896
137	0x3d822008	0.06353766
138	0xbd843fa5	-0.06457452
139	0xbb995070	-0.0046787784
140	0x3c95880c	0.018253349
141	0xbd9dba30	-0.07701528
142	0x3bc3d98d	0.005976862
143	0xbd8248a5	-0.06361512
144	0xbc4df108	-0.012569673
145	0xbdab675d	-0.08369324
146	0xbd52c6de	-0.051459186
147	0xbba7f06a	-0.005125095
148	0xbc7fbd88	-0.015609153
149	0x3c177c04	0.009245876
150	0x3d51998c	0.051171824
151	0x3d599125	0.053116936
152	0x3c68ee82	0.014217021
153	0x3a4dce20	0.00078508444
154	0xbd83fdc2	-0.06444885
155	0x3d648f7d	0.055800904
156	0xbddb2da4	-0.10702065
157	0x3d6ea9ef	0.05826753
158	0x3ce8c018	0.02841191
159	0x3c50520a	0.012714872
160	0xbb456dc6	-0.0030125245
161	0xbb351580	-0.0027631223
162	0xbcc4ba29	-0.02401455
163	0x3b36937c	0.0027858904
164	0x3d5e5502	0.05428029
165	0xbdfd0f5e	-0.12356447
166	0xbb905f40	-0.004405886
167	0xbc2995b5	-0.010350634
168	0xbdb71400	-0.089393616
169	0x3d1930c4	0.037400022
170	0xbca16856	-0.019703072
171	0x3c1f29a6	0.00971452
172	0x3e166ad2	0.14689186
173	0x3c85505e	0.016273674
174	0xbd91477e	-0.07093714
175	0x3dcedf7b	0.10101219
176	0x3d81b27b	0.063328706
177	0xbc9fcf7b	-0.019508114
178	0xbd1c1831	-0.03810901
179	0xbcaf9892	-0.021435056
180	0xbb9b3b92	-0.004737326
181	0x3d7c1b94	0.061549738
182	0xbc94a096	-0.01814298
183	0x3d5f2d51	0.054486576
184	0xbbf6c22e	-0.0075304722
185	0x3d5bf87d	0.053703774
186	0xbd91eb01	-0.071249016
187	0xbddab2e8	-0.10678655
188	0x3c3bdafe	0.011465786
189	0x3cf7fbca	0.03027143
190	0x3e3cde5d	0.184442
191	0xbd4b8ce0	-0.049694896
192	0x3d8a362f	0.06748616
193	0x3c72b709	0.014814147
194	0xbd3ede0c	-0.04659848
195	0x3aa30ffe	0.0012440679
196	0xbd05a947	-0.03263214
197	0xbc8fe9a7	-0.017567469
198	0x3e15c478	0.14625728
199	0xbc475700	-0.0121667385
200	0x3d22ff17	0.039794054
201	0xbd1abc69	-0.03777734
202	0xbc8d044e	-0.017213967
203	0x3dba3a20	0.09093118
204	0xbd5b033a	-0.053469874
205	0x3dd0f1b0	0.10202348
206	0xbae7cb4c	-0.0017684489
207	0xbcd22cdb	-0.025656154
208	0xbd3fc3aa	-0.04681746
209	0x3c7d150d	0.015446913
210	0x3d86138a	0.065466955
211	0xbd024ac4	-0.031809583
212	0xbd84da2a	-0.06486924
213	0x3ccc0c0e	0.024908092
214	0xbdffcb19	-0.1248991
215	0xbc8bb7ad	-0.017055357
216	0xbd0d50b0	-0.034500778
217	0xbdaecb6c	-0.085348934
218	0x3d786c20	0.06064999
219	0xbce51c13	-0.027967488
220	0xbd1bbe43	-0.038023245
221	0x3b737aec	0.0037152125
222	0xbc235aeb	-0.009970407
223	0x3ce15c3e	0.027509805
224	0x3d10c7c3	0.035346758
225	0xbdafaa91	-0.08577455
226	0x3d4af1ac	0.049546883
227	0x3da664fe	0.081247315
228	0xbc9ef9da	-0.019406248
229	0xbd22078e	-0.039557986
230	0xbe00e8d9	-0.12588824
231	0x3c1ab9f2	0.009443747
232	0x3d8f82a8	0.070073426
233	0xbcf1be7f	-0.02950978
234	0x3d836ec7	0.064176135
235	0xbd86ad76	-0.06576054
236	0xbd4ff76e	-0.050773077
237	0x3d9e0ab4	0.07716885
238	0x3dda860a	0.10670097
239	0x3d0ee0d3	0.034882378
240	0x3ddb9338	0.10721439
241	0x3cc75bd7	0.024335785
242	0xbdacaef5	-0.08431808
243	0x3cd840b4	0.02639804
244	0xbd3fb231	-0.046800796
245	0xbde6bfc3	-0.112670444
246	0x3b15d758	0.002286395
247	0x3dbae368	0.091254056
248	0xbcb82fe2	-0.02248377
249	0xbd732687	-0.059362914
250	0xbdb184ef	-0.08667933
251	0xbe15c054	-0.14624149
252	0xbd40c2c3	-0.04706074
253	0x3ca47ec2	0.020079974
254	0x3d2c8a9e	0.042124383
255	0xbcfd7261	-0.03093833

lstm_cell/MatMul_6 f4 [64, 64]
0	0xbdc515e6	-0.096233174
1	0x3e0add2f	0.13560937
2	0x3c7a656b	0.015282969
3	0x3c8e118d	0.017342353
4	0x3d8efec6	0.06982188
5	0x3b56b7da	0.0032763393
6	0xbdf5d8ed	-0.12004266
7	0x3c9c10dc	0.019051008
8	0xbd6ac421	-0.05731595
9	0xbd5bc0ce	-0.05365067
10	0x3d8c5ea6	0.0685399
11	0xbca55c31	-0.020185562
12	0xbd86b9e2	-0.06578423
13	0x3b0504c6	0.0020297035
14	0xbda73a67	-0.08165436
15	0xbd7d1440	-0.06178689
16	0xbc0287f5	-0.007966985
17	0xbd870cda	-0.06594248
18	0xbc7f0e69	-0.0155674005
19	0x3c7897c8	0.015172906
20	0x3e02ff28	0.12792647
21	0x3bb1cf90	0.0054263547
22	0x3d5c5965	0.05379619
23	0xbda9f739	-0.08299107
24	0xbd803707	-0.06260496
25	0xbe00b4cd	-0.1256897
26	0x3dc6afe6	0.09701519
27	0xbc675d86	-0.014121419
28	0x3dbc215b	0.091860496
29	0x3d2a9357	0.04164442
30	0x3d33fcdd	0.04394232
31	0xbca827d1	-0.020526798
32	0xbce0a7e8	-0.027423814
33	0xbd165cef	-0.036709722
34	0x3d8efc21	0.069816835
35	0xbd3d3f56	-0.04620298
36	0x3afad6a4	0.0019137454
37	0xbbb78949	-0.0056010825
38	0x3d50332b	0.050830048
39	0x3d190656	0.037359558
40	0xbdce9400	-0.100868225
41	0x3d7455de	0.0596522
42	0xbd10a111	-0.035309855
43	0xbdbbd9b5	-0.09172384
44	0xbd9961d8	-0.07489365
45	0x3d93d862	0.07219006
46	0xbc86b230	-0.016442388
47	0x3ca87532	0.020563696
48	0x3dafebb4	0.08589879
49	0x3df3e887	0.119095854
50	0x3cb8f810	0.022579223
51	0x3bd999d0	0.0066406503
52	0x3cfbae04	0.030722626
53	0x3df892fa	0.121374086
54	0xbd39d022	-0.045364507
55	0x3d93bdc0	0.07213926
56	0x3dde74f8	0.10862154
57	0x3b192d2c	0.0023372872
58	0x3d8e4a7a	0.06947799
59	0x3d80639a	0.062689975
60	0x3cf644f3	0.030062174
61	0xbd5d05f1	-0.053960744
62	0xbd3512dc	-0.04420744
63	0xbcd505d0	-0.026003748
64	0xbd731c89	-0.059353385
65	0x3a6ab178	0.00089528365
66	0xbd866d20	-0.06563783
67	0xbcf8f484	-0.030390032
68	0x38465680	4.7287438e-05
69	0xbb2fa698	-0.0026802178
70	0x3d08e7cf	0.033424195
71	0x3bd90336	0.006622697
72	0xbe0c9bce	-0.1373131
73	0x3c8d5204	0.017251022
74	0xbc1d8f5c	-0.009616699
75	0x3c4cf925	0.012510573
76	0xbd07b65c	-0.033132896
77	0xbdeefac1	-0.11668921
78	0x3cdfd694	0.027323999
79	0x3cdad43c	0.02671253
80	0x3d628cdd	0.05531012
81	0xbce6eb50	-0.028188378
82	0x3e1129a0	0.14176035
83	0xbda76de9	-0.081752606
84	0x3d7f3a96	0.06231173
85	0x3d52d468	0.051472098
86	0x3dbf1012	0.09329237
87	0xbd96e2a9	-0.07367451
88	0xbc314fc4	-0.01082224
89	0xbd5d8720	-0.054083943
90	0x3c5a9bf0	0.013342842
91	0x3d5061b5	0.05087443
92	0x3b87e9ee	0.0041477596
93	0xbcc690a3	-0.02423889
94	0xbc981e02	-0.018568996
95	0x3d34a5a7	0.04410329
96	0x3d601bad	0.054713894
97	0xbd3bf47b	-0.04588745
98	0xbded4fc6	-0.11587481
99	0x3c193ba6	0.0093526
100	0x3c1d1c92	0.009589331
101	0xbd9b63ce	-0.075873956
102	0xbc872828	-0.01649864
103	0x3e487e16	0.19579348
104	0x3c9b085c	0.018924884
105	0xbba5cd94	-0.005059907
106	0xbc9f662e	-0.019457903
107	0xbc752ff9	-0.014965051
108	0xbd035dda	-0.032071926
109	0x3db64c3e	0.08901261
110	0xba888970	-0.0010416936
111	0x3d23ea44	0.040018335
112	0x3d87d5b8	0.066325605
113	0x3cf2a312	0.029618774
114	0x3cb81047	0.0224687
115	0xbc0c5907	-0.008566148
116	0xbcde75de	-0.027155813
117	0xbd8867bc	-0.06660411
118	0x3d3f3d38	0.046689242
119	0xbba3fe68	-0.005004693
120	0xbd4f2903	-0.05057622
121	0x3b0697c0	0.0020537227
122	0x3c29baf4	0.0103595145
123	0xbd82d1fb	-0.06387707
124	0xbd336d1b	-0.043805223
125	0xbd9d66d5	-0.07685629
126	0x3cd4f0fd	0.025993818
127	0x3b923cb6	0.0044628037
128	0x3e078582	0.13234523
129	0xbd20f080	-0.03929186
130	0xbd454b03	-0.04816724
131	0xbd390488	-0.045170337
132	0xbd0482f6	-0.032351457
133	0x3c828f60	0.015937507
134	0xbc216e24	-0.00985292
135	0x3d6acefc	0.057326302
136	0xbcdc27f7	-0.026874525
137	0x3b4178f8	0.0029521566
138	0xbd1b2ebf	-0.037886377
139	0xbdc925e7	-0.098216824
140	0xbc935767	-0.017986013
141	0x3aecd93e	0.0018070114
142	0x3cd482d0	0.025941283
143	0xbcdb6d27	-0.026785446
144	0xbd295e9a	-0.041349985
145	0xbc5f7896	-0.01363959
146	0x3d6de11c	0.05807601
147	0x3d0f72ea	0.0350217
148	0x3cc8f25f	0.024529634
149	0x3b038578	0.0020068567
150	0x3c0cecde	0.008601395
151	0xbc2229c5	-0.009897654
152	0xbd8564bb	-0.065133534
153	0x3dbec5ef	0.093150966
154	0xbc7da5a3	-0.015481385
155	0x3d04b612	0.0324002
156	0x3b8aa460	0.004231021
157	0xbc22628f	-0.0099111935
158	0x3d7ecd2c	0.062207386
159	0x3e0e2837	0.13882528
160	0x3d882c81	0.066491134
161	0x3c92c0a6	0.017914128
162	0xbcb98cd0	-0.022650152
163	0x3cdc4c69	0.026891904
164	0xbd2574ce	-0.040394597
165	0x3acacb58	0.0015471978
166	0x3df90276	0.121586725
167	0x3c133a8c	0.008986127
168	0x3d53966c	0.051657125
169	0x3ca7c410	0.020479232
170	0xbcc495da	-0.023997236
171	0x3d174518	0.036931127
172	0xbe409c2b	-0.18809573
173	0x3dd70134	0.10498276
174	0xbd8b9ef2	-0.06817426
175	0x3ca23476	0.019800406
176	0xbd69f5f1	-0.057119314
177	0x3d191fed	0.037383962
178	0x3d4922ea	0.049105562
179	0xbd1f4889	-0.038887534
180	0x3df40a8c	0.11916074
181	0x3bbddf70	0.005794458
182	0xbd8b5fec	-0.06805405
183	0xbc9548f3	-0.018223261
184	0x3cc436e4	0.023951955
185	0xbc99e2a8	-0.018784836
186	0x3d98ddb8	0.074641645
187	0x3d13c062	0.036072142
188	0xbdf54b57	-0.119772606
189	0xbd2e417e	-0.042542927
190	0x3d6127f2	0.054969735
191	0xbcfdf86c	-0.031002246
192	0xbd039ea7	-0.032133725
193	0xbd2cd499	-0.042194936
194	0x3d0edf85	0.034881134
195	0xbd99613e	-0.074892506
196	0x3d2579c3	0.040399324
197	0xbd21d818	-0.039512724
198	0x3d00d402	0.031452186
199	0xbda8e3a3	-0.08246543
200	0xbcec12c8	-0.02881755
201	0xbc61bc84	-0.013777856
202	0x3d85de94	0.06536594
203	0x3d7951cf	0.060869034
204	0x3d3e5a7f	0.046473023
205	0x3da027d2	0.07820095
206	0x3c44ac8c	0.012004029
207	0xbcbd8541	-0.02313483
208	0x3c521ebb	0.0128247095
209	0xbc318e56	-0.010837158
210	0xbcb5d06d	-0.022194112
211	0x3ced883c	0.028995626
212	0xbdd8ff8a	-0.10595615
213	0xbdc2a2c6	-0.09503703
214	0xbd86844a	-0.06568201
215	0xbdcddeb7	-0.10052245
216	0xbcd34ec3	-0.025794392
217	0x3cad0693	0.021121299
218	0xbd1331c8	-0.035936147
219	0xbd99c0ce	-0.07507478
220	0xbca480b1	-0.020080896
221	0xbd8bae2e	-0.068203315
222	0x3d93ee02	0.07223131
223	0x3e078e17	0.13237797
224	0xbd8903fc	-0.06690213
225	0x3ce34da8	0.02774699
226	0x3d834723	0.064100526
227	0xbd302b96	-0.043010317
228	0xbe328aac	-0.17435712
229	0x3d4e7c90	0.05041176
230	0x3b15187c	0.002275019
231	0xbd13c248	-0.036073953
232	0xbc87173d	-0.016490573
233	0xbc29763d	-0.010343132
234	0x3973eec0	0.00023263227
235	0x3d96b4d4	0.07358709
236	0x3bb5b644	0.0055454094
237	0xbd481049	-0.048843656
238	0xbd2bc8c0	-0.041939497
239	0xbd829d39	-0.06377644
240	0x3dcc259d	0.09968112
241	0x3d04c55e	0.032414787
242	0xbccc391e	-0.02492958
243	0x3c16bbef	0.00920008
244	0x3d2d39a8	0.042291313
245	0xbb8d7eec	-0.004318109
246	0x3ddf7171	0.10910309
247	0x3d34fdd4	0.044187382
248	0x3d306890	0.04306847
249	0x3da4ac67	0.08040696
250	0x3cbdc9ce	0.023167517
251	0xbd453262	-0.048143752
252	0x3d94f4e0	0.07273269
253	0xbe23053e	-0.15919968
254	0xbc3ceda6	-0.011531269
255	0x3e15a05d	0.14611955

lstm_cell/MatMul_7 f4 [64, 64]
0	0x3cd98a1c	0.026555113
1	0xbd92be6e	-0.07165228
2	0x3d8c1d01	0.068414696
3	0xbd80658d	-0.06269369
4	0xbc916577	-0.017748578
5	0xbc45c116	-0.012069961
6	0x3d18b0d7	0.037278023
7	0xbd74300c	-0.059616134
8	0x3d98f58a	0.07468708
9	0xbd97a7b8	-0.07405037
10	0xbd551535	-0.052022178
11	0x3c290d65	0.010318135
12	0x3d88a78b	0.06672581
13	0xbd0d6a4a	-0.034525193
14	0x3d7588ee	0.05994504
15	0x3c934c7f	0.017980812
16	0x3db6eeb5	0.089322485
17	0xbd3ee201	-0.046602253
18	0x3d76da75	0.06026693
19	0x3d874953	0.06605782
20	0x3d30fcc6	0.043209814
21	0x3b63efc8	0.0034780372
22	0x3ddedaf8	0.10881609
23	0xbd7347ad	-0.059394527
24	0xbd96421e	-0.073368296
25	0x3b570bd4	0.0032813447
26	0x3d1ea940	0.038735628
27	0x3d885be6	0.06658153
28	0x3ce3904e	0.02777877
29	0xbdf7daa3	-0.121022485
30	0xbd19a7b5	-0.037513454
31	0x3d3aa5c4	0.045568243
32	0x3e0395d9	0.12850131
33	0x3cba78f2	0.02276275
34	0xba6e8900	-0.0009099394
35	0x3c2f61cb	0.010704468
36	0xbc5347dd	-0.0128955515
37	0xbe0cace1	-0.13737823
38	0xbd053e98	-0.032530397
39	0xbd170a23	-0.0368749
40	0x3d5f7077	0.054550614
41	0x3d59c9ba	0.053170897
42	0x3ca64d58	0.020300552
43	0xbb89e4b4	-0.0042081717
44	0x3df8c78a	0.12147434
45	0x3d2fa9b6	0.04288646
46	0xbdb45188	-0.08804613
47	0x3d2a279d	0.041541684
48	0xbcf96fb2	-0.030448768
49	0x3ce79ce9	0.028273063
50	0xbd8db1f5	-0.06918708
51	0x3c50be99	0.0127407545
52	0x3d21b381	0.03947783
53	0xbd8d9fd4	-0.069152504
54	0xbd1390d0	-0.036026776
55	0x3dbb5f84	0.091490775
56	0x3c7d4a0d	0.01545955
57	0x3e080d96	0.13286433
58	0x3d14b0d2	0.03630144
59	0x3dd5535c	0.1041629
60	0x3ccb37a4	0.024806805
61	0xbd50b993	-0.050958227
62	0x3d1d7268	0.038439184
63	0xbc3de90e	-0.011591209
64	0x3d7518b5	0.059838016
65	0x3c9e9d06	0.019361984
66	0x3dd960a6	0.10614137
67	0x3de6e21c	0.11273596
68	0x3badda58	0.0053055696
69	0xbcd1fc61	-0.025633039
70	0xbaeb2490	-0.0017939974
71	0xbd8fdf1b	-0.07024976
72	0xbdf0cef2	-0.11758222
73	0x3db3d9c9	0.087817736
74	0xbb929b56	-0.004474084
75	0xbd7fd6d1	-0.062460724
76	0x3c625e58	0.013816439
77	0xbd04a82e	-0.03238695
78	0xbe022782	-0.12710384
79	0x3d2f3dd7	0.042783584
80	0xbd9b47bc	-0.075820416
81	0x3d73049d	0.05933057
82	0xbdaf1339	-0.08548588
83	0xbcad983c	-0.021190755
84	0x3db49467	0.08817368
85	0xbd8e161d	-0.069378115
86	0xbdc5b0f4	-0.09652892
87	0xbde35192	-0.11099543
88	0xbcdea882	-0.02717996
89	0x3d4162f6	0.047213517
90	0xbdc7ba5c	-0.09752342
91	0xbdd14f78	-0.102202356
92	0x3d63bd15	0.055600245
93	0x3c9966de	0.018725809
94	0xbdcda0ee	-0.100404605
95	0x3b98e578	0.0046660267
96	0xbd4f8869	-0.0506672
97	0x3c21d620	0.009877712
98	0xbbf32090	-0.0074196532
99	0xbca4f855	-0.020137945
100	0x3c8f8bcc	0.017522715
101	0xbd8f9af3	-0.07011976
102	0xbd26a257	-0.040682163
103	0x3d5f365c	0.0544952
104	0xbc8a369b	-0.016871741
105	0x3d87a362	0.0662296
106	0xbc3c8309	-0.011505851
107	0xbdc5f41b	-0.096657
108	0xbcda6c2d	-0.02666291
109	0xbdbb3662	-0.09141232
110	0x3ddfdd6f	0.10930907
111	0x3ddbfe3e	0.10741852
112	0x3cfe637f	0.031053303
113	0xbd805287	-0.06265741
114	0xbdb8a909	-0.09016616
115	0xbc00ead0	-0.007868484
116	0xbd76a724	-0.06021799
117	0xbd529221	-0.05140889
118	0xbd16b7e2	-0.036796458
119	0x3ca3ca22	0.019993845
120	0x3daed5a6	0.08536844
121	0x3bd564dc	0.0065122675
122	0x3d84c908	0.06483656
123	0xbd564892	-0.052315302
124	0x3d6ee8de	0.05832755
125	0x3c03b26c	0.008038145
126	0xbc40bf41	-0.0117643485
127	0x3d3d696a	0.04624311
128	0xba6a5665	-0.00089392654
129	0xbc2a59ba	-0.010397369
130	0xbd4874ce	-0.04893952
131	0x3d3cdf84	0.0461116
132	0x3cf222f1	0.029557677
133	0xbc7f6400	-0.015587807
134	0x3d0ba66e	0.034094267
135	0xbe1772de	-0.14789912
136	0xbd169cdf	-0.036770698
137	0xbd4aa9f1	-0.049478475
138	0xbb4ee99a	-0.0031572343
139	0xbd55bc2f	-0.05218142
140	0xbbca2ee1	-0.006170139
141	0xbccc80d9	-0.024963783
142	0xbbc763dc	-0.006084902
143	0xbcd0a22d	-0.025467956
144	0x3c4e7ebc	0.012603458
145	0x3df99430	0.12186468
146	0x38acafe0	8.2343584e-05
147	0x3d97d3dc	0.07413456
148	0xbd835aff	-0.064138405
149	0xbc09dc46	-0.008414334
150	0x3d91161e	0.07084297
151	0xbc2d08d2	-0.010561185
152	0xbce83f6c	-0.028350554
153	0x3d032a39	0.03202269
154	0x3d4316b7	0.047629084
155	0xbc8c78eb	-0.017147502
156	0xbd79f874	-0.06102796
157	0x3ccaccc7	0.024755849
158	0xbd5b48c3	-0.053536188
159	0xbc8a014b	-0.01684632
160	0x3d821f7b	0.06353661
161	0xbe1e0e9a	-0.15435258
162	0x3d982369	0.07428629
163	0xbd01c641	-0.03168321
164	0x3d21507d	0.0393834
165	0x3ddc2081	0.10748387
166	0xbd824e07	-0.06362539
167	0x3ca356cb	0.019938847
168	0xbd0355bf	-0.032064196
169	0x3c8a1c77	0.016859276
170	0x3cd22c94	0.025656022
171	0xbccc5e6a	-0.024947364
172	0xbe0f8e73	-0.14019184
173	0x3d96a4ae	0.07355629
174	0x3a1a59c0	0.00058880076
175	0xbc8ded62	-0.017325107
176	0xbdf17f9e	-0.11791919
177	0x3c2b3348	0.010449238
178	0x3cead1fb	0.02866458
179	0x3d5674fe	0.052357666
180	0xbde2fc95	-0.110833324
181	0xbcbd5cc2	-0.02311552
182	0x3d13ce02	0.036085136
183	0xbcc60e06	-0.024176609
184	0xbd92f622	-0.07175852
185	0x3c9b3b7e	0.018949267
186	0xbc0f6b14	-0.008753557
187	0xbd046e88	-0.032331973
188	0x3d03bd5c	0.03216301
189	0xbc6d484f	-0.014482572
190	0x3ae2c8a0	0.0017302223
191	0xbd1e1278	-0.038591832
192	0xbc4459db	-0.011984314
193	0x3ca33d36	0.019926649
194	0xbd884df9	-0.06655497
195	0x3a712b50	0.00091998745
196	0xbd51d6b8	-0.051230162
197	0xbcadd1f3	-0.021218276
198	0x3d149edf	0.036284324
199	0x3d06d61b	0.03291903
200	0xbd3c63dd	-0.045993675
201	0x3dcd2c74	0.100182444
202	0x3b59c5a4	0.0033229375
203	0xbc555a16	-0.013021966
204	0xbce2713c	-0.027641885
205	0xbda6ea6c	-0.08150181
206	0x3d4adecd	0.049528886
207	0x3cf9ce64	0.030493923
208	0x3d99ec64	0.07515791
209	0x3d4acb00	0.049510002
210	0xbd18357c	-0.03716038
211	0xbdd27efe	-0.10278128
212	0x3c034738	0.008012585
213	0x3de83164	0.113375455
214	0x3d9f5b9a	0.077811435
215	0x3d5ab946	0.053399347
216	0x3b003abc	0.0019566258
217	0x3c84b91d	0.01620155
218	0x3c8ae55d	0.016955072
219	0xbd353e68	-0.04424897
220	0xbcfac07c	-0.030609362
221	0x3b2a51f4	0.002598879
222	0x3db34f20	0.08755326
223	0x3e04f272	0.1298311
224	0x3d40b9ae	0.047052078
225	0x3cd40ae2	0.025884096
226	0x3ba32302	0.0049785385
227	0xbcebcd6e	-0.02878448
228	0x3d5cab92	0.05387456
229	0xbda7e20c	-0.08197412
230	0x3db911e6	0.09036617
231	0x3d285cb5	0.041104037
232	0x3cf08f7c	0.029365294
233	0xbcc6f0ee	-0.024284806
234	0xbd79f340	-0.061022997
235	0x3cfc410f	0.030792741
236	0xbdd68da8	-0.104762375
237	0xbc8c2678	-0.017108187
238	0xbd9aeda8	-0.075648606
239	0xbc557d2e	-0.013030333
240	0x3a103378	0.00055008335
241	0xbd4e1842	-0.050316103
242	0xbdf086fa	-0.11744495
243	0xbb0e1198	-0.0021677967
244	0x3bbe6c40	0.0058112442
245	0xbd8c4bf8	-0.068504274
246	0x3ca41b2f	0.020032493
247	0xbbabcc65	-0.0052428716
248	0x3cef1de4	0.029189058
249	0xbc85f210	-0.016350776
250	0x3d3a09d6	0.045419537
251	0x3d9ad4ed	0.075601436
252	0xbdb75b7a	-0.08952995
253	0x3de55f18	0.11199778
254	0x3a67de40	0.00088450685
255	0x3da82eb2	0.082120314

lstm_cell/split_1 f4 [64]
0	0x3e50827e	0.20362279
1	0x3e401c4f	0.18760799
2	0x3e22d110	0.15900064
3	0x3e114c1f	0.14189194
4	0x3e9ce5ee	0.30644172
5	0x3e32fe9c	0.17479938
6	0x3e3bd8c8	0.18344414
7	0x3e4a9a82	0.19785503
8	0x3e08f71b	0.13375513
9	0x3e977a9f	0.2958574
10	0x3e8933f7	0.2679746
11	0x3e7537c6	0.23947057
12	0x3e8b973e	0.27263826
13	0x3e2faa22	0.17154744
14	0x3e53fdfc	0.20702356
15	0x3e5c549b	0.2151665
16	0x3e3c629e	0.18396994
17	0x3e7787cb	0.24172895
18	0x3e2a847a	0.16652098
19	0x3e99bcee	0.30026954
20	0x3e581888	0.21103108
21	0x3e0f5065	0.13995512
22	0x3e981e1c	0.29710472
23	0x3e2d9c63	0.16954188
24	0x3e66461a	0.22487679
25	0x3e14c1e7	0.14527093
26	0x3e62ee07	0.22161113
27	0x3e505d09	0.2034799
28	0x3e1b189c	0.15146106
29	0x3e193091	0.14959933
30	0x3e937e63	0.28807363
31	0x3e0dc161	0.138433
32	0x3e3c1d57	0.18370567
33	0x3e37652a	0.17909685
34	0x3e216bfa	0.15763846
35	0x3e1f6ecd	0.15569611
36	0x3e3ce56a	0.1844689
37	0x3e62fdbe	0.22167107
38	0x3e3f865f	0.18703602
39	0x3e6a3420	0.22871447
40	0x3e0c4300	0.13697433
41	0x3e38e405	0.18055733
42	0x3e3570bd	0.17718787
43	0x3e6ddde5	0.23229177
44	0x3e6017a0	0.21884012
45	0x3e322a3f	0.17398928
46	0x3e2f16ca	0.17098537
47	0x3e51f79e	0.20504615
48	0x3e3461e3	0.17615466
49	0x3e452417	0.19252048
50	0x3e7ae3f8	0.24501026
51	0x3e3b5a93	0.1829627
52	0x3e14b73a	0.1452302
53	0x3e2046cf	0.15652011
54	0x3e024231	0.12720563
55	0x3e3e75b0	0.18599582
56	0x3e8a3bc1	0.26998714
57	0x3e17b634	0.14815599
58	0x3e33616e	0.17517635
59	0x3e1ee5a1	0.15517284
60	0x3e589156	0.21149191
61	0x3e74a2dd	0.23890252
62	0x3e38f3cb	0.1806175
63	0x3e2bce7a	0.16777983

lstm_cell/split_11 f4 [64]
0	0x3d24cb5c	0.040233
1	0xbc9935ee	-0.018702473
2	0xbdc09730	-0.09403837
3	0x3d8fc9b2	0.07020892
4	0xbda51299	-0.08060188
5	0x3dae762e	0.08518635
6	0xbd31927d	-0.043352593
7	0xbddac655	-0.1068236
8	0x3cf03bf4	0.029325463
9	0x3d92f13e	0.071749195
10	0xbdde643e	-0.108589634
11	0x3e3de261	0.18543388
12	0xbdacceeb	-0.08437904
13	0x3dbf440d	0.093391515
14	0xbd4eb684	-0.05046703
15	0x3db801fa	0.08984752
16	0x3745ebab	1.1796986e-05
17	0xbe3d6188	-0.18494236
18	0xbd0ba048	-0.034088403
19	0x3db42597	0.08796232
20	0x3d793235	0.060838897
21	0xbd127b2f	-0.03576201
22	0xbdd91813	-0.10600295
23	0x3c56a590	0.013100997
24	0x3dcf313e	0.10116814
25	0xbe07622d	-0.13221045
26	0x3ddfe9d6	0.109332725
27	0x3ce4e4fc	0.02794122
28	0x3e18f12e	0.14935753
29	0xbbbe124e	-0.005800522
30	0xbe436033	-0.19079666
31	0x3d80d118	0.062898815
32	0x3d444a8c	0.047922656
33	0x3db7754e	0.08957921
34	0x3dbc946a	0.09207995
35	0xbdf589fc	-0.11989209
36	0xbd4469ad	-0.047952343
37	0x3df8140b	0.12113198
38	0xbd78110c	-0.060563132
39	0xbd9b8c9a	-0.07595177
40	0x39a69cc1	0.00031778778
41	0xbd9d7f32	-0.07690276
42	0xbd329fb4	-0.043609336
43	0x3c13dd1e	0.009024886
44	0x3c6b1eeb	0.014350633
45	0xbd372358	-0.04471144
46	0xbc8641d5	-0.016388813
47	0x3cf92b09	0.030416029
48	0x3d9bed30	0.07613599
49	0x3dd05e36	0.10174219
50	0x3df3ddd9	0.119075485
51	0x3d848235	0.064701475
52	0x3d99f12c	0.07516703
53	0xbd83f028	-0.064422905
54	0xbc52edb5	-0.012874057
55	0xbc369b36	-0.011145404
56	0x3e3284a3	0.1743341
57	0x3d56a74e	0.052405648
58	0xbb1a7db7	-0.0023573467
59	0x3d89a672	0.067212
60	0xbdf53df5	-0.11974708
61	0xbc98f161	-0.018669786
62	0x3c62bfe2	0.013839694
63	0x3d9e0298	0.077153385

lstm_cell/split_12 f4 [64]
0	0x3e4b3202	0.19843295
1	0x3e399a54	0.18125278
2	0x3e21f801	0.15817262
3	0x3e10a468	0.14125216
4	0x3e9b9c5a	0.30392724
5	0x3e309f14	0.17248183
6	0x3e3fe950	0.18741345
7	0x3e4cba41	0.19992925
8	0x3e12e40e	0.14344808
9	0x3e9a3c48	0.30124116
10	0x3e86bd93	0.2631651
11	0x3e82fe6a	0.25584728
12	0x3e8e8288	0.27833962
13	0x3e34d1a7	0.17658101
14	0x3e4cd509	0.20003141
15	0x3e60979c	0.21932834
16	0x3e32cc2e	0.17460701
17	0x3e747abf	0.23874949
18	0x3e35c838	0.17752159
19	0x3e9e8714	0.3096243
20	0x3e6017c8	0.21884072
21	0x3e0f51cf	0.13996051
22	0x3e991624	0.29899704
23	0x3e404636	0.18776783
24	0x3e522aec	0.20524186
25	0x3e125dd7	0.1429361
26	0x3e6717ce	0.22567675
27	0x3e3e30bb	0.18573277
28	0x3e34f846	0.17672834
29	0x3e0a29fe	0.13492581
30	0x3e91e78b	0.28496966
31	0x3e0fd071	0.14044358
32	0x3e3a70c5	0.1820708
33	0x3e42ad6b	0.19011466
34	0x3e2b30d1	0.1671784
35	0x3e159376	0.14607033
36	0x3e4f5cad	0.20250197
37	0x3e60c6f2	0.21950892
38	0x3e3b529d	0.18293233
39	0x3e67756b	0.22603385
40	0x3e020e2f	0.12700723
41	0x3e3442a4	0.17603546
42	0x3e340afb	0.17582314
43	0x3e67a5f7	0.22621904
44	0x3e5aa679	0.21352567
45	0x3e2f1d99	0.17101134
46	0x3e39689c	0.18106312
47	0x3e59a4d3	0.21254282
48	0x3e325561	0.17415382
49	0x3e44bcd9	0.19212665
50	0x3e7d1d97	0.24718319
51	0x3e57bb52	0.21067551
52	0x3e17634d	0.14783974
53	0x3e1c7687	0.1527959
54	0x3e004472	0.1252611
55	0x3e32545b	0.17414992
56	0x3e9117d4	0.28338492
57	0x3e0e3c09	0.13890089
58	0x3e39e99c	0.18155521
59	0x3e161a81	0.14658548
60	0x3e5ae875	0.21377738
61	0x3e7e5574	0.24837285
62	0x3e362529	0.17787613
63	0x3e292ee4	0.16521794

lstm_cell/MatMul f4 [64, 342]
0	0x3dadbdda	0.08483477
1	0x3dd1da5a	0.102467254
2	0xbccffe23	-0.025389737
3	0xbbcb6f15	-0.0062083104
4	0xba086317	-0.0005202754
5	0x3d6011b7	0.054704394
6	0xbaa4d6f9	-0.0012576274
7	0x3cbb6410	0.022874862
8	0xbd34ecb7	-0.04417106
9	0xbd3fec59	-0.046856258
10	0xbc7fd4b4	-0.015614677
11	0x3cd5e9aa	0.026112396
12	0x3cab35cb	0.020899674
13	0xbd8a8ddf	-0.06765341
14	0x3c6c3300	0.014416456
15	0xb826c06f	-3.9756702e-05
16	0xbe1d36c1	-0.15352918
17	0x3da9d994	0.08293453
18	0xbd8229f1	-0.06355656
19	0x3bb1f45a	0.0054307403
20	0x3d01f26b	0.03172533
21	0xbd7a9b0e	-0.061183028
22	0x3d91442a	0.070930794
23	0xbc9b6d46	-0.018973004
24	0xbe223f7e	-0.15844533
25	0x3d9e6544	0.07734159
26	0x3af59c4b	0.0018738596
27	0x3dd72a99	0.10506172
28	0x3cc0d55f	0.023539243
29	0x3cfdfb3e	0.03100359
30	0x3da081cd	0.078372575
31	0xbd2392dc	-0.039934978
32	0x3cf588fa	0.029972542
33	0x3b9af085	0.004728379
34	0x3b87fec4	0.0041502435
35	0x3df60828	0.120132744
36	0x3daf54a6	0.08561067
37	0xbd3fd23c	-0.046831354
38	0xbc967a87	-0.018368972
39	0xbd543ed8	-0.051817745
40	0xbb894d0c	-0.004190093
41	0x3e1fb0bb	0.15594761
42	0x3cdfe32f	0.02733001
43	0x3c902dd6	0.017599981
44	0x3c975767	0.018474294
45	0x3d952326	0.07282095
46	0xbce0a6fe	-0.027423378
47	0x3d519b7e	0.05117368
48	0xbdbfaa2b	-0.09358629
49	0x3cc5ef9c	0.024162106
50	0x3ddf4ed8	0.1090371
51	0x3c06565a	0.008199299
52	0xbc5fd425	-0.013661419
53	0x3dc553e1	0.09635139
54	0x3df7e1df	0.12103628
55	0x3cd743a1	0.026277365
56	0xbdd5ac40	-0.10433245
57	0x3c88854d	0.016665125
58	0xbd80ed59	-0.062952705
59	0x3c8691c9	0.016426938
60	0x3dca7659	0.09885854
61	0xbcbfddc3	-0.023421174
62	0xbd378486	-0.04480412
63	0xbc05325f	-0.008129685
64	0x3dce8b42	0.10085155
65	0xbc433164	-0.011913631
66	0x3dd14035	0.10217325
67	0x3e49364a	0.19649616
68	0x3e372eaa	0.17888895
69	0xbbec22ea	-0.0072063105
70	0xbd8efe7d	-0.069821335
71	0xbb839642	-0.004015715
72	0xbd610d45	-0.054944295
73	0x3d351aa0	0.044214845
74	0xbc9a991a	-0.018871833
75	0xbb288948	-0.0025716592
76	0x3cbd98a0	0.023144066
77	0x3d8b1f98	0.067931354
78	0xbc2bbbeb	-0.010481815
79	0x3dce724e	0.10080396
80	0x3dc5bf55	0.09655634
81	0x3b71472f	0.003681611
82	0xbdc37c74	-0.09545222
83	0x3ad891e4	0.0016522971
84	0x3dcfe5ef	0.10151278
85	0x3b291deb	0.0025805186
86	0x3bf24c77	0.007394369
87	0x3d8f9416	0.07010667
88	0x3dcd4169	0.100222416
89	0xbb6c7e3c	-0.0036085984
90	0x3e297dd3	0.16551904
91	0xbbdb312d	-0.006689212
92	0x3d557700	0.05211544
93	0x3dd24f8e	0.1026908
94	0xbd1ccb49	-0.038279805
95	0x3cdc1658	0.026866123
96	0x3e0e1dd0	0.1387856
97	0xbd5f5015	-0.05451973
98	0xbdbfa560	-0.09357715
99	0x3e0a637f	0.13514517
100	0x3d16487f	0.03669023
101	0xbd724b73	-0.059153985
102	0xba2979f3	-0.000646501
103	0xbb4b196e	-0.00309905
104	0x3e1446c4	0.1448012
105	0x3d8399d6	0.06425826
106	0x3d80b8e9	0.06285269
107	0x3d40b39c	0.04704629
108	0xbd82c156	-0.06384532
109	0x3d4e295e	0.05033242
110	0xbca36139	-0.01994382
111	0xbcc1b123	-0.023644036
112	0x3c0c3b0f	0.008559003
113	0x3d05a4be	0.032627814
114	0x3d909a29	0.07060654
115	0x3ab11b5b	0.0013512181
116	0x3ddabaed	0.106801845
117	0xbd9b9155	-0.07596079
118	0xbd3f2bc5	-0.0466726
119	0xbab5113c	-0.001381434
120	0xbc2658d9	-0.010153019
121	0x3dce9b94	0.10088268
122	0x3ce21a04	0.027600296
123	0xbe0b53fc	-0.13606256
124	0x3d7b19a0	0.061303735
125	0x3da7113f	0.08157586
126	0xbd6d040e	-0.057865195
127	0x3c84f761	0.01623124
128	0x3db6c8da	0.08925028
129	0x3e260095	0.1621116
130	0x3e0c0e8b	0.13677423
131	0x3d71d860	0.059044242
132	0x3ccf2c61	0.025289716
133	0x3c675cf6	0.014121285
134	0xbd6f4c2e	-0.05842226
135	0x3e038f4d	0.12847634
136	0x3d2d26aa	0.0422732
137	0xbdb6864e	-0.08912335
138	0x3d55ee0a	0.052228965
139	0x3da0a986	0.07844834
140	0xbafa9eba	-0.001912079
141	0x3da0dbd4	0.07854429
142	0x3d20d140	0.039262056
143	0x3d954701	0.072889335
144	0xbd719611	-0.058981005
145	0x3c288b1e	0.010287074
146	0x3d8e8c0c	0.069603056
147	0x3d559d47	0.052151944
148	0xbd7482b0	-0.059694946
149	0x3d8cd81a	0.068771556
150	0x3b0c7c6a	0.0021436461
151	0x3dfde05d	0.123963095
152	0xbde5082a	-0.11183198
153	0x3dee3e2e	0.116329536
154	0xbd229119	-0.039689157
155	0x3e095f40	0.13415241
156	0xbdba9feb	-0.09112533
157	0x3d69214d	0.056916524
158	0x3d961b13	0.07329383
159	0x3db2cbee	0.08730303
160	0x3d9ac316	0.07556741
161	0xbd946823	-0.07246425
162	0xbc67bf44	-0.014144722
163	0x3a20cdeb	0.00061342
164	0x3e037682	0.12838176
165	0x3e0cf0f6	0.13763794
166	0x3d379a1c	0.044824705
167	0x3d5c25a7	0.053746846
168	0x3d4f0c22	0.05054868
169	0x3d1e21d1	0.03860647
170	0xbc10b929	-0.008833208
171	0xbd913aba	-0.07091279
172	0xbde28ecb	-0.11062392
173	0xbdb1d895	-0.08683888
174	0x3b190dc3	0.002335415
175	0x3d5b8b12	0.053599425
176	0x3b5d899a	0.003380394
177	0x3d82d272	0.063877955
178	0x3d7dbb93	0.061946463
179	0x3c9525e4	0.018206544
180	0x3d04f8c9	0.032463823
181	0xbd9c019a	-0.07617493
182	0xbb41430e	-0.002948943
183	0x3daaed86	0.08346085
184	0x3ca44bfa	0.02005576
185	0x3e29a046	0.16565046
186	0x3e381bd5	0.17979367
187	0xbe13c0b4	-0.14428979
188	0x3d251ddc	0.04031168
189	0x3c1bc1c4	0.009506647
190	0x3cabd082	0.020973448
191	0xbd9a74ca	-0.07541807
192	0xbc1efdc7	-0.00970406
193	0x3c99cb2b	0.018773636
194	0xbde134f8	-0.10996431
195	0xbc91f19d	-0.017815406
196	0xbcffee45	-0.031241545
197	0x3e094baa	0.1340777
198	0x3d3dff8a	0.04638628
199	0x3d8400c7	0.06445461
200	0xbc38e80f	-0.011285796
201	0x3c59c123	0.013290676
202	0xbdf0ffe4	-0.11767557
203	0x3d63357f	0.05547094
204	0xbd4f70e2	-0.050644763
205	0xbcf9c88f	-0.030491142
206	0x3d8b2164	0.06793478
207	0x3d7e6a8c	0.06211333
208	0x3bb1f8ed	0.0054312856
209	0x3d460ab5	0.048350055
210	0x3daf4199	0.08557434
211	0x3b059b46	0.002038674
212	0xbe1b93ad	-0.15193053
213	0xbd8180c5	-0.06323389
214	0x3c927a77	0.017880661
215	0xbdce199b	-0.100634776
216	0x3dd53aa6	0.10411577
217	0xbcce6862	-0.025196258
218	0xbcb66fd3	-0.022270119
219	0x3d185757	0.03719267
220	0x3bdc6eac	0.0067270603
221	0x3dd3d112	0.10342611
222	0xbc7d1c08	-0.015448578
223	0x3cd88f87	0.026435627
224	0xbd9fd6ca	-0.0780464
225	0x3df46324	0.11932972
226	0x3d9f089d	0.07765315
227	0x3d479625	0.048727173
228	0x3e07548e	0.13215849
229	0xbdb9b479	-0.090676256
230	0xbc9201a3	-0.017823046
231	0xbdbfa7b0	-0.09358156
232	0xbc852613	-0.016253507
233	0x3c9f06de	0.019412454
234	0xbd95ed4b	-0.07320651
235	0x3d8241e3	0.06360223
236	0x3d14eae3	0.036356818
237	0xbd382bf9	-0.04496381
238	0xbe1f9a2e	-0.15586159
239	0x3c18a1f4	0.009315956
240	0xb8539008	-5.044046e-05
241	0xbda5d36a	-0.08096965
242	0x3dca1afe	0.098684296
243	0xbdc5804a	-0.0964361
244	0x3dc2d825	0.095138825
245	0x3dcb1df8	0.099178255
246	0xbc724388	-0.0147866085
247	0xbcd2e2a2	-0.025742833
248	0x3d0e912d	0.03480642
249	0x3da06d47	0.07833343
250	0x3d877ab2	0.06615199
251	0x3d82566f	0.06364142
252	0x3e6ca58c	0.23110026
253	0x3db76bdf	0.08956122
254	0xbe1a3c6c	-0.15062112
255	0xbc923f29	-0.017852383
