Python/SpeechRecognition/asr_nlp_main_sr/models/autonom_manualRNN.tflite (tflite, 549660 bytes, 32 tensors)

sequential_1/dense_2/BiasAdd/ReadVariableOp f4 [20]
00000000: 8d61 be3c 45cd 92bc 8656 2b3c f999 093d
00000010: b759 4e3c ff10 ab3d bbeb b53d 24da ad3c
00000020: 5df5 593c d454 533c c616 783c e765 013d
00000030: 1a77 743c 7c00 66bc dda8 cb3d 9349 843c
00000040: 9013 c93d bcec 263c d375 cc3d 578b 203c
0.023239875 -0.017920146 0.0104576405 0.033594105 0.012594632 0.08352851 0.08882853 0.021222182
0.013303128 0.012898643 0.015142148 0.031591322 0.014920974 -0.014038201 0.099443175 0.016148364
0.098181844 0.010188278 0.09983411 0.009798846

sequential_1/lstm/TensorArrayV2_1 f4 [1, 1, 64]
00000000: 0000 0000 0000 0000 0000 0000 0000 0000
00000010: 0000 0000 0000 0000 0000 0000 0000 0000
00000020: 0000 0000 0000 0000 0000 0000 0000 0000
00000030: 0000 0000 0000 0000 0000 0000 0000 0000
00000040: 0000 0000 0000 0000 0000 0000 0000 0000
00000050: 0000 0000 0000 0000 0000 0000 0000 0000
00000060: 0000 0000 0000 0000 0000 0000 0000 0000
00000070: 0000 0000 0000 0000 0000 0000 0000 0000
00000080: 0000 0000 0000 0000 0000 0000 0000 0000
00000090: 0000 0000 0000 0000 0000 0000 0000 0000
000000a0: 0000 0000 0000 0000 0000 0000 0000 0000
000000b0: 0000 0000 0000 0000 0000 0000 0000 0000
000000c0: 0000 0000 0000 0000 0000 0000 0000 0000
000000d0: 0000 0000 0000 0000 0000 0000 0000 0000
000000e0: 0000 0000 0000 0000 0000 0000 0000 0000
000000f0: 0000 0000 0000 0000 0000 0000 0000 0000
0.0 0.0 0.0 0.0 0.0 0.0 0.0 0.0
0.0 0.0 0.0 0.0 0.0 0.0 0.0 0.0
0.0 0.0 0.0 0.0 0.0 0.0 0.0 0.0
0.0 0.0 0.0 0.0 0.0 0.0 0.0 0.0
0.0 0.0 0.0 0.0 0.0 0.0 0.0 0.0
0.0 0.0 0.0 0.0 0.0 0.0 0.0 0.0
0.0 0.0 0.0 0.0 0.0 0.0 0.0 0.0
0.0 0.0 0.0 0.0 0.0 0.0 0.0 0.0

sequential_1/lstm_2/StatefulPartitionedCall/BiasAdd/ReadVariableOp f4 [256]
00000000: 198b 243e f942 b73d 0215 1b3e 905d 823d
00000010: 8388 083e 96ff 1c3e 7497 0a3e d376 0f3e
00000020: 0654 033e a260 223e ece7 213e 8da3 023e
00000030: 1d4b 0e3e 0bc0 243e b636 1d3e 8182 173e
00000040: 65e7 1b3e 5f28 2e3e 107d de3d e6d2 233e
00000050: 541a 013e a239 253e 42b0 c03d f47e 1e3e
00000060: 2c17 273e 4002 1e3e 0035 133e b573 1e3e
00000070: c184 273e 86cd dc3d b0cb e03d de07 e13d
00000080: 6f96 263e 9743 233e c19f 0e3e 3455 243e
00000090: cc1d 0e3e d227 e83d bad4 fa3d 9c84 133e
000000a0: a2d5 0b3e e566 023e 8add bc3d 7273 f13d
000000b0: 5273 9b3d 6fe8 b13d fd5b 243e 2cf6 8f3d
000000c0: 94ec 173e 99a5 1a3e 335f 263e a73d 233e
000000d0: 74d1 fe3d fa08 1b3e f319 123e 7e61 a63d
000000e0: d365 513d f36a c93d 4e40 283e 3cc6 1f3e
000000f0: d9f0 1a3e c92e e83d b972 153e 8170 bb3d
00000100: 0000 803f 0000 803f 0000 803f 0000 803f
00000110: 0000 803f 0000 803f 0000 803f 0000 803f
00000120: 0000 803f 0000 803f 0000 803f 0000 803f
00000130: 0000 803f 0000 803f 0000 803f 0000 803f
00000140: 0000 803f 0000 803f 0000 803f 0000 803f
00000150: 0000 803f 0000 803f 0000 803f 0000 803f
00000160: 0000 803f 0000 803f 0000 803f 0000 803f
00000170: 0000 803f 0000 803f 0000 803f 0000 803f
00000180: 0000 803f 0000 803f 0000 803f 0000 803f
00000190: 0000 803f 0000 803f 0000 803f 0000 803f
000001a0: 0000 803f 0000 803f 0000 803f 0000 803f
000001b0: 0000 803f 0000 803f 0000 803f 0000 803f
000001c0: 0000 803f 0000 803f 0000 803f 0000 803f
000001d0: 0000 803f 0000 803f 0000 803f 0000 803f
000001e0: 0000 803f 0000 803f 0000 803f 0000 803f
000001f0: 0000 803f 0000 803f 0000 803f 0000 803f
00000200: 4268 f43c 7541 d6bc 8714 19bd 9453 f8bc
00000210: 00f4 6ebc 8e11 fbbc ee99 2fbd 2045 583d
00000220: 7340 63bc ffa1 133d 2c25 37bd b51c c8bc
00000230: 7d68 afbc a9b3 18bd b693 423d 2dd4 813d
00000240: ffba 003d 3b1d 00bd 7761 073d 0689 c43a
00000250: 65c5 a03d afb9 02bd 483e 3fbd 7c9a b43c
00000260: 51d0 51bd 9865 b23c 47c3 f93a 7a9f d83c
00000270: 724d 0ebd 8dc4 d2bc e789 aabc 4dcf d23c
00000280: ff92 dcbc 149f aa3c 78fe 983d 5fca cf3c
00000290: 52e9 73bd 7b91 163c 3e40 4dbc 2547 983a
000002a0: 6fe0 bdbb b793 ad3c 532b 6e3d 59dc d63b
000002b0: 9baa 943c 5a78 2ebd 007d 533d b95f 453d
000002c0: bca3 213c 2c6c ef3c 1ef3 5abd ca57 82bd
000002d0: 4038 223c e6bf 00bd 31af aebb dfb5 503d
000002e0: 48cb 0cbd 6041 6d3d 5384 1ebd bf7a 99bd
000002f0: 2222 70bb b85e 083d 10a4 c2bc f71b 7f3c
00000300: 84c3 273e 068a bb3d 6345 1b3e a03f 883d
00000310: 6a24 0a3e cbaa 1f3e 3353 0a3e e915 123e
00000320: da51 053e 1011 243e 3294 253e af6c 043e
00000330: f4f8 103e 8440 283e cbc0 1e3e 1caa 193e
00000340: 36c1 203e 862c 313e 0cc6 e03d bd33 273e
00000350: b5e4 033e 4f89 273e 616b c83d 911f 213e
00000360: c07a 2a3e da36 203e c340 153e 13f6 203e
00000370: 597d 2a3e f5c5 e03d e701 e43d 5c22 e63d
00000380: c402 283e 603f 253e 29ab 0e3e 7505 263e
00000390: 5e9f 103e 31d5 ea3d 2844 fe3d 0bcc 143e
000003a0: 7949 0d3e 4fda 033e 94ea b83d 1343 f53d
000003b0: 0a20 9c3d d8d6 af3d 2ff2 273e b66c 8e3d
000003c0: 15d5 193e 9c87 1c3e b1e7 293e b489 273e
000003d0: 5bed 003e f395 1c3e e483 143e 53ff a93d
000003e0: b904 4e3d 0b69 cc3d 3ca9 283e f0b6 223e
000003f0: ceaa 1d3e 735c ed3d ad25 173e 32ea bc3d
0.16068687 0.08948321 0.15144733 0.06365502 0.13333325 0.15331873 0.13534337 0.14010172
0.12825021 0.15857175 0.15811127 0.12757702 0.13895841 0.16088884 0.15352902 0.14795877
0.15224989 0.17007588 0.108636975 0.1599842 0.126077 0.16135266 0.094086185 0.15478116
0.16317433 0.15430546 0.14375687 0.15473826 0.16359235 0.10781388 0.1097635 0.10987829
0.16268323 0.15943752 0.13928129 0.16048127 0.13878554 0.1133572 0.122476056 0.14406055
0.13655713 0.12734564 0.09221943 0.117895976 0.07590355 0.08686911 0.16050716 0.070293754
0.14836341 0.15102233 0.16247253 0.15941487 0.12442294 0.15140143 0.14267711 0.08124064
0.051122498 0.09834852 0.1643078 0.15602964 0.15130939 0.113370486 0.14594544 0.09152318
1.0 1.0 1.0 1.0 1.0 1.0 1.0 1.0
1.0 1.0 1.0 1.0 1.0 1.0 1.0 1.0
1.0 1.0 1.0 1.0 1.0 1.0 1.0 1.0
1.0 1.0 1.0 1.0 1.0 1.0 1.0 1.0
1.0 1.0 1.0 1.0 1.0 1.0 1.0 1.0
1.0 1.0 1.0 1.0 1.0 1.0 1.0 1.0
1.0 1.0 1.0 1.0 1.0 1.0 1.0 1.0
1.0 1.0 1.0 1.0 1.0 1.0 1.0 1.0
0.02983487 -0.02615426 -0.037373092 -0.03031329 -0.014584541 -0.03064802 -0.04287141 0.052800298
-0.013870346 0.036043163 -0.044713184 -0.024427751 -0.021412129 -0.037280712 0.04750415 0.063392974
0.031428333 -0.031277876 0.033051934 0.001499445 0.0785015 -0.031915363 -0.046690255 0.02204632
-0.051224057 0.02177696 0.001905539 0.026443232 -0.034741826 -0.025728488 -0.02081771 0.025733614
-0.026925562 0.020827807 0.07470411 0.025365053 -0.059548683 0.009189959 -0.012527524 0.0011617882
-0.005794577 0.0211886 0.058146786 0.006557029 0.018147757 -0.042595245 0.05163288 0.04818699
0.0098656975 0.029226385 -0.05345451 -0.06364401 0.009901106 -0.03143301 -0.005330943 0.050954696
-0.03437355 0.057923675 -0.038700413 -0.07494115 -0.0036641438 0.033293456 -0.023759872 0.015570632
0.16383177 0.09157185 0.15163188 0.066527605 0.13490453 0.15592496 0.135083 0.1426617
0.13019505 0.16022134 0.16169813 0.12932085 0.14157468 0.16430861 0.15503232 0.15006298
0.15698704 0.1730214 0.109752744 0.1632833 0.12880214 0.16360973 0.09786106 0.15734698
0.16648388 0.15645924 0.14575486 0.1571887 0.16649379 0.10975257 0.11133175 0.11237022
0.16407305 0.16137457 0.1393248 0.16213019 0.14123294 0.11466444 0.124153435 0.14530961
0.13797559 0.12876247 0.09029117 0.11975684 0.076232985 0.085859 0.1640098 0.06954329
0.1502269 0.15286106 0.1659229 0.16361123 0.12590544 0.15291576 0.14503437 0.08300652
0.050297473 0.09980973 0.16470808 0.15890098 0.15397188 0.11589899 0.14760466 0.09224357

sequential_1/output/BiasAdd/ReadVariableOp f4 [2]
00000000: b96f 00be b86f 003e
-0.12542619 0.12542617

sequential_1/lstm/lstm_cell/MatMul_7 f4 [1, 64]
00000000: 0000 0000 0000 0000 0000 0000 0000 0000
00000010: 0000 0000 0000 0000 0000 0000 0000 0000
00000020: 0000 0000 0000 0000 0000 0000 0000 0000
00000030: 0000 0000 0000 0000 0000 0000 0000 0000
00000040: 0000 0000 0000 0000 0000 0000 0000 0000
00000050: 0000 0000 0000 0000 0000 0000 0000 0000
00000060: 0000 0000 0000 0000 0000 0000 0000 0000
00000070: 0000 0000 0000 0000 0000 0000 0000 0000
00000080: 0000 0000 0000 0000 0000 0000 0000 0000
00000090: 0000 0000 0000 0000 0000 0000 0000 0000
000000a0: 0000 0000 0000 0000 0000 0000 0000 0000
000000b0: 0000 0000 0000 0000 0000 0000 0000 0000
000000c0: 0000 0000 0000 0000 0000 0000 0000 0000
000000d0: 0000 0000 0000 0000 0000 0000 0000 0000
000000e0: 0000 0000 0000 0000 0000 0000 0000 0000
000000f0: 0000 0000 0000 0000 0000 0000 0000 0000
0.0 0.0 0.0 0.0 0.0 0.0 0.0 0.0
0.0 0.0 0.0 0.0 0.0 0.0 0.0 0.0
0.0 0.0 0.0 0.0 0.0 0.0 0.0 0.0
0.0 0.0 0.0 0.0 0.0 0.0 0.0 0.0
0.0 0.0 0.0 0.0 0.0 0.0 0.0 0.0
0.0 0.0 0.0 0.0 0.0 0.0 0.0 0.0
0.0 0.0 0.0 0.0 0.0 0.0 0.0 0.0
0.0 0.0 0.0 0.0 0.0 0.0 0.0 0.0

lstm_cell/MatMul_4 f4 [64, 64]
00000000: 80d3 75bc 8070 c83b ac83 993d 1014 263c
00000010: 404d 9e3c 9321 cabd d2aa c3bc 6983 0f3d
00000020: 6ae1 093d 0098 5139 cc69 d73d 767a 3fbc
00000030: 3e9a 79bd 6a17 243d 73d8 933b f886 3ebc
00000040: 6c4d cbbb 245a 043e 1411 97bb 8162 5f3d
00000050: 0dd1 793d 3e6a 323d cb4b 1bbe 50cb 2c3d
00000060: 7244 9abc f061 8e3b 3646 7b3d d2d3 f63d
00000070: 14ad c53d 0c7c 69bd 543a 05be 4820 9e3c
00000080: 985d 2cbd c61b 12bd 42df 71bd fd21 aabd
00000090: d15c 9abd ca07 6a3d 00a1 6e3c 817d 9a3d
000000a0: f968 0c3e f014 583d 5384 4dbc b5b2 43bd
000000b0: 7467 c5bd a375 ed3a 60f4 793d 045d 6fbd
000000c0: cacf 233d 12f1 8bbd b212 843d 3274 c53d
000000d0: 0a93 a23d d1b5 58bd 177c a43d bec5 1c3c
000000e0: 876b 2ebc 784e 193d e78b db3c 56ec b1bd
000000f0: 272c f6bc 13d4 163d 61db d6bc 2924 3b3d
00000100: 4106 423d e0f6 56bd df67 62bc 3718 9cbd
00000110: 2932 243d e621 0fbc 8812 0bbd 3a7c 613d
00000120: 2d80 40bd 6939 89bb 9214 31bc 2dd3 093d
00000130: 5cab 5d3d 7970 f73b e291 ef3d ff22 42bd
00000140: 984b c2bc 9c5d 293b ee52 b43d 2b93 113d
00000150: 936d 11bd cd2b b13c ca25 873d 5e62 ecbd
00000160: 9b79 00bd b185 1c3d 9157 ef3c 4418 b53d
00000170: 66eb a33c 0257 e03d b870 2c3b 3323 153d
00000180: e523 bf3b 1802 d7bd bafb 81bc d0ee fd3c
00000190: 4a8d 693d a51a d33c 83c6 553c 685b f33c
000001a0: 2517 0dbd 5b55 b33c 20c1 9bbd d086 a43d
000001b0: ea2b c1bc 9cfc c7bd fa6e b83d 6059 3fbd
000001c0: 9c9a fcbd 2af6 2abd 46db 10bc 3fb3 8abd
000001d0: 24ec a73c 69ab 0dbd eebb bebc d6bd 8ebd
000001e0: 6ae5 2e3d 2774 2bbd 4e6f e93c 7808 bc3c
000001f0: 04ae d739 84d9 863d df6b b2bb e678 fd3d
00000200: 8ab4 443d 888c 453c a08f 173d 4559 d4bd
00000210: 3260 9fbd 99e0 71bd a2a1 5d3b 4877 723d
00000220: 823c 7f3c 5ae8 0ebd ac2e d43c 4efc 37bc
00000230: a96f 013d 302c 9e3d 64fe 173c 36f9 663a
00000240: 32a1 57bd 868b 593d 70d0 383d 9426 943d
00000250: 344f 40bd 5640 7abd 940b 4f3d 1447 99bd
00000260: e070 60bd 262e e4bb a1ea 27bd 2da4 a6bd
00000270: c3c7 913d eee1 07bd b8c2 f4bc 43db c63d
00000280: 9cd1 7f3c 5c44 92bd b376 9e3c 4c7b a2bd
00000290: 7368 853d f337 eb3d a569 943d 4b9a 07be
000002a0: 347e 2ebc da3c 083c 12be 14be 6f1b 773d
000002b0: 04b2 103d 4b48 603d ee85 8cbd d753 19bc
000002c0: ca3f 17bd 6cb1 223d 5ec2 d4bc 72f7 44bd
000002d0: 403c 473d d7a8 b8bd 1430 12bd a37c 20bd
000002e0: 8d34 573d b803 f23d ea9c eebd 4c6e bf3c
000002f0: 212e b63c 3248 4c3c 3991 74bc aa68 57bd
00000300: e6b4 43bb c3f4 d1bd c2a4 0b3c e07f 473d
00000310: 1464 433d 1601 143d b078 b23d 2b65 f93c
00000320: 776c 1c3d 670b e63c 9168 173d 9b52 1ebd
00000330: d8f8 4bbc 2606 ac3b dc55 25bd 216e 5bbd
00000340: 5511 abbd 0a9b cf3a f4e3 e13d d720 a83d
00000350: dda4 80bd 6398 7dbd bd9b 803c 88b5 8d3d
00000360: 1ac4 963d ff66 2ebd b3a6 10be c284 303d
00000370: 817e a43c ff88 8fbd c8a6 f23d d5b2 5b3c
00000380: e380 1dbd f9b5 843d d49c 84bd 1ac1 b3bd
00000390: aa7e aabc 68e7 8bbd 9cb4 7dbd 80fd 6e3d
000003a0: 9bc1 f7bd 8c0f d4bb 4c34 343d 46fd 183b
000003b0: 7ef2 873b d016 83bd 845b 943d d1f6 a1bd
000003c0: db12 9e3c 4663 0ebd 6479 b6bd 45d2 dcbc
000003d0: 800b b53c b939 853d f7de 0cbd 240b 1bbd
000003e0: 9310 84bd c835 a53c 8b75 7cbc fb7f 47bd
000003f0: 8dc1 88bd e296 2bbd 6636 3ebd 4a16 2bbe
-0.015004039 0.0061169267 0.074958175 0.010136619 0.019323945 -0.09869685 -0.023885164 0.035037432
0.033662237 0.00019988418 0.10518226 -0.011686912 -0.060938112 0.040061392 0.0045118867 -0.011628859
-0.0062042978 0.12925011 -0.00461019 0.0545373 0.060990382 0.04355835 -0.15165631 0.04218608
-0.018831465 0.004345171 0.061346255 0.1205212 0.09652153 -0.057003066 -0.13010532 0.019302502
-0.042081445 -0.035671018 -0.059050806 -0.08307264 -0.075372346 0.057136334 0.014564753 0.07543469
0.13711919 0.052754343 -0.012543756 -0.04777785 -0.09638873 0.0018116724 0.06102407 -0.058438316
0.039993085 -0.0683309 0.06448878 0.09641303 0.07938202 -0.05290777 0.08031481 0.00956863
-0.010645754 0.03742835 0.02680011 -0.08687656 -0.03005035 0.036823343 -0.026227655 0.045688782
0.047369245 -0.052481532 -0.01381871 -0.07621806 0.0400869 -0.008736109 -0.03395322 0.055050112
-0.046997238 -0.004187752 -0.010808127 0.03364866 0.0541185 0.0075512496 0.11697747 -0.047396656
-0.023717687 0.002584315 0.0880488 0.03554074 -0.03550489 0.021627331 0.065990046 -0.115421996
-0.031365972 0.038213436 0.02921656 0.08842519 0.020009708 0.109540954 0.0026312303 0.03641052
0.0058331364 -0.10498446 -0.015867103 0.030997664 0.05701951 0.025769541 0.013047817 0.029706672
-0.0344459 0.021891287 -0.07605195 0.08033526 -0.02358051 -0.09764978 0.09005542 -0.046716094
-0.12334177 -0.041738667 -0.008841341 -0.0677247 0.020498343 -0.034587298 -0.023282971 -0.06969802
0.042699255 -0.04185882 0.028495457 0.022953257 0.00041137647 0.065844566 -0.005444988 0.12376575
0.048023738 0.012057431 0.037002206 -0.10368589 -0.0778202 -0.059052084 0.0033818264 0.059195787
0.015578391 -0.034889556 0.025901161 -0.011229588 0.031600628 0.07723272 0.00927696 0.0008810939
-0.052643962 0.053111576 0.045120656 0.07233921 -0.046950534 -0.06109651 0.05054815 -0.0748426
-0.054795146 -0.006963509 -0.040995244 -0.08136783 0.0711818 -0.033174448 -0.029878005 0.097097896
0.01561394 -0.07141945 0.01934371 -0.07933673 0.06514063 0.11485281 0.072467126 -0.13242452
-0.010650206 0.008315289 -0.14525631 0.060328897 0.03532602 0.054756444 -0.068614826 -0.009358368
-0.03692607 0.039719984 -0.025971588 -0.048087545 0.048641443 -0.09016579 -0.035690382 -0.039181363
0.05254035 0.118171155 -0.11651023 0.023368023 0.022238793 0.012468385 -0.014927202 -0.05259005
-0.0029862463 -0.10251763 0.008523168 0.048705935 0.047702864 0.036133848 0.087144256 0.030443748
0.038189378 0.028081609 0.036964957 -0.038652997 -0.012449466 0.0052497564 -0.040365085 -0.053571824
-0.08352915 0.0015839052 0.11029807 0.08209389 -0.06281445 -0.061912905 0.015699262 0.0691939
0.07361622 -0.042578693 -0.1412609 0.043095358 0.020079853 -0.07008552 0.11848217 0.013409336
-0.038452994 0.06480021 -0.06475225 -0.087770656 -0.020812351 -0.068312466 -0.06193982 0.058347225
-0.12097474 -0.00647158 0.043995187 0.0023344322 0.0041487804 -0.064008355 0.07244018 -0.079084046
0.0192961 -0.034762643 -0.08909872 -0.026955733 0.02210021 0.0650515 -0.034392323 -0.03785242
-0.06448474 0.020167246 -0.015408884 -0.048706036 -0.06677542 -0.04189194 -0.046438597 -0.16707721

lstm_cell/MatMul_5 f4 [64, 64]
00000000: c25d 903d d499 fdbb 6889 103d a8b7 463c
00000010: 4644 873c a004 35bd e012 dc3c bfd3 d13d
00000020: 4d0e 183d 9c75 60bc 2257 96bd 2ca3 efbc
00000030: b639 b8bc f2e7 32be 66e1 61bd de40 913d
00000040: dccd 863b ca4f 703d a5c7 823d 308e 84bc
00000050: 4a03 ff3b 2c50 ccbd 4efe 5d3d 9c9f cdbc
00000060: 4c9e 753d ca6a 7dbd e09f 9d3c f2c4 e2bc
00000070: fe27 2b3e 380a 803d 8862 26bd 7a4b c1bd
00000080: 4099 edbc e0f7 44bb ba83 193d 5040 b43b
00000090: 00b4 e838 fe91 463d f898 193e 654b 853d
000000a0: aeff 41bd 0c16 cabc 49f9 5f3c eaf5 86bc
000000b0: 0a71 e9bc 8204 eb3c 7b31 c03d b648 943d
000000c0: 4d82 c93d 27c4 3e3d fdd8 c8bc cff0 b03c
000000d0: fca6 dcbd cd5a 99bc 5432 ae3c 348a 49bd
000000e0: b426 833d 6c5a 213c ae59 19bd 6ed3 e7bc
000000f0: 7157 1cbd 797e 60bd 746a b43d ed32 3c3d
00000100: ee7c 0fbd af25 fabc 677c f93c 4707 7dbc
00000110: 5abc 213d d01a 38bd 02c3 083d bb1d e5bd
00000120: 3c06 853d 1c81 a63d 0dfc 49bc dcaa 9a3b
00000130: 7fdf d83d 3a53 5cbd 42c1 d53c 8a4e 303d
00000140: 0ad4 233c ed8d 13bd 2d18 a8bc ece6 fcbc
00000150: 08c7 e73b 1fa3 d4bc 2275 f93c 361e 493d
00000160: daaa 0dbc 71f5 5ebd 08b7 153d e853 a23d
00000170: 61b4 56bd caa7 49bc 2ec1 c0bd db7b 2cbd
00000180: b40b e2bd 0adc 41bd 5b3c 65bd 10ff be3b
00000190: 943a 6a3d 0c20 d0bd 8c2b 5b3c 2787 ba3b
000001a0: 4e75 8a3d 41b7 683d e412 203c 20ec 903d
000001b0: bee6 8fbc 34bc 1d3d 6c93 6a3d 7e68 c1bc
000001c0: e1eb d63d 10d3 e8bd 48c4 c8bc 9a74 d93b
000001d0: d8e3 a13c 3051 3f3d 09cf 533d 58fb a6bd
000001e0: 0006 23bc ac63 323d 4472 0e3c f3e5 24bc
000001f0: 7047 473d 26fb e4bc 842d dfbd 8402 55bc
00000200: f767 b13d 3289 03be 4e26 90bd dca3 61bd
00000210: e35e 343c f6f4 3bbc e096 483d e876 003d
00000220: 487c 68bd 3119 e5bc f9fa ad3d bca6 a63c
00000230: 1f43 f43c 8651 423d d6ea e1bd 988f c53b
00000240: 36a9 cbbd 04c6 cbbc e0e3 19bb d27c 593d
00000250: 362d 81bd 120b 933d e185 51bd 2395 42bd
00000260: b1b9 2e3d ea09 7fbd 44ef b33d 040a b0bd
00000270: 20e0 333c 440f 163d 5e90 92bc d44f 893c
00000280: 89f1 58bc 4808 22bc e858 ff3a 8013 88b9
00000290: 604f 7a3b 5339 6d3c 1436 863b 55e5 a43d
000002a0: 6e74 633d a68b 773c 0469 983b 3a27 68bd
000002b0: d59c afbc 4848 edbd d792 4fbd 5ffb afbd
000002c0: 68f5 38bc 6eaf 563d 886f e33d aecd 70bd
000002d0: 20aa 843d 7ecc 77bd e6af 993c 316e 9f3d
000002e0: cea3 863d d26e b8bc 060e 573d ce32 76bd
000002f0: 0848 e63d 0962 60bc 4fb5 b13d ff29 303e
00000300: aecd 2e3c 8c09 163c f9fa c03d 2bb8 c83c
00000310: fa44 b9bc a381 b23d d7a5 d73c 5064 563d
00000320: 3e1c e73c 155d b9bb 5c9d 9a3a befa 3dbc
00000330: 3622 96bd 9204 273e a210 613c 2847 e3bd
00000340: 74e5 febc cd0d db3d cc09 05bd 968b b3bd
00000350: ac37 dc3c 3470 6abc 00b0 61bd 361c 40bd
00000360: 48d3 2abb f16a 813c e1f5 b33d e136 243d
00000370: 865b 89bd 4ac0 aa3c a67d 2c3c 58bf a83c
00000380: 4d54 c7bc 5e90 da3c 1384 0d3d 9c47 9fbc
00000390: 0a95 6c3d 9bdd 983d 1a20 baba b633 aebc
000003a0: 0aab a43d 7c3a 9bbb e6ca 19bd 7839 0bbe
000003b0: 0e47 483d ec07 dd3b daa0 9cbb f2a0 12bd
000003c0: e568 0abd 6cb9 2cbb 58cf 63bd b941 8ebd
000003d0: 44b8 c23d 2a76 debb 49af 96bd 1a49 4f3d
000003e0: 91ab 123d 1628 23bc 105c 363c c243 133e
000003f0: 322f d73c d298 803c fc37 813d ad1f 393d
0.07049133 -0.007739285 0.03528729 0.012128748 0.016512047 -0.044193864 0.026864469 0.102454655
0.037123013 -0.013699915 -0.07340838 -0.029252611 -0.022488456 -0.17471293 -0.055146597 0.070924506
0.004113896 0.058669843 0.063857354 -0.016181082 0.0077823745 -0.09976229 0.054197602 -0.025100522
0.059965417 -0.06186942 0.019241273 -0.027681801 0.16714475 0.06251949 -0.04062131 -0.09438224
-0.02900374 -0.0030054972 0.03747914 0.0055008307 0.0001109615 0.048479073 0.14999759 0.06508521
-0.047362976 -0.024668716 0.013670274 -0.016474683 -0.028496284 0.028688673 0.09384438 0.07240431
0.09839306 0.046573784 -0.02451753 0.021599201 -0.10774037 -0.018720055 0.021264233 -0.049204066
0.064038664 0.009848218 -0.03743904 -0.02829906 -0.038169328 -0.054808114 0.08809367 0.045947004
-0.03503125 -0.030535547 0.030454827 -0.01544363 0.039486267 -0.044947445 0.0333891 -0.11187311
0.0649533 0.081300944 -0.01232816 0.004720075 0.105895035 -0.05379031 0.026093129 0.04304365
0.0099992845 -0.036024023 -0.02051934 -0.03087183 0.007073287 -0.025956688 0.030451361 0.049101077
-0.008646691 -0.05443329 0.036551505 0.0792616 -0.052418116 -0.01230807 -0.09411846 -0.042110305
-0.110373884 -0.047328986 -0.055965763 0.0058287457 0.05718477 -0.101623625 0.013377082 0.005692381
0.06760655 0.05681539 0.009770129 0.07076287 -0.017566081 0.038509563 0.0572695 -0.023609396
0.10494209 -0.11368382 -0.024507657 0.0066362144 0.019761965 0.046708286 0.051711116 -0.08153409
-0.009950161 0.043552086 0.008694235 -0.01006459 0.048652112 -0.027951788 -0.10897353 -0.013001088
0.08662408 -0.12845305 -0.07038556 -0.05508791 0.011008951 -0.011471977 0.04897201 0.031363398
-0.05675915 -0.027966114 0.08495135 0.020343177 0.029817162 0.047441028 -0.110311195 0.0060290806
-0.09944384 -0.024874695 -0.0023481771 0.053097554 -0.063074514 0.07179846 -0.051153067 -0.04750551
0.042657558 -0.062265314 0.08785871 -0.0859566 0.0109787285 0.036635652 -0.017891105 0.016761698
-0.01324118 -0.00988967 0.0019481452 -0.0002595447 0.0038194284 0.014478999 0.004095802 0.08051554
0.055530958 0.015108978 0.0046511907 -0.056678034 -0.021437088 -0.11586052 -0.050677147 -0.08592867
-0.011288978 0.052413397 0.11105257 -0.0587899 0.06477761 -0.060497753 0.018760633 0.07784689
0.06574212 -0.02251378 0.05250361 -0.060107045 0.112442076 -0.013695248 0.0867716 0.1720352
0.010669155 0.00915755 0.09422869 0.02450188 -0.022615898 0.087161325 0.026324196 0.05234176
0.02821171 -0.005656848 0.0011796164 -0.011595426 -0.07330744 0.16310337 0.013736876 -0.11097556
-0.031115271 0.10695992 -0.032480046 -0.08766858 0.026882015 -0.014308978 -0.055099487 -0.046901904
-0.0026065875 0.015798064 0.08787132 0.0400914 -0.0670691 0.020843644 0.010528004 0.020599052
-0.02433219 0.026680168 0.034549784 -0.019443326 0.057759322 0.07464143 -0.0014200241 -0.021264892
0.080404356 -0.0047371965 -0.037547015 -0.13596141 0.048895888 0.006745329 -0.004779917 -0.03579802
-0.03379144 -0.0026355637 -0.05561766 -0.06946129 0.09507802 -0.0067889886 -0.07357652 0.050606824
0.03580815 -0.009958288 0.011130348 0.14381316 0.026267622 0.01569787 0.06309506 0.045196224

lstm_cell/MatMul_6 f4 [64, 64]
00000000: 3a66 b93c 7d4f 723d 1463 1f3a 1bd8 3a3d
00000010: 3b72 433d 042a 16bd 3e26 fabb 54eb cb3d
00000020: ccef 553c a618 3c3c 7f18 f6bd 892d 913c
00000030: 8289 8fbd 34e3 d03a 324d 5b3c ef01 953d
00000040: 9f74 27be 8a69 a63d 4a76 b33c c3df 573d
00000050: 2cc8 3fbe 0a04 82bd 225d 80bc 0a3e 3e3d
00000060: 64b8 353d 6a9f 5abc 8050 a73a 890e b9bd
00000070: 0a7a fe3c a324 ba3d 7825 34bd 3db8 7ebd
00000080: 06c6 43bd e442 fdbb 905a 0b3a 0d80 463d
00000090: 3350 303d e0c1 533d c86f cabd 1f86 6a3d
000000a0: 125c a93d 9c56 75bd 5606 81bd e4c3 8bbc
000000b0: 8c37 0e3e 60ab cfba a9da 4a3d 35aa 553d
000000c0: d06a 2b3b 90c6 60bb ac42 a4bd 103c 12bd
000000d0: 28ee 7a3d 8836 5bbd 049e b93b ab21 babc
000000e0: 40b2 bfbc 254b 133d 8e55 0fbd 3631 90bc
000000f0: e657 413d 84e8 ac3d 5230 19bd ee9e 27be
00000100: c1cd 7f3d 9403 863d 0f6e cc3d 01d5 a83d
00000110: 5408 34bd fab3 a3bb b7f4 a5bd 2e61 b33c
00000120: 1d58 ab3d b926 a33d 2168 b6bc d078 e33c
00000130: 5a45 db3d 75fe cf3c 64b0 b23d f0a6 5d3d
00000140: 3e53 2c3d 80f9 cebd 1c83 95bd ee50 87bd
00000150: d7c2 d43d d887 c93d fc68 3ebd d20f 103d
00000160: d3b5 9cbd 2076 ecbb 8012 15bd 18cd b53c
00000170: 3995 95bc 2342 18bc daf6 61bd 8dd8 32bd
00000180: 901b df3b d0c0 5dbd 3a13 153d 9ee7 b1bd
00000190: 1310 203d af99 5ebd 33a9 54bc fe45 f53d
000001a0: 3099 cb3c 307b 9a3a ed62 89bd cc50 5d3d
000001b0: 6cde 913d 7af4 483c 3203 31be d9bc 33bd
000001c0: a000 71bc b647 4abd 0577 1c3d 223d 433d
000001d0: 902c d33c aea6 563d 6402 10bd 3c57 1abc
000001e0: 7c05 5cbd 00e4 1e3b b8a2 bfbd d0d2 79bb
000001f0: 5594 863d cf1c d4bd a19f be3d f892 d63c
00000200: d0d7 44bd fbdb c73d cb20 523d 1dc8 bb3d
00000210: dde3 d0bd 4b7a 1dbc 3b2c 133d 4ef3 bb3d
00000220: 1e82 f8bb ad94 30bd 00c6 c73c be3e 8c3d
00000230: 62eb e5bc 072d 8b3c 3e00 76bb 186c b53d
00000240: 2123 f63d be4f 10be 4c71 c93c 2735 853d
00000250: 129c 8fbd d80d 4cbb 4107 243c ecbc 923b
00000260: 75cf a5bd 322e 62bc 44be 853d e5cc 0d3d
00000270: aa3b 86bd 5c2f c83b 14de 2d3c ce7e cebc
00000280: c728 923d 7b1f d3bd aabb 62bc 3764 e5bd
00000290: f832 ddbb 30c9 eb3b fcaf 41bc ad9b 943d
000002a0: bb17 4e3d 766b 283d 79c3 f33c 0e5a b93c
000002b0: 987e aebb 543a 043a 1a33 96bc baaa 92bd
000002c0: f336 0a3e 0b68 7abd 7ff0 883d f409 e33b
000002d0: 5a29 5f3c 8400 e1bc 265f 0fbd 347e 5bbb
000002e0: c56b 7dbd 1bad 043e 881f 933d 87cd 863c
000002f0: d83c 0bbc 3bdf 943d 6bc9 b5bd 56c2 08be
00000300: cfd4 b1bc ca10 503d b2bd 21bd 5e68 c2bb
00000310: bf81 72bd 5cf0 14be 7833 f73c bfbc e23b
00000320: 3465 d43c 08cc b0ba ca8d 3abd 6fa8 2d3d
00000330: fb04 2f3d 7e69 3c3d d573 e5bc de5d 953c
00000340: 4a38 1a3e a3bf a9bc d4a5 dbbc 0abe 1b3d
00000350: f8e0 473d a7fb 02be ffc7 e53b fc30 573d
00000360: fb46 843c acc5 75bd b06d 253c 36a8 a83c
00000370: fc40 d73c 483b 483d 8ca2 ed3d 3f76 ca3d
00000380: a05c f13a 53d2 9a3d 0794 033d 401a 733d
00000390: d4e4 6fbd 332f 04be 20c4 333c f645 923d
000003a0: 9bfc 23bd 1f7d ab3d 8416 56bd e876 65bd
000003b0: daa6 453c ab7f a0bd c4fc db3d f2f9 213c
000003c0: 10d3 233c 009b 70bb 7a0a 37bd 18cc 2ebd
000003d0: 96b0 c63c 6a3c bcbd 0c7f 333c 42c7 d03c
000003e0: 2e7f d4bd efd9 75bc e7d0 f3bd dfc9 183d
000003f0: 96db 6f3d 9def 1abe d8b0 8bbd 3adb 193d
0.022631753 0.059157837 0.00060801324 0.04561625 0.04771636 -0.036661163 -0.0076339534 0.09956995
0.01305766 0.011480486 -0.12016391 0.017721908 -0.070086494 0.0015936852 0.013385104 0.072757594
-0.16353081 0.08125599 0.02190699 0.05270363 -0.18728703 -0.06348427 -0.01566941 0.046445884
0.0443653 -0.013343671 0.001276508 -0.090359755 0.031064052 0.09089019 -0.043981045 -0.062187422
-0.04779627 -0.0077289212 0.0005315924 0.048461962 0.043045234 0.051698565 -0.09884602 0.057256814
0.08269514 -0.05989705 -0.063000366 -0.017061181 0.13888377 -0.001584392 0.049524937 0.052164275
0.0026156195 -0.003429804 -0.08020529 -0.03570181 0.06126228 -0.053518802 0.005664589 -0.022721132
-0.023400426 0.035960335 -0.0349937 -0.01760159 0.047202967 0.08442786 -0.037399597 -0.1636922
0.06245208 0.06543651 0.099819295 0.08243752 -0.043953255 -0.00499582 -0.08103316 0.021896925
0.08366416 0.0796637 -0.02226645 0.027767569 0.10706587 0.02538989 0.0872505 0.054114282
0.042071573 -0.10106182 -0.07300398 -0.06607233 0.10388725 0.09840363 -0.04648684 0.035171337
-0.07651868 -0.00721623 -0.036394596 0.022192523 -0.018259631 -0.009293112 -0.055167057 -0.04366355
0.0068087056 -0.05413896 0.03639529 -0.086867556 0.03907783 -0.054345783 -0.012979793 0.119762406
0.024853319 0.001178598 -0.06708322 0.054032132 0.07122502 0.012265319 -0.17286375 -0.04388127
-0.014709622 -0.049384795 0.038199443 0.047665723 0.025778085 0.052405052 -0.03515853 -0.009420212
-0.053716168 0.0024244785 -0.09357208 -0.0038120039 0.06571261 -0.10357057 0.093077905 0.026193127
-0.048057377 0.09758755 0.051300805 0.09169028 -0.101997115 -0.009611676 0.035930853 0.09177266
-0.0075838706 -0.04311054 0.024386406 0.068479046 -0.02806634 0.016989244 -0.0037536765 0.08858508
0.12018419 -0.14092919 0.024590157 0.06504279 -0.0701219 -0.0031136181 0.010011495 0.0044780876
-0.0809621 -0.013804959 0.06530431 0.03461923 -0.06554349 0.0061091613 0.01061203 -0.02520695
0.07136684 -0.10308739 -0.013838688 -0.11200755 -0.0067504607 0.0071956143 -0.011821743 0.07256255
0.0503156 0.041118108 0.029756295 0.02262595 -0.0053251497 0.0005044092 -0.018334914 -0.0716147
0.13497524 -0.06113438 0.06686496 0.0069286767 0.013620699 -0.027466066 -0.03500285 -0.003349197
-0.061870355 0.1295666 0.071837485 0.016455425 -0.008498393 0.0726914 -0.08876308 -0.13355383
-0.02170792 0.05079726 -0.03948755 -0.0059328517 -0.059205767 -0.14544815 0.03017591 0.006919473
0.025927164 -0.001348854 -0.045545377 0.04239696 0.04272936 0.045999043 -0.028009335 0.018233236
0.15060535 -0.020721262 -0.026812471 0.038023032 0.04879853 -0.1279131 0.007012367 0.05253695
0.016147127 -0.060002968 0.010096952 0.020588022 0.026276104 0.04888466 0.11603269 0.09885835
0.0018414445 0.075596474 0.03212359 0.059351206 -0.058567837 -0.1290863 0.010972053 0.0714225
-0.040035825 0.08373474 -0.052267566 -0.0560216 0.012063706 -0.07836851 0.107415706 0.009886252
0.009999052 -0.003671348 -0.044687726 -0.042675108 0.024254125 -0.091912106 0.010955583 0.025485639
-0.1037582 -0.015005573 -0.11905079 0.037301894 0.058559023 -0.15130468 -0.0682084 0.037562586

lstm_cell/MatMul_7 f4 [64, 64]
00000000: f936 c5bd 421c 623d e065 f2ba f775 9cbd
00000010: f178 3c3d a79f 943d e7a0 5bbd 1af3 b4bd
00000020: ca09 cbbd cef5 d33d 9416 1c3d fab9 b9bb
00000030: f002 b9bc ed59 19bd 20e6 6abc 2d87 03bd
00000040: 10eb e2ba a077 623d 255b 7bbd b852 f23c
00000050: 62f6 92bd 9ab9 14bd 94fd 1cbc 7881 6d3d
00000060: af26 88bd db29 423e e468 5c3d 29fe 713d
00000070: 7b15 5bbd 9f82 28bd de41 8e3d f0d3 3dbc
00000080: 8e28 d53c 660a edbc 5ee1 2c3d d8e7 943d
00000090: 2d9f 923d 97ce 1a3d 4c05 fcbb 90d9 6b3d
000000a0: 0e82 4f3d 2f59 4abd 7d89 22bd fcb7 b1bb
000000b0: 6bb1 3fbe 1471 ce3d 33de 18bd 76eb 87bd
000000c0: b89c 973d 08b2 a0ba 636b 02be cad8 c93d
000000d0: b99d 1c3d ec61 4b3d ea4a cc3c 2892 8abc
000000e0: 264c c0bc e37c afbd ee41 8d3d 5050 a1bd
000000f0: 2142 24bd eca8 e03c fd92 b63d b694 7fbd
00000100: 5a33 d6bc 5933 65bc 0cc3 30bd 9018 91bc
00000110: c3ed 88bd 4c69 243d 0ec3 84bc 2642 fc3c
00000120: 1c2a 8f3b 7aa3 48bd e737 353d 01d8 e7bb
00000130: 2f56 2ebd 04b3 123d 9bb9 013d 0b5e 8f3d
00000140: 09fd a5bd 4f83 6a3c f09b c33d f078 f9bd
00000150: 991c 9dbc bb91 b33d c571 87bd 5459 d93c
00000160: 300d bbbd 28a0 abbd b191 a23d 94d4 9dbc
00000170: 2896 dbbb ea7d fb3d f753 34be 90c5 c3bc
00000180: 2008 3a3d 628d 9a3d 1c72 423d bd9e 00be
00000190: 5efa 16bd 5907 973c 0420 de3c a380 4abd
000001a0: fa52 8fbc b57f 183e 3ad1 243d 9404 4e3c
000001b0: 73bf de3c 86a1 13bd 13c6 8bbc b7d2 98bc
000001c0: 92cd 9a3c 61b6 51bd ee6c 53bc e215 49bd
000001d0: 7dcd a0bc 281f 413d 2ad2 433d 0ada 15bd
000001e0: 14f7 43bd 5aaf 023d 3c16 ce3c f0be c13c
000001f0: b297 5fbd 0e24 493d eda5 64bd 9448 91bb
00000200: 991d b53c bb74 7abd 16e9 0b3e 8a04 963c
00000210: 905d 6a3d eb7c 0d3d af19 8c3d 8584 06bc
00000220: 840b 743b 0986 d03d 11df 4ebd 1bf3 f93c
00000230: eec9 a1bc 6aa6 80bd f67a 2d3e 8151 003e
00000240: d163 f4bc 0041 ec3d b015 a23d 850d 0ebe
00000250: 945e 49bc 20c3 a13b 41c9 5f3d 7076 25bb
00000260: 98b6 623b 4913 6b3d 6e87 9b3c 2a0a 2e3d
00000270: 9ad1 0cbd 221e 32bd 1adc 07bd 000e b6b8
00000280: dc53 3bbd 2878 423c 3429 3fbd 52fa d43d
00000290: f1a1 533d f6f6 ce3c 6a51 a13d 8002 2cb9
000002a0: 0497 843c 342e 7e3d ec59 56bd 279b c03d
000002b0: a10b f4bd dabe b43d 195e a2bb b3dc 7ebd
000002c0: 32e4 9e3d f266 043d fc8f 81bd 74b0 a8ba
000002d0: 347b 623c d844 83bc f293 573d 7d2b c53c
000002e0: b091 a1bb 9998 51bd a975 473d a9d4 8d3d
000002f0: df15 9bbc 39b9 1cbd 22eb b73d 92be 903c
00000300: 02e8 cebd f306 a83c 3394 523c a6b0 a8bd
00000310: 10cc 6d3a 1099 82bd 4b5c a13d 78c2 3abe
00000320: d0c4 0bbd 52be 10bd fcd1 ccbc 6bf0 2abd
00000330: 7223 e3bc 322e 5fbd b841 7cbd 1eb3 e03b
00000340: 5f41 20bd 80d1 54bb 9253 30bd 5d85 d73c
00000350: cfdb 003d d857 4a3d 41ab dd3c 211d 26bd
00000360: d052 8b3d be87 b1bd d624 e13c 63e5 c3bd
00000370: b70e a1bd d446 f03c f219 5e3d c40c 2abd
00000380: 87ae d5bd 9ab9 efbd 4d9d b13d f8eb 71ba
00000390: c4d2 b33d 19c8 aebc b19c 973d 52e6 5abd
000003a0: 72ad 1dbd 84d1 fc3d b864 a63c 2558 5d3d
000003b0: f728 34bd 8aae 233d 9c35 69bc 42f9 00bd
000003c0: a4b6 633d 8c99 e73c 26e6 063e 1919 d83d
000003d0: f20e 303d 8c00 c2bd 04db 8d3d b225 08bc
000003e0: 422d 71bd c493 d23d eda2 c2bd d678 c0bc
000003f0: 7615 0dbe 61ae b73c aaae b93c 5187 85bc
-0.09629626 0.05520273 -0.0018493496 -0.076396875 0.046013776 0.07257014 -0.053620245 -0.088354304
-0.099139765 0.10349618 0.03810747 -0.005667922 -0.022584409 -0.037439276 -0.014337093 -0.032111336
-0.0017312486 0.055289865 -0.06136622 0.029580459 -0.071759 -0.036309816 -0.009581942 0.0579848
-0.06648003 0.18961279 0.05381097 0.059080277 -0.053487282 -0.041140195 0.06946157 -0.011586174
0.026020315 -0.028935622 0.042207114 0.07270783 0.071592666 0.037794676 -0.007691061 0.05758053
0.05066114 -0.04940146 -0.0396819 -0.005423544 -0.18720023 0.10080162 -0.03732128 -0.066367075
0.074029386 -0.0012260089 -0.12736277 0.09855802 0.038236354 0.049653932 0.024938066 -0.016915396
-0.02347381 -0.08568742 0.06897341 -0.078766465 -0.040102128 0.027424298 0.089147545 -0.06239768
-0.026147533 -0.013989293 -0.04315476 -0.017711908 -0.066859744 0.04013948 -0.01620629 0.03079326
0.0043690335 -0.04898403 0.044242766 -0.00707531 -0.04256266 0.035815254 0.031671148 0.07000359
-0.08104903 0.014313533 0.09551227 -0.1218127 -0.019178675 0.0876803 -0.06613497 0.026531853
-0.09133375 -0.08380157 0.07937945 -0.019266404 -0.0067012496 0.122798756 -0.17610155 -0.023897916
0.045417905 0.07546498 0.047472104 -0.12560554 -0.036859863 0.01843612 0.027114876 -0.049439084
-0.017495621 0.14892466 0.040238596 0.012574334 0.0271909 -0.036042713 -0.017062223 -0.018655164
0.018896852 -0.05119932 -0.012904389 -0.049093135 -0.019629234 0.047148854 0.04780785 -0.03658489
-0.047843054 0.03190551 0.025157087 0.023650616 -0.054588027 0.04910665 -0.0558223 -0.004433701
0.02210884 -0.06114648 0.13663134 0.018312711 0.057218134 0.03454296 0.06840836 -0.008210306
0.003723831 0.10181815 -0.0505057 0.03051143 -0.019749608 -0.06281741 0.16941437 0.12531091
-0.029832752 0.11535835 0.07914293 -0.13872345 -0.012290616 0.004936591 0.05463529 -0.0025247596
0.0034593698 0.05739144 0.018985476 0.042490162 -0.03437958 -0.04348577 -0.03316889 -8.681044e-05
-0.04573427 0.011869468 -0.046670154 0.10399307 0.05166811 0.025264245 0.078768566 -0.0001640413
0.016185291 0.06205578 -0.05233185 0.09404593 -0.119162805 0.088254645 -0.004955065 -0.062222194
0.077583686 0.03232474 -0.06326291 -0.001286997 0.013823319 -0.016024038 0.052631326 0.024068588
-0.0049306974 -0.05117092 0.048696194 0.06925327 -0.018931327 -0.03826258 0.08980395 0.017668996
-0.10102846 0.020511126 0.012852716 -0.08236818 0.000907124 -0.063768506 0.078789316 -0.18238246
-0.034123242 -0.035337754 -0.025002472 -0.041733187 -0.027726863 -0.054487415 -0.06158611 0.00685729
-0.039124843 -0.0032473505 -0.04304845 0.02630871 0.031459626 0.04940018 0.0270592 -0.040555123
0.068029046 -0.08668469 0.027483385 -0.095652364 -0.07864135 0.029330648 0.054223962 -0.04151608
-0.10433679 -0.117053226 0.08672581 -0.00092285825 0.08780435 -0.021335648 0.074029334 -0.053442307
-0.03849549 0.123446494 0.020311698 0.05403914 -0.04398438 0.039961375 -0.014233973 -0.03148771
0.0555941 0.028271459 0.13173732 0.10551662 0.042983003 -0.094727606 0.069265395 -0.0083097685
-0.05888105 0.1028209 -0.09503732 -0.023495119 -0.13777718 0.022422018 0.022666294 -0.016299875

lstm_cell/split_1 f4 [64]
00000000: eaa8 db3d 2a32 893d 3864 aa3d 2f64 da3d
00000010: 1a7f d53d a5d8 ad3d c726 fd3d 4bbd 833d
00000020: c6fe 9c3d c0b9 f43d 3811 823d 2d91 d83d
00000030: f642 ac3d 3387 9b3d 1d38 843d b42b c63d
00000040: 21df b53d 0581 703d 3d77 e23d 63e3 8b3d
00000050: 92ce a43d 31b5 6c3d be0f 8b3d b042 bf3d
00000060: 935c c63d c074 e73d 84e3 953d a7ea de3d
00000070: e611 c93d dd5d fc3d 22e0 7e3d 8950 e63d
00000080: 217b 903d dcad d83d 3eac ce3d 433a aa3d
00000090: 3453 863d 4e74 be3d ddff b93d fbbb b33d
000000a0: e5b2 e13d b676 c73d 0a1b f23d 9683 fd3d
000000b0: 1de7 723d 13c1 993d 5aab 533d d99e d03d
000000c0: 1bc3 673d 4215 973d 3daa d93d b817 cd3d
000000d0: ed0d c93d 5c1d cd3d 25d7 863d 96f8 743d
000000e0: 1f39 d53d 7a03 aa3d 1666 243e 1c95 823d
000000f0: 36f3 6c3d ceb9 d43d 140e d63d 63c8 ed3d
0.10725577 0.06699021 0.083198965 0.1066364 0.10424633 0.08488587 0.12360912 0.06432589
0.07665782 0.119494915 0.063509405 0.10574565 0.08411209 0.075941466 0.06456015 0.096763045
0.08880449 0.058716793 0.11057899 0.0683048 0.08047213 0.057789985 0.06790112 0.093388915
0.09685626 0.11301565 0.07318786 0.108846 0.09817867 0.123225905 0.06222547 0.112458296
0.07054735 0.10580036 0.10091446 0.08311894 0.065588385 0.09299527 0.09082005 0.08776089
0.110204495 0.09739439 0.118215635 0.12378614 0.059302438 0.07507529 0.051677085 0.10186548
0.05658255 0.073771015 0.106281735 0.100142896 0.09817109 0.100153655 0.06584004 0.059807383
0.104112856 0.08301444 0.16054568 0.063760966 0.05784913 0.10387002 0.10451904 0.11610486

lstm_cell/split_11 f4 [64]
00000000: 7697 0cbd ebde c03c 6bbd 57bc fdd9 babc
00000010: 8cc3 573d 5029 ea3c d7f2 f93a 3c7d 093d
00000020: 8f02 403d c5b3 04bd c2c5 203d 7d99 713d
00000030: 0683 35bc eec7 8f3c 0cb1 1e3d 6c62 99bb
00000040: 0d3e 9b3d 609c 363d 3761 27bc 72d7 383d
00000050: e63d a93c d0f1 453b 5f56 5c3c 81cb a73b
00000060: e46c d2bc 4222 3fbc b1a0 5c3d ad29 56bd
00000070: e3eb cebc 0957 41bc 5fbe 783b b4e4 f33c
00000080: 8614 9cbc 6c42 34bb 3748 733c d907 3abd
00000090: 1232 e13c a2f7 903c 7b7c 73bd 6761 4cbd
000000a0: aeb4 043a f6c2 cdbc 3a17 3c3c 6c73 0f3e
000000b0: 9389 bdbc f338 5b3d 5f23 83bc 8485 e93c
000000c0: c120 3fbd d1b8 a739 43e4 d33c 9e9d cf3c
000000d0: cc4d 91bd 2f7d 1e3d 116d 8cbd 9868 f03b
000000e0: f85d 793d a887 1abc 871d 34be f49c dd3c
000000f0: 54e2 82bd ac2c acbd a2ad 82bd 93ff 69bc
-0.034324132 0.023543796 -0.013167719 -0.022809023 0.052676722 0.028584152 0.0019069564 0.0335667
0.04687744 -0.032398004 0.039251097 0.05898427 -0.011078602 0.017551389 0.038743064 -0.0046809223
0.075801946 0.044582725 -0.010216049 0.04512734 0.020659398 0.0030203946 0.013448327 0.005120695
-0.025686689 -0.011665883 0.053864185 -0.05228584 -0.025258964 -0.011800536 0.0037955267 0.02977214
-0.019052755 -0.002750541 0.01484876 -0.04541764 0.027489696 0.017696206 -0.059444886 -0.049897578
0.0005062324 -0.025117379 0.011480147 0.14008874 -0.02313689 0.053521108 -0.016008077 0.028506048
-0.046662096 0.0003199042 0.02586568 0.025343712 -0.07094917 0.038693603 -0.0685674 0.0073366873
0.06088063 -0.009431757 -0.17589389 0.02705238 -0.06390825 -0.08406958 -0.06380774 -0.014282125

lstm_cell/split_12 f4 [64]
00000000: a59e c73d ca05 993d c8d8 b13d 6891 d33d
00000010: 58ac c93d 75b7 b83d 5652 023e 0be2 963d
00000020: 63ef 9e3d 128f fe3d d554 613d b751 e33d
00000030: b2da ba3d e9a4 943d 02fe 983d 5802 c53d
00000040: 9f92 a83d 0651 6c3d 7200 dc3d e350 9a3d
00000050: 7cc5 b23d 689a 833d 5e6c 9e3d 4174 b73d
00000060: 4876 d03d 6fb1 df3d 1579 983d 7601 ed3d
00000070: 5461 d23d d521 fb3d 3074 823d 66aa e43d
00000080: e3d2 573d 6fb6 c73d 1da0 ca3d 1a6f bc3d
00000090: c632 9d3d cb0d be3d bade a23d 68ae a53d
000000a0: 625d e23d b640 c63d 27b3 ec3d d55b 073e
000000b0: d83f 873d 36f0 a23d badf 643d 8ff7 d03d
000000c0: 2919 363d b1d7 9a3d dfec e43d e494 c93d
000000d0: d3d1 bd3d 1119 c43d f4f0 8c3d 0cc3 773d
000000e0: fd31 e43d 6d5f a53d d461 243e b2da 853d
000000f0: 4b9e 593d f211 c23d 9044 e53d e675 f23d
0.09747056 0.07471807 0.08683926 0.103304684 0.09847325 0.09019367 0.12726721 0.07367333
0.07760503 0.12429632 0.055012543 0.1109957 0.09123744 0.072580166 0.07470323 0.09619588
0.08231091 0.057694457 0.107422724 0.07534959 0.087290734 0.06425935 0.07735513 0.089577205
0.1017881 0.10922515 0.074449696 0.11572544 0.1027247 0.12262312 0.06369817 0.111653134
0.05269135 0.09751593 0.098938204 0.092008784 0.076757 0.092799746 0.07952638 0.08089906
0.110529676 0.096803114 0.11557608 0.13218625 0.06603974 0.07955973 0.055877425 0.10203468
0.04445759 0.07560671 0.11177992 0.09842852 0.092685364 0.095750935 0.06881896 0.060488746
0.11142347 0.08074842 0.16052943 0.065358534 0.053129476 0.09476079 0.11194718 0.118388936

lstm_cell/MatMul f4 [64, 125]
00000000: 8070 9cbd b795 3c3d 7616 083e 401e 563d
00000010: 048b 053e 12c3 443c d2d5 c33d 0a10 9bbd
00000020: 054d 75bd 16a2 633e 3eed 2abd e2f0 8abd
00000030: ff87 7cba d665 6a3d cb52 b0bd 8ebc f7bd
00000040: 92e6 29bd b080 b33d 86a3 f6bd 2306 88bd
00000050: 8a84 e13d a2f6 063e 416e a5bd 1240 fc3d
00000060: 3200 a2bc 1c36 f03c 7909 0dbd d290 833d
00000070: b729 aebc bb02 923c d0b7 92bd 0938 d73d
00000080: d073 adbd 2f0f 483d 7b7a 463c 1b1c 3dbd
00000090: 8a0c 833d e894 bd3d 480b 233d 4b39 883b
000000a0: c424 903d 7319 31bc 1c57 cb3d 2984 dc3d
000000b0: e68b 7d3d dfbb 21bd c3c7 a4bd 4816 893d
000000c0: b083 a73d 0410 b13d 272e 573c 65ad 02bd
000000d0: b04b c6bc d124 8e3d c3d5 08be 267d e43c
000000e0: 2b79 5e3d bcda 9b3c d0b9 9e3c 804f d3bd
000000f0: d3a2 6a3d c925 533d 7a1e b03d da13 e93d
00000100: 4e1d 133e 4b2d 81bd b361 203e d104 f5bc
00000110: 9b40 15bd 7041 fcbc de15 2bbd b03f babb
00000120: 4c38 65bd 4369 e93c 36fa f53d d35e c13c
00000130: c833 b03d 9780 f93d 612c ef3d f37d c7bd
00000140: 728f 06bd 2d18 003e 87a2 763d 57ed c53d
00000150: 166a de3d c5c2 83bd d0ce 083d b1b4 eb3d
00000160: 9dee f63d beb2 3c3e 3c85 163e e045 dbbd
00000170: 558f 213d 8c0c 313d f479 363d 0c36 853d
00000180: cee3 153e bbbe 283d d16d c43d 6f2b 55bd
00000190: 96de 1a3b f706 5dbd ff06 463d b77a d83a
000001a0: effc 5cbd d7e5 68bc ae0e 87bd 46bb 403e
000001b0: fe72 98bd b8b2 e3bc 3e09 ef3d 823c 8c3d
000001c0: b4dd e63d 031f c93d 8d59 123e 32c3 403d
000001d0: d25d f6bc 2f56 dabc d005 783c aa4a feba
000001e0: f18e a53d e332 d13d 92a5 84bb 3efd ccbd
000001f0: 23b8 e4bd 35cb dc3d 86b1 b03d 9e9e cabd
00000200: f63a d3bd 42a2 31bd 04cf 8fbd 6188 9a3d
00000210: 33b1 04bd 243d 103c 3564 22be f1f6 dfbd
00000220: a86d 213e 8217 443d 0327 c03d 1508 2e3e
00000230: 958c 4dba c8c4 b63d 88b1 86bc 4960 63bd
00000240: e924 39bc f896 3b3c a3ff 953c c679 d13d
00000250: f8c6 c73d fd90 e4bd 959b 10be eb13 a93d
00000260: 4ef7 a63d b1c3 1b3e bf79 c23d a5f1 143e
00000270: dc06 9f3d 067f c13c eea9 c1bd 3319 383d
00000280: 0624 ffbd a064 053e f413 57bd ba92 993c
00000290: b1d6 fabc 8ab5 8f3d fa1d e13c 36b0 283d
000002a0: f919 953c 0dc1 aa3d a2fc b03d 8fbf 713d
000002b0: c172 e13d d68e 7c3d dd3b c53d 9c13 33bd
000002c0: 606a f6bc f303 52bd 123f 9e3d f9b8 0f3e
000002d0: 72b9 263e c64a e93d 3328 8f3d 4bdb 4e3c
000002e0: fb2e 933d 341e 99bc ef84 50bc 749b eb3c
000002f0: 67a3 c8bd 768c 443e 39b8 1b3e 94d7 0f3d
00000300: 9899 ca3d 3d4a 1e3e 3dfb fcbc bc3c 4e3c
00000310: e64c bbbd 10bc 65bd cbf3 2bbd 4e26 703c
00000320: fdb3 933d 10ad 553d e0ee 1a3e 42ff 3d3d
00000330: 92bf dabc 4f11 03bd 9f65 9abc 12da 3a3d
00000340: 8bd1 2b3e 2bb9 f03c 623f 9dbb e5e1 8d3c
00000350: 9f48 923d fae3 883c aede ed3c 25ea df3d
00000360: e4a3 0e3e bc98 c8bd 07c8 d93d 4301 aa3c
00000370: cd79 27bc 28b7 f0bd bef1 843d f43d adbd
00000380: 4ed3 e0ba e88d 943d edf9 363e 5cbb 393e
00000390: fb45 0f3e 38a6 b2bb 3687 6b3d a1fc a03d
000003a0: 8214 1bbd 4b82 0e3e 2c08 38bd d48e febd
000003b0: 7150 a03d 781d 54bc 520d 65bd f77c a7bc
000003c0: 94e1 bb3c 934d 083e a280 023d 5222 933d
000003d0: bd60 fe3c af54 6fbd f38a e3bc 8c9f f63d
000003e0: a2ca 643e d67e 003e d989 953c 7bbb 423d
000003f0: d5d2 353d 7fe2 21bd b196 4bbd a8fe 72bc
-0.07638645 0.046041217 0.13289818 0.052274942 0.13041312 0.012009399 0.09562267 -0.075714186
-0.059887905 0.222298 -0.041730158 -0.06784226 -0.0009633302 0.057226025 -0.086095415 -0.12096511
-0.041479655 0.087647796 -0.12042908 -0.066417955 0.11011608 0.1318002 -0.0807767 0.12316908
-0.019775484 0.029322676 -0.034432862 0.06424107 -0.021260126 0.017823568 -0.07163966 0.10508735
-0.08469355 0.048842605 0.012114163 -0.04616938 0.06398876 0.09256917 0.03980568 0.0041572205
0.070382625 -0.01080929 0.09928724 0.10767395 0.061900996 -0.03948581 -0.08045914 0.06693703
0.08179414 0.08645633 0.013133562 -0.031903643 -0.024206012 0.06940616 -0.13362794 0.027891707
0.054314774 0.0190252 0.019375712 -0.10317898 0.057284188 0.051549707 0.08599563 0.113807395
0.14366648 -0.06307467 0.1566227 -0.029909523 -0.036438566 -0.030792922 -0.0417689 -0.0056838617
-0.055961892 0.028492576 0.120106146 0.023604786 0.086036265 0.1218273 0.116783865 -0.0974082
-0.032851644 0.12509222 0.060213592 0.096644096 0.10860078 -0.06433634 0.033400357 0.115090735
0.120572306 0.1842756 0.14699262 -0.10706687 0.039443333 0.043224856 0.044549897 0.06504449
0.14637682 0.04119752 0.09591258 -0.052043375 0.0023631207 -0.05396172 0.048346516 0.0016516064
-0.053952154 -0.014214954 -0.06594597 0.18821439 -0.07443808 -0.02779518 0.11671685 0.068474784
0.11272755 0.09820368 0.14291973 0.047061153 -0.030074034 -0.026652424 0.015138105 -0.0019400914
0.080839045 0.10214784 -0.004048058 -0.100092396 -0.11167934 0.10780946 0.0862761 -0.09893535
-0.1031398 -0.04336763 -0.07021907 0.075455435 -0.032395553 0.00880364 -0.15858538 -0.10935772
0.15764487 0.04787398 0.09382441 0.1699527 -0.0007841078 0.08924252 -0.016442075 -0.055511747
-0.011300304 0.011449568 0.018310374 0.102283046 0.09754747 -0.11160467 -0.1412185 0.08255752
0.081526384 0.15211369 0.094958775 0.14545305 0.0776498 0.02362014 -0.0945624 0.044945907
-0.12458043 0.13026667 -0.052509263 0.018746722 -0.030619951 0.07017048 0.027480114 0.041183673
0.018200861 0.08337603 0.08641936 0.059020575 0.11008216 0.061659656 0.09630559 -0.043719873
-0.03008002 -0.051273298 0.077268735 0.14035405 0.1628168 0.11391215 0.06990089 0.012625526
0.07186695 -0.01869116 -0.012727006 0.02876065 -0.097967915 0.19194207 0.15206994 0.0351177
0.09892577 0.15458007 -0.030881518 0.012587722 -0.091455266 -0.056087554 -0.041980546 0.01465757
0.072120644 0.052167 0.15130186 0.04638601 -0.026702676 -0.03199893 -0.018847285 0.045618124
0.16779153 0.02938517 -0.0047988156 0.017319629 0.071427576 0.01671027 0.029036846 0.109333314
0.13929707 -0.09794757 0.10633855 0.020752555 -0.010221911 -0.11753684 0.06491421 -0.08459082
-0.0017152817 0.07253629 0.17868777 0.18137878 0.13991539 -0.0054519437 0.057501994 0.07860685
-0.037861355 0.1391689 -0.04492967 -0.12429586 0.07827843 -0.012946479 -0.055920906 -0.02044533
0.022934712 0.13310842 0.031860955 0.071842805 0.031051988 -0.05843037 -0.027776217 0.1204215
0.22342923 0.12548384 0.018254207 0.047542077 0.04439052 -0.039522644 -0.049704257 -0.014831223
