Python/SpeechRecognition/asr_nlp_main_sr/models/taskClassifierPhonWordEmbeddingRNN.tflite (tflite, 423028 bytes, 12 tensors)

sequential_1/dense_3/BiasAdd/ReadVariableOp f4 [30]
000000 74 19 98 3e 70 79 1f 3f 21 cd 20 3f 3e 50 0a 3f
       0.2970692 0.62294674 0.62813 0.5402869
000010 d1 42 81 3e a7 5c 01 3f 12 61 73 3e bf e2 00 3f
       0.2524629 0.50532 0.23767498 0.5034599
000020 3b 4f dc 3e 05 1d 71 3e fc 47 23 3f 93 47 30 3f
       0.43029198 0.23546226 0.63781714 0.68859214
000030 ec 81 e6 3e 4d cf 11 3f 68 5c 07 3f a0 88 01 3f
       0.45020998 0.5695694 0.52875376 0.505991
000040 b6 d6 a3 3e 42 07 13 3f 70 d0 b4 3e 52 40 2e 3f
       0.3199975 0.5743295 0.35315275 0.68066895
000050 e7 4c 0c 3f 27 55 bd 3e e3 02 6a 3f 84 41 2a 3f
       0.54804844 0.3697903 0.91410655 0.6650622
000060 68 f9 a2 3e 43 50 f5 3e 7a 98 b8 3e 64 ba 7f 3f
       0.31830907 0.47912797 0.3605383 0.99893785
000070 77 20 8a 3e 69 b4 48 3f
       0.26977894 0.78400284

sequential_1/dense_4/BiasAdd/ReadVariableOp f4 [20]
000000 14 97 2b 3e a2 26 90 3e 20 85 91 be 82 20 b3 be
       0.1675685 0.28154474 -0.2842188 -0.3498574
000010 15 c1 45 3d 70 41 be 3d bc af b9 3e e1 88 95 3e
       0.04827984 0.09289825 0.36266887 0.29205993
000020 74 91 87 bb cb be a7 bd c2 44 9b be fa 30 d2 3e
       -0.0041372124 -0.08190688 -0.30325896 0.4105299
000030 69 78 ca 3a 9e aa 10 3e 68 4c 11 3e 4b d6 a9 3e
       0.0015447262 0.14127585 0.14189303 0.33171305
000040 3d 6d 92 bd 26 c6 d0 3e f3 88 b1 3e de 1a 4c 3e
       -0.07149742 0.40776175 0.34674796 0.19932124

sequential_1/dense_5/BiasAdd/ReadVariableOp f4 [6]
000000 36 c9 e9 3d e6 09 3b bf 54 b6 f1 bc 46 af 04 bf
       0.11415331 -0.7306198 -0.029505886 -0.51829946
000010 e8 5e 78 3d c3 0f 10 3f
       0.060637385 0.5627405

sequential_1/first/embedding_lookup/315044 f4 [12488, 8]
000000 bc 4d 65 37 09 59 6d 3c 9b 51 b5 3c 03 fc 6a 3d
       1.3667563e-05 0.01448656 0.02213364 0.057369243
000010 35 10 d1 3c 8f c3 7d 3d 2d 55 84 bc 53 45 0f bd
       0.025520423 0.061954077 -0.016153896 -0.034978222
000020 c6 fe 69 3c b1 4d 5e 3c d9 a4 98 3c c7 41 be bb
       0.014281934 0.013568328 0.018633293 -0.005806181
000030 51 54 80 3c e4 2c 9f 3b 62 fb db ba 60 17 ec bb
       0.015665205 0.0048576463 -0.0016783292 -0.007204935
000040 e4 10 95 bc 6c a4 39 3c 30 d3 84 3c cf 4b 01 3d
       -0.01819653 0.011330705 0.016213983 0.031566437
000050 16 a1 0d bc 66 26 dd ba 29 99 1f bd 19 68 5c bd
       -0.008644363 -0.0016872406 -0.038964424 -0.053810213
000060 f9 b1 7c 3c c3 1c bb bc 7b 1f 63 bb b5 f4 17 bc
       0.015423291 -0.022840863 -0.0034656215 -0.009274651
000070 88 6b f9 3c 29 a6 aa bb 61 48 c8 bc c8 59 38 3c
       0.030446783 -0.005207796 -0.024448575 0.011251874
000080 87 8d 0b bb 98 04 a5 3b 15 b4 29 3b b7 33 d0 3b
       -0.0021294074 0.005035948 0.002589469 0.006353821
000090 b5 4a b3 3c bb 49 af bb 2f 1f db 3b a9 0a a8 bc
       0.021886209 -0.0053493655 0.006687067 -0.020512896
0000a0 39 64 4c bb 30 14 dc bc 11 bc 2a 3d c9 48 e0 ba
       -0.0031187667 -0.026865095 0.04168326 -0.0017111535
0000b0 f8 1d db 3b b0 3c 08 3c 40 1f fa bc 33 33 15 3d
       0.006686922 0.00831525 -0.03053248 0.03642578
0000c0 35 37 e2 bb cf b5 e5 3b 0e f8 1e 3d 2f 4a 3d 3a
       -0.006903554 0.0070101987 0.038810782 0.0007220832
0000d0 59 57 44 bc 72 52 10 bd ad ec b7 bc 1b 7d 99 bc
       -0.011983716 -0.035234876 -0.022451723 -0.018736413
0000e0 4b 3f bd 3c 56 e7 4d 3b 03 96 46 3d 43 5f 51 bb
       0.02310147 0.0031418405 0.048482906 -0.003194765
0000f0 c0 06 4d 3d 05 fb 11 bb 15 1b 04 3c 2b 81 17 bd
       0.050055265 -0.0022274863 0.0080630975 -0.03698842
000100 df 17 74 bc 45 4c 97 3b b4 a7 94 bb af bf 0f 3d
       -0.014898269 0.0046172463 -0.0045365933 0.035094913
000110 ef 42 18 3b f5 78 71 3c c6 58 86 ba 46 49 01 3b
       0.0023233255 0.014738311 -0.0010249845 0.0019727512
000120 27 b2 91 3d cf d2 29 3b 7d 39 79 3d 28 b5 95 3c
       0.07114058 0.0025913005 0.06084584 0.018274859
000130 be 50 92 bc fe 6a 35 3d 18 7d 5d bd f5 c1 20 3c
       -0.017860767 0.04429149 -0.054074377 0.009811868
000140 93 f3 8a 3c a9 fa 03 bd 3a f7 1a bc 55 80 84 3c
       0.016961848 -0.03222147 -0.0094583575 0.016174475
000150 d8 19 b6 3c 7b 90 43 3d 71 43 60 3c b6 7a d6 3c
       0.02222912 0.04774521 0.013687954 0.02618156
000160 6c ab 97 3d 5b 45 e0 ba 84 67 9f bc 9b b4 c7 ba
       0.07405743 -0.0017110513 -0.01945854 -0.001523632
000170 58 ea 06 3d f3 48 d9 ba c4 9c 0e 3d cc 0f 8a bc
       0.03293833 -0.0016577527 0.034817472 -0.016853236
000180 5b c3 68 bc 56 e9 95 bc ed 89 ff 3c 7c 10 7c 3c
       -0.014206733 -0.01829974 0.031193698 0.01538479
000190 fc 7e 25 bc 90 4b 3a bc 0f 41 3e bd 18 17 4b 3c
       -0.010101076 -0.011370555 -0.046448763 0.012395643
0001a0 49 2f 9b 3c fd 54 d3 3c 67 a4 a2 3c ce 1e 70 3d
       0.018943446 0.025797362 0.019853784 0.058623128
0001b0 e8 c4 b5 3c 53 19 cd 3b 54 e6 5f 3d 37 f9 e0 3c
       0.022188619 0.0062591224 0.054663017 0.027462585
0001c0 ed 2d 12 3d 91 45 9d 3c 10 1f 46 3a c6 1e 28 3d
       0.03568833 0.01919821 0.0007557729 0.041044973
0001d0 59 eb 07 bd 62 05 e6 3c 35 2f a5 3b 70 64 05 bd
       -0.03318343 0.028078739 0.005041028 -0.032566488
0001e0 71 d7 f2 3c 5d a6 a8 bc 3b 55 ab bc 2e 5b e9 3c
       0.029643746 -0.02058714 -0.020914664 0.02848586
0001f0 77 8c 12 3d 45 6c e2 bc 2e 09 38 bd e3 60 94 bc
       0.03577849 -0.027639518 -0.04493063 -0.018112605
000200 f0 04 68 3d f6 fb 59 3d 0e 7f 78 3b ab 58 a1 bc
       0.056645334 0.053218804 0.0037917527 -0.0196956
000210 7b f4 4d 3c 12 bc 6d bd 53 e2 a7 bb 8a 41 a8 3c
       0.012570496 -0.058040686 -0.0051234155 0.020539064
000220 63 3f 99 3d 6a a5 b1 3a 88 45 be bc 63 e7 4c 3c
       0.07482793 0.0013553326 -0.023226514 0.012506339
000230 32 8a b4 bb 5e 57 2b bc 57 aa 14 3d 61 32 94 bc
       -0.005509638 -0.010457842 0.03629526 -0.018090429
000240 9c dc 34 bd bd 75 9e bc 6b 23 ee 3c c8 11 8f 3b
       -0.044155702 -0.019343251 0.029069623 0.0043661334
000250 5f dd cd bd 23 9a 5f 3c dd 98 b7 3d e7 ef c3 3c
       -0.10051989 0.013647589 0.08964703 0.023918105
000260 d2 b5 37 3d e7 c0 2e 3d ff 2b 93 3b 72 39 98 3c
       0.04485113 0.042664435 0.0044913287 0.01858208
000270 88 cc 43 3d ce ec 07 3d 03 a5 c0 ba d7 c7 c8 3c
       0.047802478 0.03318482 -0.0014697615 0.024509354
000280 f7 69 b5 bd d3 4b 82 3d e0 fa 14 bd d5 a2 18 bb
       -0.08858102 0.063621186 -0.036372066 -0.0023290415
000290 49 8a cc bd c3 e1 df bc 99 7d 8e 3d e8 cd 9b 3c
       -0.09987313 -0.027329331 0.069575496 0.019019082
0002a0 94 9a b9 3a f2 89 6d bd c4 45 13 3d b1 c2 c2 3c
       0.0014160448 -0.057992883 0.035955206 0.023774477
0002b0 0a 8c 9d bb 94 b6 8a bc 83 e4 58 bc 67 e4 8f bc
       -0.0048079537 -0.016932763 -0.013238075 -0.017564965
0002c0 93 a7 34 3c 0d c9 ec bb 98 2b 1e bd c9 10 af ba
       0.011026281 -0.0072261156 -0.038615793 -0.0013356443
0002d0 4d 18 cb bb 5b 24 34 3d 2e fb 65 bd 47 9a 99 3b
       -0.0061979652 0.043979984 -0.056147747 0.0046875807
0002e0 19 11 29 bb 3d 07 cb bc a8 68 1c 3b f4 5e a6 3b
       -0.0025797545 -0.024783725 0.002386609 0.0050772373
0002f0 a5 9d 2e 3d 26 13 7e 3c 5a f3 08 3d c0 3e 6b 3b
       0.04263081 0.015507495 0.033435203 0.0035895556
000300 db bc 50 3c 2a 5d 96 3c 00 51 31 3d c5 8f 42 3d
       0.012740339 0.018354971 0.04329014 0.04750039
000310 26 81 ae bc 29 a4 af 3b 49 fa 69 bd cc 46 28 3d
       -0.021301817 0.0053601456 -0.057123456 0.041083142
000320 16 4f d6 3c 79 f2 5f bb b9 b3 42 3d 8c 31 0d 3d
       0.026160758 -0.0034171625 0.047534678 0.03447108
000330 03 29 21 bb d4 d9 c6 bc 75 55 06 3d 0b fc b2 3c
       -0.0024591095 -0.02427379 0.032796342 0.0218487
000340 a0 f8 97 3c 5d 6f 84 bd c3 31 ca 3c 62 19 90 bd
       0.01855117 -0.06466553 0.024681931 -0.070360914
000350 a1 06 da bc a2 4c 87 bd 46 0c 5c 3d fa a4 45 3c
       -0.026614489 -0.066064134 0.053722642 0.012063259
000360 16 ed 1b bd 0e 8f 1c 3d 80 92 08 3c 5e c9 e5 3c
       -0.0380679 0.038222365 0.00833571 0.02805012
000370 3d 4a b7 ba e9 30 a5 bd 6f 23 cd 3c fd 88 d0 bc
       -0.0013983917 -0.080659695 0.02504131 -0.025455946
000380 cb 2b f3 bb 16 02 96 bd 93 90 53 be 10 9e db be
       -0.007420992 -0.073246166 -0.2066062 -0.4289403
000390 b3 78 0e be 5f f5 53 3e 22 af b2 be 6c e8 07 bd
       -0.1391323 0.2069907 -0.3489924 -0.03318064
0003a0 d8 19 81 3d be 2e 38 bd 8f 95 85 3c e2 32 9c bc
       0.063037574 -0.04496645 0.016306667 -0.019067232
0003b0 75 9a bd 3c 81 51 09 3b 75 00 37 3c dc 73 6f 3c
       0.02314494 0.002095312 0.011169543 0.014615025
0003c0 bc c7 a2 3d af e6 aa bd 31 03 3a 3e 0a 8d 20 3e
       0.079482526 -0.08344781 0.1816528 0.15678802
0003d0 a7 c6 35 3d a5 4c 1f 3e c8 01 e1 bd 76 8b 14 bd
       0.044378903 0.15556581 -0.10986668 -0.036265813
0003e0 2d 9e 91 3d 11 7c a5 be 5c 3d cc 3d 29 8c c5 bd
       0.07110248 -0.32321218 0.09972641 -0.09645874
0003f0 67 bd 85 3c 56 e8 86 3e 2c 04 c8 bd b7 f4 04 be
       0.016325666 0.26349133 -0.09766421 -0.12983976

sequential_1/simple_rnn/zeros f4 [1, 12]
000000 00 00 00 00 00 00 00 00 00 00 00 00 00 00 00 00
       0.0 0.0 0.0 0.0
000010 00 00 00 00 00 00 00 00 00 00 00 00 00 00 00 00
       0.0 0.0 0.0 0.0
000020 00 00 00 00 00 00 00 00 00 00 00 00 00 00 00 00
       0.0 0.0 0.0 0.0

sequential_1/simple_rnn/simple_rnn_cell/BiasAdd/ReadVariableOp/resource f4 [12]
000000 c3 97 ac 3b c8 7d 83 3b 9c dd cd bb 20 ab d5 bb
       0.005267115 0.004012797 -0.0062825214 -0.006520644
000010 d4 68 c7 bb 30 b7 c8 3b 63 4b b9 3c 0d af 84 3b
       -0.0060854945 0.0061253533 0.022618955 0.004049188
000020 00 5a 0c bc b7 14 e8 3b ad 6c d3 bb 8f 0c 6f 3c
       -0.00856638 0.0070825475 -0.006452164 0.014590397

sequential_1/simple_rnn/TensorArrayV2_1 f4 [25, 1, 12]
000000 00 00 00 00 00 00 00 00 00 00 00 00 00 00 00 00
       0.0 0.0 0.0 0.0
000010 00 00 00 00 00 00 00 00 00 00 00 00 00 00 00 00
       0.0 0.0 0.0 0.0
000020 00 00 00 00 00 00 00 00 00 00 00 00 00 00 00 00
       0.0 0.0 0.0 0.0
000030 00 00 00 00 00 00 00 00 00 00 00 00 00 00 00 00
       0.0 0.0 0.0 0.0
000040 00 00 00 00 00 00 00 00 00 00 00 00 00 00 00 00
       0.0 0.0 0.0 0.0
000050 00 00 00 00 00 00 00 00 00 00 00 00 00 00 00 00
       0.0 0.0 0.0 0.0
000060 00 00 00 00 00 00 00 00 00 00 00 00 00 00 00 00
       0.0 0.0 0.0 0.0
000070 00 00 00 00 00 00 00 00 00 00 00 00 00 00 00 00
       0.0 0.0 0.0 0.0
000080 00 00 00 00 00 00 00 00 00 00 00 00 00 00 00 00
       0.0 0.0 0.0 0.0
000090 00 00 00 00 00 00 00 00 00 00 00 00 00 00 00 00
       0.0 0.0 0.0 0.0
0000a0 00 00 00 00 00 00 00 00 00 00 00 00 00 00 00 00
       0.0 0.0 0.0 0.0
0000b0 00 00 00 00 00 00 00 00 00 00 00 00 00 00 00 00
       0.0 0.0 0.0 0.0
0000c0 00 00 00 00 00 00 00 00 00 00 00 00 00 00 00 00
       0.0 0.0 0.0 0.0
0000d0 00 00 00 00 00 00 00 00 00 00 00 00 00 00 00 00
       0.0 0.0 0.0 0.0
0000e0 00 00 00 00 00 00 00 00 00 00 00 00 00 00 00 00
       0.0 0.0 0.0 0.0
0000f0 00 00 00 00 00 00 00 00 00 00 00 00 00 00 00 00
       0.0 0.0 0.0 0.0
000100 00 00 00 00 00 00 00 00 00 00 00 00 00 00 00 00
       0.0 0.0 0.0 0.0
000110 00 00 00 00 00 00 00 00 00 00 00 00 00 00 00 00
       0.0 0.0 0.0 0.0
000120 00 00 00 00 00 00 00 00 00 00 00 00 00 00 00 00
       0.0 0.0 0.0 0.0
000130 00 00 00 00 00 00 00 00 00 00 00 00 00 00 00 00
       0.0 0.0 0.0 0.0
000140 00 00 00 00 00 00 00 00 00 00 00 00 00 00 00 00
       0.0 0.0 0.0 0.0
000150 00 00 00 00 00 00 00 00 00 00 00 00 00 00 00 00
       0.0 0.0 0.0 0.0
000160 00 00 00 00 00 00 00 00 00 00 00 00 00 00 00 00
       0.0 0.0 0.0 0.0
000170 00 00 00 00 00 00 00 00 00 00 00 00 00 00 00 00
       0.0 0.0 0.0 0.0
000180 00 00 00 00 00 00 00 00 00 00 00 00 00 00 00 00
       0.0 0.0 0.0 0.0
000190 00 00 00 00 00 00 00 00 00 00 00 00 00 00 00 00
       0.0 0.0 0.0 0.0
0001a0 00 00 00 00 00 00 00 00 00 00 00 00 00 00 00 00
       0.0 0.0 0.0 0.0
0001b0 00 00 00 00 00 00 00 00 00 00 00 00 00 00 00 00
       0.0 0.0 0.0 0.0
0001c0 00 00 00 00 00 00 00 00 00 00 00 00 00 00 00 00
       0.0 0.0 0.0 0.0
0001d0 00 00 00 00 00 00 00 00 00 00 00 00 00 00 00 00
       0.0 0.0 0.0 0.0
0001e0 00 00 00 00 00 00 00 00 00 00 00 00 00 00 00 00
       0.0 0.0 0.0 0.0
0001f0 00 00 00 00 00 00 00 00 00 00 00 00 00 00 00 00
       0.0 0.0 0.0 0.0
000200 00 00 00 00 00 00 00 00 00 00 00 00 00 00 00 00
       0.0 0.0 0.0 0.0
000210 00 00 00 00 00 00 00 00 00 00 00 00 00 00 00 00
       0.0 0.0 0.0 0.0
000220 00 00 00 00 00 00 00 00 00 00 00 00 00 00 00 00
       0.0 0.0 0.0 0.0
000230 00 00 00 00 00 00 00 00 00 00 00 00 00 00 00 00
       0.0 0.0 0.0 0.0
000240 00 00 00 00 00 00 00 00 00 00 00 00 00 00 00 00
       0.0 0.0 0.0 0.0
000250 00 00 00 00 00 00 00 00 00 00 00 00 00 00 00 00
       0.0 0.0 0.0 0.0
000260 00 00 00 00 00 00 00 00 00 00 00 00 00 00 00 00
       0.0 0.0 0.0 0.0
000270 00 00 00 00 00 00 00 00 00 00 00 00 00 00 00 00
       0.0 0.0 0.0 0.0
000280 00 00 00 00 00 00 00 00 00 00 00 00 00 00 00 00
       0.0 0.0 0.0 0.0
000290 00 00 00 00 00 00 00 00 00 00 00 00 00 00 00 00
       0.0 0.0 0.0 0.0
0002a0 00 00 00 00 00 00 00 00 00 00 00 00 00 00 00 00
       0.0 0.0 0.0 0.0
0002b0 00 00 00 00 00 00 00 00 00 00 00 00 00 00 00 00
       0.0 0.0 0.0 0.0
0002c0 00 00 00 00 00 00 00 00 00 00 00 00 00 00 00 00
       0.0 0.0 0.0 0.0
0002d0 00 00 00 00 00 00 00 00 00 00 00 00 00 00 00 00
       0.0 0.0 0.0 0.0
0002e0 00 00 00 00 00 00 00 00 00 00 00 00 00 00 00 00
       0.0 0.0 0.0 0.0
0002f0 00 00 00 00 00 00 00 00 00 00 00 00 00 00 00 00
       0.0 0.0 0.0 0.0
000300 00 00 00 00 00 00 00 00 00 00 00 00 00 00 00 00
       0.0 0.0 0.0 0.0
000310 00 00 00 00 00 00 00 00 00 00 00 00 00 00 00 00
       0.0 0.0 0.0 0.0
000320 00 00 00 00 00 00 00 00 00 00 00 00 00 00 00 00
       0.0 0.0 0.0 0.0
000330 00 00 00 00 00 00 00 00 00 00 00 00 00 00 00 00
       0.0 0.0 0.0 0.0
000340 00 00 00 00 00 00 00 00 00 00 00 00 00 00 00 00
       0.0 0.0 0.0 0.0
000350 00 00 00 00 00 00 00 00 00 00 00 00 00 00 00 00
       0.0 0.0 0.0 0.0
000360 00 00 00 00 00 00 00 00 00 00 00 00 00 00 00 00
       0.0 0.0 0.0 0.0
000370 00 00 00 00 00 00 00 00 00 00 00 00 00 00 00 00
       0.0 0.0 0.0 0.0
000380 00 00 00 00 00 00 00 00 00 00 00 00 00 00 00 00
       0.0 0.0 0.0 0.0
000390 00 00 00 00 00 00 00 00 00 00 00 00 00 00 00 00
       0.0 0.0 0.0 0.0
0003a0 00 00 00 00 00 00 00 00 00 00 00 00 00 00 00 00
       0.0 0.0 0.0 0.0
0003b0 00 00 00 00 00 00 00 00 00 00 00 00 00 00 00 00
       0.0 0.0 0.0 0.0
0003c0 00 00 00 00 00 00 00 00 00 00 00 00 00 00 00 00
       0.0 0.0 0.0 0.0
0003d0 00 00 00 00 00 00 00 00 00 00 00 00 00 00 00 00
       0.0 0.0 0.0 0.0
0003e0 00 00 00 00 00 00 00 00 00 00 00 00 00 00 00 00
       0.0 0.0 0.0 0.0
0003f0 00 00 00 00 00 00 00 00 00 00 00 00 00 00 00 00
       0.0 0.0 0.0 0.0

simple_rnn_cell/MatMul_1 f4 [12, 12]
000000 1b 5e c5 be 65 ce dc 3e 35 66 08 be ed a5 c0 be
       -0.3854836 0.43126217 -0.13320239 -0.3762659
000010 18 73 d3 3c 3c c5 09 3e 6c 35 a8 be 9a 75 26 3e
       0.025811717 0.13454145 -0.32853258 0.16255799
000020 f3 f2 19 be 0b 21 fe 3e 2a ed c1 3b 7a e4 e7 3e
       -0.15034084 0.49634585 0.0059181647 0.452915
000030 52 c2 65 3d 45 fb e8 bc 2a 28 f2 be 36 10 9c 3e
       0.05609352 -0.028440127 -0.47296268 0.30481118
000040 4d d3 07 3e b2 78 54 3e 74 96 94 3e 59 6a ae 3e
       0.13264199 0.20749167 0.29021037 0.34065512
000050 a2 11 ce 3e ae fe 92 3d 04 78 12 3f 2e b8 96 3e
       0.40247828 0.071774825 0.5721438 0.29437393
000060 19 d2 0b 3e a9 85 bd be 7c 0a 7c be 53 38 69 be
       0.13654365 -0.37016037 -0.24613374 -0.22775392
000070 0a c4 14 be 80 d7 b0 3e 10 ef 3e bd 86 cd 8e be
       -0.14527908 0.34539413 -0.046614707 -0.27891177
000080 7a 4e 23 3f dd 57 b6 3e 5d 6e c4 be fc 5e ee bc
       0.6379162 0.3561391 -0.3836545 -0.029098026
000090 1a ea a8 3e ae fb 12 3f 91 46 2e 3d 15 90 44 be
       0.32991105 0.5741528 0.042547766 -0.19195588
0000a0 df 66 e2 3e 53 b2 44 3d 65 96 66 3e 74 c3 e3 be
       0.4421911 0.048021626 0.22518308 -0.44485056
0000b0 09 2a 03 3f 90 db 98 3c fe d5 26 3e 0a eb 81 be
       0.51236016 0.018659383 0.16292569 -0.25374633
0000c0 77 87 bd 3e b2 41 04 3f b6 f1 cf be 30 f4 f0 3d
       0.37017414 0.51662743 -0.40614098 0.11765325
0000d0 ff 04 21 be c3 be 8f be 45 9b dd 3d f6 8a cc 3e
       -0.15724562 -0.28075227 0.10820631 0.3994977
0000e0 c5 db 16 be 29 16 31 3e 6c 05 3a bf 6f f4 29 be
       -0.14732273 0.1729361 -0.72664523 -0.1659715
0000f0 17 2b 00 3f 21 f6 5d be 04 5c 88 be 31 6d 1c be
       0.5006575 -0.21675922 -0.26632702 -0.15276028
000100 ff 9b 3b be 6e 5e 15 be 3c 1f 3e 3b 40 97 92 be
       -0.18321227 -0.14586803 0.0029010316 -0.2863102
000110 be a8 f0 be 5e 74 f2 3e 4f 41 c0 3e 84 5e 99 3b
       -0.4700374 0.47354406 0.37549827 0.0046804566
000120 ae 22 ca be 3a b3 03 be 77 1f e0 be 78 80 a2 3e
       -0.39479584 -0.12861338 -0.43774006 0.3173864
000130 73 b9 ee 3e 64 45 77 3d a7 de bf 3e 67 82 48 be
       0.46625862 0.06036891 0.37474558 -0.19580995
000140 37 da 9a be f4 5e 84 3e e4 40 4a be d7 72 0e bf
       -0.3024461 0.25853693 -0.19751316 -0.5564398
000150 d4 21 96 3d 44 e6 b7 be 3f b2 c6 bd 4e 6a 1d bf
       0.07330671 -0.35917866 -0.097019665 -0.61490333
000160 55 58 cd 3e f3 e7 c8 be 9e 7f 97 bc f8 ad 07 3f
       0.40106454 -0.39239463 -0.01849347 0.5299983
000170 69 86 80 3e 38 d4 82 3c f5 e9 db 3c 70 8e aa be
       0.25102547 0.015970334 0.026844958 -0.33311796
000180 c2 cc 71 be c3 bc 64 3e 43 72 29 bf fb 79 b8 be
       -0.23613265 0.22337632 -0.66189975 -0.36030564
000190 ed 78 11 bf 31 6a ee bc ad 38 21 3d bb 01 18 be
       -0.56825143 -0.02910337 0.03936069 -0.1484441
0001a0 70 40 d7 ba 42 65 05 bf 3e de c8 bb 08 99 a7 be
       -0.0016422402 -0.5210763 -0.006130009 -0.3273394
0001b0 ce 3d bd 3e c9 3d 16 be 52 7e a5 bd ad d3 be be
       0.36961216 -0.14672007 -0.08080734 -0.3727087
0001c0 b7 ce 9a 3e d2 43 26 3f 87 22 25 3e 26 cd 99 3d
       0.30235836 0.64947236 0.16126452 0.07509832
0001d0 a4 5e de be f2 f7 73 be 03 5c 71 be 26 32 88 3e
       -0.4343158 -0.23825052 -0.23570256 0.2660076
0001e0 00 57 1f 3e ec b8 50 be 66 9e 07 bf 26 47 d5 3d
       0.15560532 -0.20383042 -0.5297607 0.10413961
0001f0 67 08 d1 3e 0e 74 c8 be 4d bc 1a bf a1 bc e0 be
       0.40826723 -0.39151043 -0.60443574 -0.43893912
000200 16 5c f1 3d 75 77 ac be ea 3a 46 be 77 b3 4b 3e
       0.11785142 -0.33684888 -0.19358411 0.19892679
000210 b4 c9 99 bd 59 b4 8f be 61 03 e5 3d 18 7e a3 be
       -0.07509175 -0.28067282 0.11182285 -0.3193214
000220 38 5a a7 bd d9 c0 74 be 85 4b 20 3f 3d 2c e1 be
       -0.08171505 -0.2390169 0.62615234 -0.43979064
000230 98 17 b2 bd 95 9b 02 3e 83 c3 a7 be 95 c9 2c 3f
       -0.086959064 0.12754662 -0.3276635 0.6749509

simple_rnn_cell/MatMul f4 [12, 8]
000000 28 6b fb 3d bc 97 9d 3e e1 30 56 be c5 89 c0 3e
       0.12276298 0.30779827 -0.20917083 0.3760511
000010 e1 7d b8 3e a1 d5 8f bd 95 34 9c 3e ee 56 76 3e
       0.36033538 -0.07023168 0.30508867 0.24056599
000020 b9 c2 74 bd 6c c2 00 bf e5 b1 96 be ab 5f 87 be
       -0.059756014 -0.50296664 -0.29432598 -0.26440176
000030 0c 05 95 be a0 52 02 3f 34 85 19 bf c0 68 b7 be
       -0.29105413 0.50907326 -0.59968877 -0.35822105
000040 6c e6 c2 bc ef 81 17 3e d1 b4 dc 3c 43 7e fa be
       -0.023791514 0.1479566 0.026941689 -0.48924455
000050 ae 3d 1a bf 81 38 56 3e d2 7f 8b 3e d7 5e 20 3e
       -0.60250366 0.20919992 0.27245957 0.15661179
000060 22 54 06 3e 43 a4 ae be 0d 38 4b 3e bd 40 8a be
       0.13118032 -0.34109697 0.198456 -0.27002516
000070 58 88 c7 bd 07 4f bb 3e 0a 2d 56 3e d3 4e b1 bd
       -0.097428024 0.3658373 0.20915619 -0.08657613
000080 4f a2 49 3e 18 40 a4 bd 53 1e 03 3f 43 c3 66 3d
       0.19690822 -0.080200374 0.51218146 0.05633856
000090 08 77 b3 be 65 a5 36 3e 55 eb a9 3e 03 19 c8 3e
       -0.3505175 0.1783653 0.33187357 0.39081582
0000a0 30 e1 22 3e 9b 50 c3 be e0 ee 1e bd 6c 91 84 be
       0.15906215 -0.38147435 -0.038802028 -0.25892198
0000b0 b8 c1 00 bf 01 e6 04 3e bc 62 43 3e 98 c3 2f 3c
       -0.5029559 0.12978365 0.19080633 0.0107277855
0000c0 78 4b 02 bf aa 94 20 3e 12 a2 88 3e 19 ce 61 be
       -0.50896406 0.15681711 0.2668615 -0.22051276
0000d0 3b c0 76 be f6 4f e1 3e c4 d1 0e 3e ea a2 df be
       -0.24096768 0.44006318 0.13947207 -0.4367898
0000e0 da d6 d4 3c 26 23 16 be 6d a5 f1 be 09 70 1d bf
       0.025981355 -0.14661846 -0.47196522 -0.6149908
0000f0 81 2f 87 3d 8e b7 0e bf 2f c5 e7 bd 5f b7 89 be
       0.066008575 -0.5574883 -0.11316907 -0.26897714
000100 bc ee 9e 3e 0e 87 80 bd 14 6d bd 3e bc dd f0 3e
       0.31041515 -0.0627576 0.36997283 0.4704417
000110 8d 35 8c 3e 55 2f 00 bf 6b 90 18 3e 58 d0 43 3e
       0.27384606 -0.5007222 0.14898841 0.19122446
000120 3a b7 25 3c 2d 6a fa be 90 6b 03 bf 6d 6d 14 3f
       0.010114485 -0.4890913 -0.51336 0.5797947
000130 27 49 38 bd 67 fc f2 be 60 91 85 3d 83 94 83 3e
       -0.04499164 -0.47458193 0.06521869 0.25699243
000140 09 78 f7 3d 7f 36 eb be 7c 79 da 3e ac f6 a7 bd
       0.12083442 -0.45940015 0.4267081 -0.08201346
000150 bf 26 c1 3d 4b 09 e0 3e dc f3 5d bd 3f a5 00 bf
       0.09431218 0.4375709 -0.05418764 -0.50252146
000160 cd b3 bb be e3 26 d1 3e b9 75 0b 3f 1f 45 e6 3d
       -0.36660615 0.4084998 0.54476506 0.112436526
000170 87 72 00 3d 07 c0 c2 bd 4e 2d 7b be 9c b8 ab 3e
       0.03135922 -0.095092826 -0.24529001 0.33539283

sequential_1/dense_3/MatMul f4 [30, 12]
000000 54 6c 7e bf b3 73 7e 3f 27 34 13 3e af 78 90 3f
       -0.99384046 0.99395293 0.14375363 1.128683
000010 8b b5 df 3e 8e 8c 0c bf ba fe 45 3f d3 4a 80 3f
       0.43693194 -0.5490197 0.77341807 1.0022835
000020 94 c8 03 be 31 bd 01 be 04 d2 1a 3f fd 7f 10 3d
       -0.12869483 -0.12669827 0.6047671 0.03527831
000030 59 fa 47 3f 3a 13 18 bf 44 1c 69 3f 51 45 c0 3b
       0.78116375 -0.5940434 0.91058755 0.005867638
000040 30 89 44 bf df 52 97 3f 74 9b 4a bf d6 77 27 bf
       -0.7677183 1.1822165 -0.7914345 -0.6541723
000050 1e c4 13 bf 24 5a 4c 3f cd de c9 bd a7 37 97 3f
       -0.57721126 0.79825044 -0.09856949 1.1813859
000060 84 c8 b8 3e 2a b8 16 bf cd 34 82 3f 54 51 c1 3d
       0.3609048 -0.5887476 1.0172364 0.0943934
000070 4a 3b 34 bf c6 a1 91 3f 3c 6f d5 be 60 f7 de be
       -0.7040297 1.1377494 -0.41686428 -0.43548107
000080 0d 50 46 bf cd de 31 3f 96 f2 b8 3e 0a 2a 73 3f
       -0.774659 0.6948059 0.36122578 0.9498602
000090 bc 0d e4 3e 29 92 f4 be b1 1a 10 3f fb 75 61 bf
       0.44541728 -0.4776776 0.5629073 -0.8807065
0000a0 a5 04 55 bf 78 93 8f 3f 8b 2d 81 bf 9d 91 10 bf
       -0.8321021 1.1216879 -1.0092024 -0.5647219
0000b0 e5 7e 99 be ff b8 2d 3f e2 03 fa bd 50 c4 5a 3f
       -0.29979625 0.67860407 -0.12207772 0.854558
0000c0 65 a1 19 bf 22 8d 23 3f bc 0f 1a bf 2d 0f c1 3e
       -0.60011894 0.63887227 -0.6018026 0.3770689
0000d0 cc 36 33 3f 8b 90 fc be b4 45 3d 3f 73 13 33 3f
       0.7000549 -0.49329028 0.73934484 0.6995155
0000e0 85 37 33 3f ac a3 7c bf 94 aa 27 3e 1c f0 a9 be
       0.7000659 -0.98687243 0.16373664 -0.33191
0000f0 62 c0 69 3f 00 69 5b bf 56 c1 59 3e 60 7f 49 bf
       0.9130918 -0.8570709 0.21265158 -0.78709984
000100 04 51 3b bf ed 4d 31 3f 88 5e 3e bf 3a b1 ea be
       -0.73170495 0.6925953 -0.74362993 -0.45838338
000110 e8 53 29 bf 60 d0 3c 3f e2 a3 e0 be 0d 0a 91 3f
       -0.66143656 0.73755455 -0.43875033 1.1331192
000120 e8 f9 9f be e7 83 3e 3f b8 fd c8 be 56 28 58 3e
       -0.3124535 0.74420017 -0.39256072 0.21109137
000130 44 28 33 3f b9 5b 6c bf f4 19 82 3f a3 f4 63 3f
       0.69983315 -0.9232746 1.016417 0.8904516
000140 8c ab 65 3f 7b a2 6e bf 4a 23 55 3b e2 13 fa be
       0.89714885 -0.93216676 0.0032522255 -0.48843294
000150 d5 f2 55 bf 41 c6 ba 3e 5e 57 5a bf a5 c1 3b 3f
       -0.8357366 0.3647938 -0.8528956 0.73342353
000160 71 19 e7 3e c2 e1 4b bf d6 6b 7f 3f ac d5 35 3e
       0.45136598 -0.79641354 0.9977392 0.1775729
000170 d9 f0 61 3e 95 be 99 bf 5d 56 9f bd 78 9b f5 be
       0.22064532 -1.2011286 -0.07780144 -0.47970176
000180 97 d4 47 bf 43 fc 0b 3f d6 39 71 be 46 3c 98 3e
       -0.7805876 0.54681796 -0.23557219 0.29733485
000190 5e 6f 8e 3d 85 24 10 bf 49 49 3e 3f f0 14 02 3f
       0.06954835 -0.56305724 0.74330574 0.508132
0001a0 4e d6 44 3f c2 e1 61 bf 58 99 d6 3e 30 4a 00 bf
       0.76889503 -0.88235104 0.41913867 -0.501132
0001b0 71 8b 07 bf 5f 71 5c 3f 04 10 b6 be 86 f2 f7 3e
       -0.52947146 0.8611049 -0.35559094 0.48427218
0001c0 d1 a0 58 3f 7f df 46 bf 4b 42 62 3f 74 7c 0e bd
       0.84620386 -0.7768478 0.88382405 -0.034786656
0001d0 69 0b 5b 3f f5 c5 a7 bf bc fe 2b 3e d8 0c 6b bf
       0.85564286 -1.3107287 0.16796392 -0.91816473
0001e0 bd 41 1a 3f 2f 1b 72 bf d0 b3 67 3f 04 24 1b bf
       0.6025656 -0.9457273 0.9050875 -0.6060183
0001f0 49 05 34 bf 54 6f ee 3e 34 7a 9d be 83 84 34 bf
       -0.70320565 0.46569312 -0.30757296 -0.70514697
000200 0d 73 fa be 2a 9a 40 3f bd ca 2a be b1 41 64 3f
       -0.48915902 0.75235236 -0.16678901 0.8916274
000210 72 1c 35 3e c3 01 28 bf c8 18 3e 3f 85 ac d2 bd
       0.17686632 -0.6562769 0.74256563 -0.10286812
000220 49 79 b8 be 2c 49 76 3f 53 d9 5d bf 71 b9 c7 be
       -0.36030033 0.962054 -0.86659735 -0.39008668
000230 a7 01 25 bf 6b 11 48 3f 35 db 01 3f f0 79 98 3f
       -0.64455646 0.7815158 0.5072511 1.1912212
000240 06 2c 55 bf 96 c6 60 3e 9c 22 cc be 0e d0 6d 3f
       -0.832703 0.21950755 -0.39870155 0.9289559
000250 95 46 44 bc 20 40 29 bf 8d 24 c5 3e 26 08 32 3e
       -0.011979719 -0.6611347 0.3850445 0.17385921
000260 6d 92 09 3f 39 ec 4b bf 13 32 29 3f 23 93 eb bd
       0.53739053 -0.7965732 0.6609203 -0.115026735
000270 88 6a 66 3f 0e a7 95 be b2 30 f4 3d dd a1 46 bf
       0.90006304 -0.29229015 0.119233504 -0.77590734
000280 f2 ed 0c bf 33 09 64 3f 2a 27 78 bf 3a db 24 bf
       -0.55050576 0.89076537 -0.9693476 -0.64397013
000290 aa f8 15 bf 34 5a 4d 3f 44 7d dc be 30 f4 88 3f
       -0.58582556 0.80215764 -0.4306432 1.069952
0002a0 22 21 37 3f e3 25 4a bf b4 a1 19 3f 69 09 03 bf
       0.7153493 -0.7896406 0.60012364 -0.51186234
0002b0 3f 13 24 bf 49 39 93 3f d2 92 44 bf 96 7c aa be
       -0.6409187 1.1501857 -0.7678653 -0.33298177
0002c0 86 94 30 bf 61 ee 8f 3f b2 0e 04 be 1d 7d 58 3f
       -0.6897663 1.1244622 -0.12896231 0.8456591
0002d0 12 f0 44 bf cb 1c 04 3f ad 60 59 be f3 e9 91 3e
       -0.7692882 0.51606435 -0.21228285 0.28498802
0002e0 36 91 3c 3f 27 fa 86 bf f3 06 86 3f b6 01 42 3f
       0.73659074 -1.054509 1.0470871 0.7578386
0002f0 05 d1 7a 3f 3a 6a c9 be 94 03 17 3e d5 ec 04 bf
       0.9797519 -0.39338857 0.14747459 -0.51923877
000300 60 ba 8b be 84 be 6f 3f 23 06 cf be 15 78 b4 3e
       -0.2729063 0.9365008 -0.4043437 0.35247865
000310 ab 64 29 3f c2 56 98 bf d8 aa 73 3f f8 3a 02 3f
       0.6616923 -1.1901476 0.9518256 0.5087123
000320 91 a7 58 3f a0 a2 30 bf 08 42 bf 3e a7 fe 68 bf
       0.84630686 -0.68998146 0.37355065 -0.9101357
000330 b6 85 64 3f fa 37 e7 be f5 28 d1 3e 64 4e d4 be
       0.89266527 -0.45159894 0.4085156 -0.41466057
000340 ef 14 43 bf e3 7c 92 3f f5 05 83 bf 77 bf 09 be
       -0.7620382 1.1444362 -1.0236193 -0.13451944
000350 3b 56 10 bf 2e 3a 82 3f ec ee 55 bd 6d 56 9e 3f
       -0.5638158 1.0174005 -0.052229807 1.2370125
000360 ea 1d 33 bf e5 48 35 3f 92 a1 b6 be 9b f0 17 3f
       -0.6996752 0.70814353 -0.35670143 0.5935151
000370 31 30 f1 3e 50 09 ee be f5 f0 80 3f 07 3d ae 3e
       0.4710708 -0.4649148 1.0073534 0.34030935
000380 2c 40 32 3e cc 8d 98 be 71 3f 29 3f 19 53 3d bf
       0.17407292 -0.29795682 0.6611243 -0.7395492
000390 cc 5d 33 3f 9a e1 54 bf e5 98 4c 3f c8 ac f7 be
       0.70065 -0.8315674 0.799208 -0.4837401
0003a0 3c a7 15 bf 17 02 70 3f 1c 28 11 bf e2 15 1c bf
       -0.58458304 0.9375319 -0.5670183 -0.6097089
0003b0 5d 3b 82 be ab be 68 3f ae 82 ed 3d 88 e5 0b 3f
       -0.25435916 0.90915936 0.11597191 0.5464711
0003c0 9c 79 2a bf 3b 6e 75 3f 84 66 06 bf 53 4d 59 3e
       -0.6659181 0.95871323 -0.52500176 0.21220903
0003d0 91 9c 0c 3f 34 04 0d bf 58 ba 38 3f 15 d9 86 3e
       0.549264 -0.5508454 0.7215934 0.26337495
0003e0 41 94 1e 3f 73 6c 36 bf bc 67 ec 3c 17 a3 1c bf
       0.6194497 -0.7125923 0.028858058 -0.61186355
0003f0 97 5e 3b bf 17 c5 58 3f 9e 76 57 bf 76 f1 cb 3e
       -0.7319121 0.84675735 -0.8416537 0.39832658

sequential_1/dense_4/MatMul f4 [20, 30]
000000 ef f1 40 bf 09 6e 88 3f b5 89 80 3f 55 1d bd 3f
       -0.7536916 1.065858 1.0042025 1.4774576
000010 98 31 07 bf 87 cf c9 3f 7a 64 2f bf 32 c8 3c bf
       -0.5281005 1.5766457 -0.6851269 -0.73742974
000020 a9 c8 f9 bd 57 0f 32 bf 43 9b 87 3f 5e c9 87 3f
       -0.12196476 -0.69554657 1.0594257 1.0608327
000030 c6 47 be be d7 63 aa 3f 53 fc d6 3f 51 fb 4c bf
       -0.37164134 1.3311719 1.6795753 -0.8007098
000040 a4 cd da be 09 d5 ae 3f dc d6 ad be 9d e1 79 3f
       -0.42735016 1.3658763 -0.33952987 0.97609884
000050 7b b9 d7 be 85 08 32 bf 64 77 37 3f 92 09 a6 3f
       -0.42133698 -0.6954425 0.7166655 1.2971671
000060 81 e5 b7 be 6f 47 3b bf 16 aa 4c bf b8 da 63 3f
       -0.35917285 -0.73155874 -0.7994703 0.89005613
000070 e4 3b 3d bf 62 32 b8 3f 8a b7 bc 3f a9 4e 02 bf
       -0.7391951 1.4390376 1.4743512 -0.50901276
000080 9a 70 2e be fd e4 94 be d8 42 9d 3f 94 01 26 3c
       -0.17035142 -0.29080954 1.2286024 0.010132212
000090 a2 9a b5 3f 33 f0 a8 3f df 78 81 3f 8b 32 c7 3f
       1.4187815 1.3198303 1.0115012 1.55623
0000a0 08 9f 05 bf 11 a1 a8 be 2a f0 88 3f af 7d 2b be
       -0.5219579 -0.32935384 1.0698292 -0.16747163
0000b0 c1 15 a2 bd 4b fc cf 3f 6a 3f 8d 3f 2f 26 cb 3a
       -0.079143055 1.6248869 1.1034977 0.001549905
0000c0 93 9c 97 3f 09 6f a3 3d da ce dc 3f 93 f5 bf 3f
       1.1844658 0.07980163 1.7250626 1.4996818
0000d0 db 93 94 be 88 3b 9f be 00 46 7a 3f 4f 4c a2 3f
       -0.29019055 -0.31100106 0.9776306 1.2679538
0000e0 af 74 ad 3f d7 0a 03 3e 71 04 c9 3f 8c 3d c5 bd
       1.3551234 0.12797104 1.570448 -0.0963088
0000f0 d8 93 e0 bf 92 40 a5 3e 8e 9c 93 bd f4 eb d1 3e
       -1.7545118 0.32275826 -0.07207595 0.4100033
000100 23 05 ec bf 2b 2a 02 3f 16 85 ce bf 60 46 c5 bf
       -1.8439068 0.50845593 -1.6134365 -1.5412102
000110 35 5f b2 bf 92 47 ed bf fc 26 34 3e 1e 42 4a bc
       -1.3935305 -1.8537467 0.17592996 -0.012344865
000120 bb 59 a1 bf 5e eb 86 3d 9e d6 75 3d 21 b5 ed bf
       -1.2605509 0.065878615 0.060019128 -1.8570901
000130 cb db db bf db 4d 30 3e 9c d2 e2 bf a6 66 8d 3e
       -1.717645 0.172172 -1.7720523 0.27617377
000140 7a 92 bd bf f1 12 b0 bf ee 4c ab 3c ed 19 a1 3e
       -1.4810326 -1.375578 0.020910706 0.31465092
000150 88 98 9b bf 4d db de bf 1f 3c ab bf c0 c9 75 3e
       -1.2155924 -1.7410675 -1.3377723 0.24002743
000160 af bd b3 bf f7 95 31 be aa 20 ae bf 1e 07 62 3e
       -1.4042262 -0.17342363 -1.3603718 0.22073027
000170 80 94 4a 3e 1a 15 6e 3e 8c 9e d8 bf 90 12 b7 3e
       0.19783211 0.23250237 -1.6923385 0.3575635
000180 b8 80 be bf 50 9c db bf b7 9a c4 bf 95 c7 a4 bf
       -1.4883032 -1.7157078 -1.5359715 -1.2873408
000190 4e 8a ec bd 60 da 9e 3e fc 89 93 bf 71 b0 f0 3e
       -0.11549817 0.31025982 -1.1526484 0.47009614
0001a0 17 b7 c3 3e c5 dc cc bf b6 01 dc bf 86 a9 a0 3e
       0.38225624 -1.6004874 -1.7188022 0.31379336
0001b0 f8 7d aa bf f5 bc 5d 3e 62 a7 a2 bf ad 73 ab bf
       -1.3319693 0.21654113 -1.2707331 -1.3394676
0001c0 71 9e 75 3c 72 69 bc bd d7 cb d7 bf 08 af e1 bf
       0.014991389 -0.091997996 -1.6859082 -1.763154
0001d0 24 49 da bf 94 b1 2f be a4 9c c0 bf bb 85 2f 3e
       -1.7053571 -0.17157584 -1.5047803 0.17140858
0001e0 59 5c 11 bd fa 78 ad bf d4 8c 88 bf 7c 7e 86 bf
       -0.03548846 -1.3552544 -1.0667977 -1.050735
0001f0 67 71 c5 3e 40 74 25 bf a2 4c 4e 3f 1b 8d 78 3f
       0.38563082 -0.6463051 0.8058568 0.9709031
000200 20 07 bd 3e 77 ca 5a 3f 56 28 a0 bf 91 cd 84 bf
       0.36919498 0.85465187 -1.251231 -1.0375234
000210 14 53 8d 3e fe 48 90 bf 1b ac 89 bf 79 a5 2b 3f
       0.27602446 -1.1272275 -1.0755647 0.67049366
000220 dc 16 cc 3e 5e ba 60 bf 0f 55 25 3f 8e 21 58 bf
       0.3986119 -0.87784374 0.64582914 -0.844262
000230 98 b8 1b 3f 22 b4 53 3f 0e 3c bf be c8 79 a2 bf
       0.6082854 0.82696736 -0.37350506 -1.2693415
000240 5a 2f 7d 3f 47 96 6d 3f 14 9f bf 3e fd a2 c2 be
       0.9890038 0.9280743 0.37426054 -0.38014975
000250 20 d5 74 3f 35 03 81 bf b0 51 0f bf 2f 3d ae 3f
       0.956377 -1.0079104 -0.5598402 1.3612422
000260 10 70 7b 3f 70 9f c4 3f 3c fc 5e bf 65 55 90 3f
       0.9821787 1.5361156 -0.8710363 1.127606
000270 b8 59 2b bf 7a 14 14 bf e3 bd c2 be 45 9f 0b bf
       -0.66933775 -0.57843745 -0.38035497 -0.545399
000280 49 50 bb 3f 1c 7f 29 3f 46 84 d1 be 3c f1 de 3f
       1.4633876 0.6620958 -0.4092123 1.7417369
000290 11 b0 bd 3f 60 a4 07 be cc 53 62 bf f5 b6 a0 3f
       1.4819356 -0.13246298 -0.88409114 1.2555834
0002a0 92 68 29 bf 96 48 92 3f fd fd e9 be 99 29 3e be
       -0.66175187 1.1428401 -0.4570159 -0.18570556
0002b0 b7 58 a8 3e 69 9d 9e 3f d3 e8 46 bf c0 37 57 bf
       0.32880184 1.2391788 -0.7769901 -0.8406944
0002c0 8d 2c bf be 9a 06 84 3f ad d7 ed be 03 56 ad 3f
       -0.37338677 1.0314515 -0.4645361 1.3541874
0002d0 6a 7f 4f 3e bd 13 d6 be 64 95 3c bf d7 25 2a bf
       0.20263448 -0.41811934 -0.7366545 -0.6646399
0002e0 d4 1d ad 3f c7 41 d7 be 03 b0 ab 3f a7 a1 82 3f
       1.3524728 -0.42042372 1.341309 1.0205582
0002f0 f1 a1 4d 3f a9 8a c6 3f ed 07 8d be 64 e9 d2 be
       0.8032523 1.5511066 -0.2754511 -0.41193688
000300 5a d6 35 3f 0e 16 46 bf 18 39 3e bf 5d 55 9f 3f
       0.710302 -0.773774 -0.7430587 1.2447926
000310 be 48 bb 3f ca 0f f4 be 70 85 ee 3e 56 0b 48 bf
       1.4631574 -0.47668296 0.4658618 -0.781423
000320 eb 13 8e 3f c3 8e c3 3f e8 bb 7a bd b4 6f 10 bf
       1.1099828 1.5277942 -0.061214358 -0.56420445
000330 64 c9 8c 3f e2 01 8f 3f 73 3f 8b 3f 24 35 5c 3d
       1.099896 1.117245 1.0878738 0.053761616
000340 39 34 be 3f 66 7d 45 be a2 6c 87 3e c1 c1 41 be
       1.4859687 -0.19286117 0.26450068 -0.18921567
000350 55 94 b6 be 83 44 02 bf 93 81 b6 3f ca de d3 be
       -0.35660043 -0.5088579 1.4258293 -0.41380912
000360 6f 65 90 3f f7 57 98 3f b2 45 19 3f f5 8d 89 3f
       1.1280955 1.1901845 0.5987197 1.0746447
000370 73 b3 16 bf 10 9d 34 bf 7f 30 fb 3e d8 61 1b bf
       -0.5886757 -0.7055216 0.49060437 -0.6069617
000380 76 75 08 bf 52 38 62 3f 6e 44 a2 3f c6 4a 05 bf
       -0.5330423 0.8836719 1.2677133 -0.5206722
000390 4f 36 b8 3e 7c 51 10 bf bb f8 7f 3f 15 45 88 3f
       0.35978934 -0.56374335 0.9998891 1.0646082
0003a0 34 f5 8a be db 1e d8 be 8b 6f 9a 3f eb 72 98 3f
       -0.271402 -0.4221104 1.206529 1.191007
0003b0 e9 bc b6 3f ed 85 2a 3e 4d bb 9e 3f 78 3c 71 be
       1.4276401 0.16652651 1.240091 -0.23558223
0003c0 c1 9c 7b bf 7a 9a 4b 3f af 65 2a 3e b7 4e 71 3f
       -0.9828606 0.7953259 0.16640352 0.94260734
0003d0 0e 2a 6e bf 26 99 89 3f f5 29 9f bf 15 7e 13 bf
       -0.9303292 1.0749862 -1.2434679 -0.5761426
0003e0 00 e6 67 bf 3b 4e 90 bf 5c 42 05 3f c2 39 24 3f
       -0.9058533 -1.1273874 0.5205438 0.6415063
0003f0 a9 81 0e bf ad 01 32 3f 0c 41 81 3f 0d ec a2 bf
       -0.55666596 0.6953381 1.0097976 -1.2728287

sequential_1/dense_5/MatMul f4 [6, 20]
000000 4b 12 6d c0 58 03 95 3d 9d 72 c7 bf 05 37 e0 bf
       -3.7042415 0.072760284 -1.5581852 -1.7516791
000010 8b 58 da 3f eb df 5e c0 fe fc 8a 3e ed 7f ae 3e
       1.7058271 -3.4824169 0.27146143 0.34081975
000020 3b 1c 91 c0 42 12 5b c0 df 49 e7 bf 8f 5f 58 3f
       -4.534696 -3.4229894 -1.8069419 0.8452081
000030 1c ed f0 3f c1 ed 3d c0 be ed 76 c0 6b b2 02 be
       1.882236 -2.9676363 -3.8582606 -0.12763374
000040 a6 f4 50 c0 e3 d0 6f 3e d4 35 98 3f 34 f9 33 be
       -3.2649322 0.23419528 1.1891427 -0.17575532
000050 ed d6 97 3e 0b f1 35 c0 18 27 21 40 31 33 22 40
       0.29656163 -2.842837 2.518011 2.5343745
000060 d3 e5 1c c0 46 47 77 3e b7 fb 60 c0 31 28 4a c0
       -2.4515274 0.24148282 -3.5153635 -3.158703
000070 69 4a 21 3e 59 7d cd 3e ae 7c 1d 40 10 ef 22 3e
       0.15751041 0.40134695 2.4607348 0.15911508
000080 10 46 9b be ab 49 2c bf fc e0 c4 3f d2 ff 37 c0
       -0.3032689 -0.6729991 1.538116 -2.874989
000090 42 14 36 3e ec fb 80 bd 78 9f 19 c0 da 2e 5c c0
       0.17781165 -0.0629805 -2.4003582 -3.4403596
0000a0 df fa 85 3f b1 b0 d1 bd c4 b7 a2 c0 cc 58 ad c0
       1.0467185 -0.10238779 -5.0849323 -5.4170895
0000b0 c4 a6 0e c0 52 2e 54 3f 57 47 42 3f b2 15 85 3f
       -2.2289286 0.8288318 0.75890106 1.0397246
0000c0 1d f3 4a c0 b5 af 0f c0 f1 e7 b6 c0 2a 4b 04 bf
       -3.1710885 -2.2450993 -5.715813 -0.5167719
0000d0 02 66 42 3e 27 8b a3 c0 46 af a3 c0 2a b7 0e bd
       0.18984225 -5.1107364 -5.1151457 -0.034842648
0000e0 1f 62 d9 3f 8f c0 7c bd 19 cf 4d c0 6d f8 1a 3f
       1.6983069 -0.061707076 -3.2157652 0.6053532
0000f0 23 d9 38 3f 90 1b bc bd e4 04 06 c0 27 c8 f3 bf
       0.72206324 -0.09184945 -2.0940485 -1.9045457
000100 85 9f 81 c0 ff 20 50 3f 00 72 6a c0 f4 b4 e9 bf
       -4.0507226 0.8130035 -3.663208 -1.8258348
000110 c7 c8 03 40 40 67 03 40 62 00 02 c0 59 df 43 be
       2.0591295 2.0531769 -2.0312734 -0.19128169
000120 a2 b6 93 be 0c a4 c9 bf 9b 11 de be 24 18 99 3e
       -0.28850275 -1.5753188 -0.43372807 0.2990123
000130 f0 d2 56 3f b7 47 0e 3e 25 39 9a c0 0c 25 3e c0
       0.83915615 0.13894545 -4.8194757 -2.9710112
000140 e9 2f 5f bd 6a 7d d7 3e 6d e0 0a c0 09 06 32 c0
       -0.05448905 0.4208787 -2.1699479 -2.7816184
000150 aa 71 ba 3e 40 5b 3c 3e 31 60 7d 3e 33 a4 3c 3f
       0.36414844 0.18394184 0.24743725 0.7368805
000160 d0 55 e8 3e 06 ed 10 3f 30 9b 24 c0 0f d6 82 3e
       0.4537797 0.5661167 -2.571972 0.2555394
000170 35 fa 34 bf 65 40 80 3f ff 80 8d bf 40 79 20 be
       -0.70694286 1.0019652 -1.1054991 -0.15671253
000180 ff 1b 5f be e3 8b 81 3e 7b ae 51 3f 3b d9 4a be
       -0.21788023 0.25302038 0.8190686 -0.1980943
000190 98 d3 93 c0 ff b6 5c 3f ff b4 92 bf bc 6a 42 bf
       -4.6195793 0.8621673 -1.1461486 -0.75944114
0001a0 99 da 1b 3f fb 19 a5 c0 e5 ab 46 3f 5b 90 62 3f
       0.6088043 -5.1594214 0.7760604 0.8850152
0001b0 0c d6 1d c0 b5 72 06 c0 d6 0f 63 bf b8 2e 80 c0
       -2.4661894 -2.1007512 -0.8869604 -4.005703
0001c0 f2 88 5c c0 ba 1b 35 40 76 42 ff bf 5e d9 5b 3f
       -3.4458585 2.8298173 -1.9942157 0.8587855
0001d0 16 cd 9d c0 34 53 80 c0 68 88 99 3f aa 7a f7 3e
       -4.931285 -4.0101566 1.1994753 0.48335773
