Python/SpeechRecognition/asr_nlp_main_sr/models/taskClassifierPhonWordEmbedding.tflite (tflite, 430084 bytes, 9 tensors)

sequential/dense/BiasAdd/ReadVariableOp f4 [30]
000000 7f 4f d3 3d 03 fe 0d 3e c5 b8 26 3e 8b 8f 99 3e
       0.10317897 0.13866429 0.16281421 0.29992327
000010 6e 46 88 3d dd e4 41 3e db 55 6a bd 5b 3d c8 3d
       0.066540584 0.1893496 -0.057210784 0.097773276
000020 67 7d ce 3d 18 1d 47 3e 49 cf 3d bd 06 4d ca 3d
       0.10082512 0.19444692 -0.04634026 0.09877972
000030 18 b2 53 3e ac 09 46 3e 2b 0b 09 3e da 26 2e 3e
       0.20673406 0.19339627 0.13383166 0.17007008
000040 53 63 8c 3e a2 ce 88 3d 2f e6 97 3e 8b 0d c5 3d
       0.27419528 0.06680037 0.29667804 0.09621724
000050 f5 8e 96 3d 08 3f 56 3e b1 d2 12 3e ef 08 ec 3d
       0.07351486 0.20922482 0.14338185 0.115251414
000060 cf 62 4d 3e 61 76 66 3e 9d 9f ae 3c 12 b1 83 3e
       0.20057224 0.22506095 0.021316344 0.2572103
000070 0b 6e 3d 3e 01 13 33 3e
       0.1849901 0.17487718

sequential/dense_1/BiasAdd/ReadVariableOp f4 [20]
000000 84 04 ae bd 92 8a 1a 3d e6 e1 02 be dc 8b 18 be
       -0.08496955 0.037729807 -0.12781486 -0.14897102
000010 27 cd 3f 3e 9b 56 ba bd 08 be 69 be 0b 43 c1 bc
       0.18730603 -0.0909855 -0.22826397 -0.023591539
000020 06 2a 43 3e 7d 24 a2 bd 99 b7 77 3e 63 23 b7 bd
       0.19059 -0.07917116 0.2419113 -0.08942296
000030 ed 79 6b be b9 66 5e bd e1 44 66 be f8 73 d0 bd
       -0.2299573 -0.054297183 -0.22487213 -0.10178369
000040 46 51 c0 3c 2d d1 21 3e 99 09 28 bc d0 d7 f0 3d
       0.023476254 0.1580245 -0.0102561945 0.11759913

sequential/dense_2/BiasAdd/ReadVariableOp f4 [10]
000000 e9 37 ca 3e a3 ac be 3d 81 90 3c 3e 9c ad 65 3e
       0.3949578 0.093102716 0.18414499 0.22429508
000010 08 a6 bd be 8d 30 f1 bd 1d e8 d4 3c b8 f4 54 3e
       -0.37040734 -0.117768385 0.025989586 0.20796478
000020 f2 4b 83 3e 7b ba d9 bd
       0.2564388 -0.106312715

sequential/first/embedding_lookup/157110 f4 [12488, 8]
000000 99 fc f7 3c 75 08 b3 3c b4 b2 ae ba 79 5d 0c bb
       0.030271815 0.021854619 -0.0013328404 -0.0021418019
000010 7c ca aa bc 2d b1 b9 3c bf 93 06 bd 06 a2 dc 3c
       -0.020848505 0.022667492 -0.032855745 0.026932728
000020 83 45 a7 3c d8 8b 2e 3d 6d 3e 1f bb 6b 42 0d 3c
       0.020418888 0.042613834 -0.0024298683 0.008621792
000030 e8 9b 2d 3d ab ed d9 3c dc 24 4b bc c4 93 9b 3c
       0.042385012 0.026602587 -0.012398925 0.018991359
000040 7d 1a be 3b a1 71 10 3d 8f ab c2 3c 96 7c 92 bc
       0.0058014975 0.035264615 0.023763446 -0.017881673
000050 31 b6 18 bc 2c 9d 93 3d 21 14 0e bd 01 36 91 3c
       -0.009320782 0.072077125 -0.034687165 0.017725946
000060 15 d0 72 3b 5e bb 5a bc 99 0f 9b 3c e4 62 a0 ba
       0.0037050296 -0.013350336 0.018928336 -0.0012236503
000070 07 9b 18 bd e3 c7 89 3c 53 c9 13 bc cb d3 96 3c
       -0.03725722 0.016818946 -0.009020167 0.018411538
000080 65 15 a9 3c 58 1c af 3c 85 9b a7 bb af 5f af 3c
       0.020640085 0.02137582 -0.005114975 0.02140793
000090 91 c7 12 3d dc 1c 86 3d 03 a5 21 bd c9 29 21 3d
       0.035834853 0.06548473 -0.039464008 0.03934649
0000a0 60 4d 05 bc 90 23 9a 3c 0e 04 b3 3b 23 85 62 bc
       -0.008136123 0.018815786 0.00546313 -0.013825688
0000b0 02 e5 19 ba db 20 49 3c a8 c0 89 3a 51 ab 82 3b
       -0.00058706116 0.0122759 0.0010509687 0.0039877077
0000c0 1d d7 7b 3d 9e d9 51 b9 fa c3 7b 3b 4e 8b 48 3c
       0.061484445 -0.00020012862 0.0038416372 0.012240244
0000d0 b8 e5 f9 3c 2c 32 ab bb 4c 74 d2 3b f2 39 ce 3c
       0.030505046 -0.005224487 0.006422555 0.025174115
0000e0 e5 bb 86 3d 0d d9 a9 bb 58 bc 3f 3d 90 5f 6f 3c
       0.06578807 -0.005183345 0.046810478 0.014610186
0000f0 e4 7f 9a 3d 93 d1 d5 3c 75 2c 3d bc bb 90 43 3c
       0.075439245 0.02610091 -0.011546244 0.011936362
000100 06 cc d7 3b a9 0a 8e 3b 46 46 84 bc 62 05 e9 3c
       0.006585601 0.004334767 -0.01614679 0.02844495
000110 15 a0 04 3d ba 34 6c bc 76 e1 4f 3c 46 87 58 3b
       0.03237923 -0.014416868 0.012688031 0.0033039614
000120 94 5a 0c 3d 12 10 9b 3c 77 24 75 bc 52 0b 10 bd
       0.03426607 0.018928561 -0.014962307 -0.035167046
000130 a2 76 af 3c 12 25 54 3b fb ac 1c bc 38 d4 20 bd
       0.021418873 0.0032370728 -0.009562726 -0.039264888
000140 b2 13 6b 3c 10 11 4d 3d b0 11 04 bc 45 2e 38 bc
       0.014347957 0.0500651 -0.008060858 -0.0112415
000150 b3 b1 17 3c f0 7e b7 3b e7 0d 6b bc af f5 df 3b
       0.009258675 0.005599849 -0.014346576 0.0068347077
000160 25 d7 26 3d 40 25 e0 3c 7c 69 4d 3c 7d 3b 6d 3c
       0.04073252 0.027361512 0.0125373565 0.014479515
000170 27 d8 2c 3c 5f 1e fe 3b df 9d 53 3a a4 f0 d2 bc
       0.010549582 0.0077550854 0.0008072536 -0.025749512
000180 64 56 5d 3c fa ee 36 bc ec d8 80 3c c1 df 1b bc
       0.013509367 -0.011165375 0.015728436 -0.009513796
000190 78 27 02 3d 62 f5 42 3d c2 e4 41 3c fd c9 ef bc
       0.03177592 0.047597297 0.011834325 -0.02927112
0001a0 e9 d3 c1 3d 59 d0 5c 3e 78 92 17 bd 20 27 20 be
       0.09464247 0.21563853 -0.037004918 -0.15639925
0001b0 53 44 ac bd 10 49 39 3d 7a 64 b4 bd e9 62 02 3d
       -0.08411469 0.045235693 -0.08808227 0.03183261
0001c0 48 3f 39 bb 6b 0c b8 3c 99 9b 1e bd 9d d5 0b 3d
       -0.0028266478 0.022466859 -0.03872261 0.034139264
0001d0 90 14 29 3d a1 8e e7 3b 2e 10 5a 3d cb cf 50 bd
       0.041279376 0.0070665632 0.053238086 -0.050979417
0001e0 5d b2 97 3c 1f 5b 3b 3c 22 26 1d bd 09 57 af 3b
       0.018517667 0.011435299 -0.038366444 0.0053509516
0001f0 71 85 70 bd cd 40 76 3d e1 da 3c 3b e2 9d 61 bd
       -0.05872101 0.060120393 0.0028816985 -0.05508221
000200 6f b6 e8 3c 85 c9 81 bc 79 7e 10 3c 82 8f 55 bd
       0.028407304 -0.015843162 0.008819216 -0.052138813
000210 5d 33 88 3d 96 8d 6a 3d 79 71 12 bd 59 ed 4f bd
       0.06650422 0.057263933 -0.035752747 -0.05076346
000220 b7 12 56 bb fa 29 61 bc f6 b4 62 3c 36 75 f7 bc
       -0.0032664964 -0.013742918 0.01383709 -0.030207258
000230 9e 01 8a 3c e1 b6 09 bd 22 03 a8 3c 2c a7 2d bd
       0.016846474 -0.033621673 0.020509306 -0.042395756
000240 7a 88 3e 3e 96 14 33 3d 2e db 08 bd 0f c3 9c bc
       0.18606749 0.043720804 -0.03341215 -0.01913598
000250 91 ae fa 3c 69 d3 a9 bd 83 3b 0b 3d 2c 3c 59 bd
       0.030600818 -0.082922764 0.0339923 -0.0530359
000260 90 1e 63 3c 62 70 f5 3b e5 0a 91 bc aa 1f d5 bb
       0.013862267 0.0074902037 -0.01770539 -0.006504019
000270 1b 7d 4a 3d 68 70 37 3c c9 b5 fa 3b 44 fb 46 3c
       0.049435716 0.011196233 0.007651065 0.012144867
000280 c3 31 76 bd fe 85 10 3c 4b 0f 96 3c 83 9c d2 bb
       -0.06010605 0.008821009 0.01831784 -0.006427349
000290 1f c5 8c bd f2 27 17 bd 29 06 ab 3d c9 56 23 bc
       -0.06873535 -0.03690333 0.08350784 -0.009969422
0002a0 ef c1 9b 3c 20 ef bf 3c b6 1e 1b 3d 4e 03 ad bc
       0.019013373 0.023429453 0.037871085 -0.02111974
0002b0 2d 21 b0 3c f9 eb d2 3c f0 9c c3 3c 16 a6 f0 bc
       0.021500194 0.025747286 0.023878545 -0.029376071
0002c0 15 86 28 bd d7 29 b0 bc ff 84 59 3b 1d 58 b5 bb
       -0.041143496 -0.021504326 0.0033190844 -0.0055341856
0002d0 a3 8b a9 3b 29 69 d4 bc f9 e8 07 bb 1a b5 11 3c
       0.0051741167 -0.02592905 -0.0020738228 0.008893276
0002e0 74 d4 61 3d 15 d1 5d 3d 79 e3 10 bc c2 42 8e 3b
       0.05513425 0.054154474 -0.008843296 0.0043414542
0002f0 47 41 52 3c 9f 81 68 3d d5 3d b5 bc b5 6f a3 bc
       0.012832946 0.05676424 -0.02212421 -0.019950727
000300 4d e4 ef bd cf 29 8c bb 9c 6a 3d be 20 34 5a bc
       -0.11713467 -0.004277445 -0.184977 -0.013318092
000310 d7 f6 df bd e7 79 a6 bd 9f da b9 3e a4 94 e8 be
       -0.10935753 -0.0812872 0.36299607 -0.45425904
000320 7c df a7 3a db 0c 9e 3c 84 a7 9c 3c 6c 21 50 3e
       0.0012807692 0.01929324 0.019122846 0.2032525
000330 a9 71 01 be 7d b4 0c bd 1a 0b 77 3d d7 b8 93 bd
       -0.12641014 -0.034351815 0.06031332 -0.0721299
000340 0b 5f f3 bd 6d f1 97 be b1 6e da 3d 7d 59 19 bd
       -0.118833624 -0.2967638 0.10665644 -0.03743886
000350 39 65 21 bc 19 4d 15 bb d5 df f5 3c 51 9a 4b be
       -0.0098507935 -0.002278155 0.030013958 -0.19883086
000360 17 5b b4 bd 2d 13 b4 bd ac 5f b8 3b eb dc 48 bd
       -0.088064365 -0.0879272 0.0056266394 -0.04903881
000370 63 d1 c4 3d fa c5 6e bd 30 8c 8f 3d a3 32 5b 3c
       0.0961025 -0.058294274 0.070091605 0.013378772
000380 e5 9a 66 3e 15 8e cc 3e 5e bc 65 3e b2 fa 8b 3e
       0.22520025 0.3995215 0.22435138 0.27339703
000390 cd 33 25 be 46 87 e8 3d b5 0e 82 3e 10 51 9f be
       -0.16133042 0.11353926 0.25401846 -0.31116533
0003a0 9a 19 27 bd 0b 98 39 3d 4c 15 2d 3c d3 be f7 bc
       -0.0407959 0.045311015 0.01056416 -0.03024236
0003b0 9c d0 9f 3c 9c 27 a2 3d 3d 39 0c bd 20 30 0f 3d
       0.019508652 0.07917711 -0.034234274 0.034958005
0003c0 fb 15 f5 bd 0f a9 c8 bd 5a 8e 8b 3e d7 06 71 be
       -0.11967083 -0.0979787 0.27257043 -0.23537765
0003d0 8d 22 1d 3b 34 2b 88 bd 0a e4 09 be 7d 30 75 3d
       0.0023976893 -0.06648865 -0.13465896 0.059860695
0003e0 ea df 14 3d 2b a7 44 3b ea fe e0 3d 98 bd 96 be
       0.036346354 0.0030006866 0.10986121 -0.29441524
0003f0 30 50 e4 3d 33 6a dd 3d 7f 56 4e be 86 36 98 3d
       0.11148107 0.108112715 -0.20150183 0.074322745

sequential/third/BiasAdd/ReadVariableOp f4 [6]
000000 d4 f9 1f bf e6 71 2a be af a3 c8 3e 8a 5b 09 be
       -0.6249058 -0.16645011 0.3918738 -0.13413826
000010 dd 0f cb 3e 9e 61 33 bf
       0.3966054 -0.70070827

sequential/dense/MatMul f4 [30, 200]
000000 41 3a 88 3e bd 6d 3c 3f b4 7f 28 3f 51 c2 4d be
       0.26606944 0.7360495 0.6581986 -0.20093657
000010 e9 ef 66 3e 51 51 91 3d db 96 09 3f d1 7c ba be
       0.22552456 0.07095588 0.5374581 -0.36423352
000020 22 ce 58 3f 33 ff 42 3e c5 42 94 bd 2a d6 3b be
       0.84689534 0.19042663 -0.07239298 -0.18343416
000030 2c a4 c1 3e 8e 3a d4 3e 15 39 f8 bd 0c 02 cb be
       0.37820566 0.41450924 -0.121202625 -0.3965
000040 d9 8a 18 3f 13 27 99 3e eb 6e 31 3f 91 1d f4 bd
       0.59586865 0.29912624 0.6930987 -0.11919702
000050 a4 22 15 3d 02 7c 05 3f 78 0a 41 bd 13 08 cc 3d
       0.03640999 0.52142346 -0.047129124 0.099624775
000060 12 64 18 3e d3 f4 c4 3e 80 bc a8 3e e7 e3 ed bd
       0.14881924 0.38468036 0.32956314 -0.116157345
000070 e1 ca 22 bf a9 82 ee 3e c2 7d 9d 3b 2c 92 a1 be
       -0.6359082 0.4658406 0.0048062513 -0.31556833
000080 ff 2b dd 3e 2c 52 4a 3e ab 34 54 3e 90 06 29 be
       0.4319763 0.19757909 0.20723216 -0.1650641
000090 1d 52 1a bf f3 2f 92 3c c0 92 36 be 9f 43 ab 3c
       -0.60281545 0.01784513 -0.17829418 0.020906268
0000a0 45 f3 c3 3e 69 ff 04 3e b4 6f 4b 3e 9c 5e 06 bf
       0.38271537 0.12988056 0.1986683 -0.5248811
0000b0 6d e0 13 bf 99 e8 14 bc 34 5c 7a be 3e 5a 38 be
       -0.5776432 -0.009088659 -0.24449235 -0.18003175
0000c0 eb 92 ab 3d 7d 9c 2e bd 51 06 ef 3d 2c 2b b7 be
       0.08377632 -0.042629708 0.11671127 -0.35775125
0000d0 0c 19 a8 be 5a 83 74 3e ff 66 ce bd 84 55 a1 bd
       -0.3283161 0.23878232 -0.10078239 -0.07877639
0000e0 25 89 d6 bd 11 cf e3 3b 19 ea 4d 3d a0 56 ee be
       -0.10475377 0.0069521745 0.05027208 -0.46550465
0000f0 54 76 86 be da 8f c9 39 43 1d 25 be 63 fc 14 bd
       -0.26262152 0.00038444885 -0.16124444 -0.036373507
000100 2f 7f 2e be 6d 5e a3 3d 33 87 ff bd 32 7f 70 be
       -0.17040704 0.07976995 -0.12476959 -0.23486021
000110 1c 6b 96 be 18 d4 c2 3e 6b ac 45 bd aa 9c af bd
       -0.29378593 0.3805244 -0.048260134 -0.08574803
000120 76 09 d3 3c 50 be 7a 3e 24 d2 a1 3a d2 ec a4 be
       0.025761347 0.24486661 0.0012345952 -0.3221193
000130 b6 60 84 be 1f d2 f6 3d 0e 28 da bd 10 49 db bd
       -0.25855035 0.12051796 -0.10652171 -0.10707295
000140 8c c7 2b 3e 87 f7 9c 3e 52 5f 04 3d 79 21 ed be
       0.1677534 0.30657598 0.032317467 -0.463146
000150 07 56 b8 be 9e ab a1 bd 33 80 01 be 56 d7 94 3d
       -0.36003134 -0.078940615 -0.1264656 0.072676346
000160 b0 b5 65 3e 34 7f 1b bb 77 63 ac 3d ab 0f 9a be
       0.2243259 -0.0023726942 0.08417409 -0.3009008
000170 ec eb 0c be c4 96 9c 3d 56 38 0e be 34 3e b7 bd
       -0.13761872 0.07645944 -0.13888678 -0.08947411
000180 24 e2 44 3e aa 30 3e 3e 77 b2 44 be ca b7 4a be
       0.19226891 0.18573251 -0.19208704 -0.19796672
000190 dd 26 f8 bd f9 95 ad 3e de 2f 0d bd 57 ac d2 bd
       -0.121167876 0.33903483 -0.034469478 -0.102867775
0001a0 2c 55 16 3e 29 16 59 3d 39 45 3e bd 7f 05 3a be
       0.14680928 0.05299965 -0.046452735 -0.18166159
0001b0 7e 23 f1 bd 89 4c 65 3e ca 37 13 3d d4 d4 18 3e
       -0.11774348 0.22392477 0.035941876 0.14924937
0001c0 63 1e 70 bc 57 5c ef 3d cb 94 27 bc 18 12 a7 bd
       -0.014655682 0.11687534 -0.010228346 -0.08157748
0001d0 79 4d f2 bd 0f a5 8a 3e d4 f1 1c bd e4 98 9d 3d
       -0.11831183 0.27079055 -0.038316563 0.07695177
0001e0 11 ce a4 3e 2c 68 14 3e f3 b9 95 bb 98 c6 80 be
       0.32188466 0.14492863 -0.004569286 -0.25151515
0001f0 4f 36 6c bd e9 fc ac bc 43 96 0a be 9f aa c4 bb
       -0.05766898 -0.02111669 -0.13533883 -0.006001785
000200 08 fd c5 3c 82 bc 07 3e 4c 22 5d 3e e2 a7 8e be
       0.024168506 0.13255504 0.21595114 -0.2786246
000210 3c a2 b0 bc 83 54 4e 3e 44 bb 83 bd df 73 9a 3e
       -0.021561734 0.20149426 -0.064322025 0.30166528
000220 e6 eb 8d 3e 0e 78 2f 3e 4b d2 a5 3d ca e3 90 be
       0.2771904 0.17135641 0.08096751 -0.2829879
000230 e4 1c 6c be c4 4e 6c 3e f2 18 86 be 51 8f 84 3e
       -0.23057896 0.23076922 -0.26190907 0.25890592
000240 7e c4 20 3e 4f d8 96 3e e2 6a 02 3d 8d 33 16 be
       0.15699956 0.29461905 0.031840213 -0.14668103
000250 cb ef 1b be e3 fb 0f 3e fa 57 64 be 13 91 ee bc
       -0.15228193 0.14060931 -0.22299185 -0.029121911
000260 a9 f7 e7 bc f0 be 13 3e 2d 67 13 bd 22 05 3e be
       -0.028316336 0.14428306 -0.035987068 -0.18556646
000270 e5 a1 3d be 5c 58 27 3e 84 30 25 3d 86 fa 66 bd
       -0.18518789 0.163423 0.04032947 -0.05639126
000280 e2 30 5a 3e b2 2b 8d 3e 89 bb 7b 3e 0f d3 16 be
       0.2130771 0.275724 0.24583258 -0.1472895
000290 5e 81 51 be f1 97 41 3e fa db 85 be f7 86 d7 3c
       -0.20459506 0.18905617 -0.2614439 0.026309473
0002a0 e7 f5 ee 3d 3a 6b 74 3e 97 3f 20 bd 55 a7 d8 bd
       0.11667996 0.23869029 -0.039123144 -0.10578791
0002b0 6d 4c 86 bc 36 64 84 bc e9 06 42 be 3f aa ae 3d
       -0.016393865 -0.016161066 -0.18947949 0.085285656
0002c0 cf ec 5a 3e d1 6c 8a 3e 89 6b a0 3d 33 6b 13 be
       0.21379398 0.27036145 0.07833011 -0.14396362
0002d0 2e 84 8d be 41 da a3 3d f8 02 4b bd 64 99 7c 3e
       -0.27639908 0.08000613 -0.049563378 0.24667889
0002e0 d7 00 21 3e 39 06 01 3e 3c 1b 78 bd 4f fe b1 bc
       0.15722977 0.1260003 -0.060572848 -0.02172771
0002f0 f5 ff d4 bd f1 82 3e 3e b1 d2 da bd 54 9b cc 3d
       -0.104003824 0.18604638 -0.106847174 0.09990564
000300 4c e3 a0 3e 34 1d fc 3d 02 35 17 3e 9f 43 35 be
       0.31423414 0.123102576 0.14766315 -0.17701577
000310 38 28 68 be 58 34 54 3d 36 45 9d bd 81 d0 e3 3d
       -0.22671592 0.05180773 -0.076792166 0.11123753
000320 b2 4d 7f be 70 e4 c7 be bf ed 2b be f6 ef 66 3f
       -0.24931982 -0.3904147 -0.16789912 0.902099
000330 da 7e 3b bf 62 d2 e4 be 77 ba b3 3e 1f 3f d0 3e
       -0.73240435 -0.4469176 0.351032 0.40673158
000340 d0 f3 31 bf bc a9 19 bf 6e 01 f6 be c0 ed 2e 3f
       -0.69512653 -0.6002462 -0.48047966 0.6833153
000350 df 7d 0c bf de 33 a5 3c 11 a3 37 3f a9 27 99 bd
       -0.54879564 0.020166334 0.71733195 -0.07478268
000360 c6 ae 5d be 7a 85 67 3e a9 e9 e7 be fc bb d1 3e
       -0.21648702 0.22609511 -0.45295456 0.40963733
000370 62 81 a1 be 00 f5 06 bf 7c 2a cf 3e 95 89 00 bf
       -0.31544024 -0.5271759 0.404621 -0.50209934
000380 1a 26 c0 be 91 00 91 3e 5b 39 dc be e1 c1 06 3f
       -0.3752907 0.28320745 -0.4301251 0.52639586
000390 5a 4b 0b 3e c2 80 5e be d3 97 01 3f 6a 5b 95 be
       0.13602963 -0.21728805 0.5062229 -0.29171306
0003a0 31 72 97 be 59 55 fe 3e bb 7f a5 be b5 23 a5 3e
       -0.2957931 0.4967449 -0.32324013 0.32253805
0003b0 ef d6 4a 3e a0 0e 8e be 1e 12 45 3e 19 f8 28 be
       0.19808553 -0.27745533 0.19245192 -0.16500892
0003c0 6d 1d 43 be fe 63 90 3e f0 a8 de be 12 54 96 bc
       -0.19054194 0.28201288 -0.43488264 -0.018350635
0003d0 e7 bb f6 3e 03 62 1a be f8 50 94 3d 88 be c3 3b
       0.48190233 -0.15076451 0.07242006 0.005973641
0003e0 8a a0 5d 3e 99 5c 65 3e 20 cc bb be be 23 05 3e
       0.21643272 0.22398604 -0.36679173 0.13001916
0003f0 89 a2 e5 bd a9 27 5e be d5 8f fc 3d dd 2d 70 3d
       -0.11212642 -0.21694817 0.12332121 0.05863749

sequential/dense_1/MatMul f4 [20, 30]
000000 f7 79 46 bf 81 e6 3a 3e e4 d6 f2 3e bd 96 11 3f
       -0.77529854 0.18251993 0.47429574 0.56870633
000010 6b 57 2d bf b5 5a 6c 3f 01 44 a7 be 1a 08 0f bf
       -0.67711514 0.9232591 -0.3266907 -0.55871737
000020 4c bd 91 bd 4c aa 96 be 70 6c de be 82 79 11 3e
       -0.07116184 -0.294268 -0.43442106 0.14206508
000030 b2 40 6a 3f e6 b3 2f bf 09 1b 45 3e 11 b3 d3 3e
       0.9150497 -0.6863388 0.19248594 0.41347554
000040 12 6a 20 3f dc c7 a8 be f9 46 37 be a3 69 8c be
       0.6266185 -0.3296498 -0.17898168 -0.27424344
000050 97 c5 11 bf 00 6c 06 3f 0e a3 99 3e 6d 50 92 be
       -0.56942123 0.52508545 0.30007213 -0.28576985
000060 8f 28 a0 3e 1a a5 ab 3e b0 fc db be 97 d9 69 3f
       0.31280944 0.335244 -0.42966223 0.9134764
000070 fb be 92 3e 5e e8 32 3f 6c 2a f6 3e c6 72 de bd
       0.28661332 0.69885814 0.4807924 -0.10861735
000080 16 bd 9d 3e f8 75 4d 3d 98 a3 15 3f 7c 1b 27 3e
       0.30808324 0.050161332 0.5845275 0.16319078
000090 b9 d1 8f 3e 94 d6 04 bf 84 b6 3c 3e 6b 69 8c 3e
       0.28089693 -0.5188992 0.18428999 0.27424178
0000a0 e0 98 8d 3f 50 cd 79 bd 47 07 72 3e 0e 9f dc bd
       1.1062279 -0.060986817 0.23635589 -0.10772525
0000b0 ec d5 3a 3f 3e be ce be 44 f7 f0 3d 2e 9f 60 bf
       0.7298267 -0.40379518 0.11765912 -0.8774289
0000c0 f0 9e b0 bd 82 a6 c0 3e 80 9b 1f 3f 59 c6 a8 be
       -0.08624065 0.37627035 0.6234665 -0.32963827
0000d0 b1 22 e5 bb bd a7 0d 3f b6 17 7b bd c9 af ba be
       -0.006992661 0.55334073 -0.06130191 -0.36462238
0000e0 08 f9 05 bf 2f 55 60 be 54 34 ad 3e cb d2 78 3e
       -0.52333117 -0.21907495 0.33828986 0.24299161
0000f0 84 a1 9f be cc 05 34 3f 99 11 cc be 48 be 8f 3e
       -0.31177914 0.70321345 -0.39857176 0.2807486
000100 cb a1 41 bf 25 86 7e 3d c4 33 b8 be e3 82 5b 3f
       -0.756375 0.06213965 -0.35976994 0.8574659
000110 eb 5e 25 bf a9 12 68 bf c5 e4 2c bf e4 5e 9c be
       -0.6459796 -0.90653473 -0.67536575 -0.30541146
000120 8b be b8 bd ac ed f2 be 2a 34 10 bf 02 65 8e 3d
       -0.09020718 -0.47446954 -0.56329596 0.069528595
000130 8c 65 f5 3e f4 b0 24 3f 6a 86 09 be d1 1e 8e be
       0.47929037 0.6433251 -0.13430181 -0.27757886
000140 a6 cd 81 be 67 ca d8 3d dd f5 cc 3e 2d db cf be
       -0.2535221 0.1058548 0.4003133 -0.40596905
000150 b3 53 47 3e 8a 6e 80 bb 5e 68 bc 3f e3 0a 00 be
       0.19465522 -0.0039194273 1.471935 -0.12504153
000160 9a d7 3a 3d a0 92 a9 bd 85 76 3f bf 77 a2 01 3f
       0.04561577 -0.082799196 -0.7479022 0.50638527
000170 0c ef cf bd 76 ce d2 bd 29 9a 09 bf 74 2c 08 3e
       -0.101530164 -0.102932855 -0.53750855 0.13298208
000180 7f 5a 7e 3e 89 c7 1f 3f c6 da 87 bf bd 41 13 bf
       0.24839209 0.6241384 -1.0613639 -0.57522184
000190 d2 13 d0 be 10 e8 32 3e 84 e4 05 3d 65 fd 06 3e
       -0.40640122 0.17471337 0.032688633 0.131826
0001a0 ad a8 74 bf fc a0 ea 3e 4b 25 af 3e 15 21 5b 3f
       -0.9556988 0.45825946 0.3420814 0.85597354
0001b0 79 fa 89 bd 71 f2 3a bf 35 fb 9a be bd 32 05 3f
       -0.06737227 -0.73026186 -0.3026978 0.52030545
0001c0 99 c6 df 3e d1 6d 52 bf 4a 4e 1e 3e 30 a4 c1 be
       0.43706205 -0.82198817 0.15459552 -0.37820578
0001d0 c0 db ca 3f db 22 5d be 06 a3 25 bd 61 18 e5 bd
       1.5848312 -0.21595328 -0.040438674 -0.111862905
0001e0 8e 62 8b bd 59 7f ae be c3 7d a5 be 3e 68 6c 3f
       -0.06805907 -0.34081534 -0.3232251 0.9234656
0001f0 30 7b aa be 10 c6 1a be 41 75 72 bf fa 7c 07 3e
       -0.3329711 -0.15114617 -0.94710165 0.13231269
000200 3f 5d e5 3e 0a f0 89 3d 9b 03 11 3f b5 b8 4d bf
       0.44797704 0.06735237 0.56646127 -0.80359966
000210 64 16 28 be aa 88 88 3f 41 4b 44 3f 59 e9 a1 3e
       -0.16414791 1.0666707 0.7667733 0.31623343
000220 5d 90 bd 3f ee ba c1 3e 37 82 55 3f cc 81 02 bf
       1.4809681 0.3783793 0.8340182 -0.50979304
000230 06 9b 1c be e7 bc e7 3e 13 74 c6 be 2d 88 7a be
       -0.15293512 0.4526131 -0.38760433 -0.2446601
000240 9b e6 8a 3f db 35 07 3f ad 1a 3e 3f f3 61 d8 3e
       1.0851625 0.5281655 0.74259454 0.4226223
000250 a8 4c 72 be ac 96 08 bf 19 9b 4e 3e 0d 1a 72 bf
       -0.23662055 -0.5335491 0.20176353 -0.94571
000260 15 cb 7d bf b0 37 1c bc de 2c 6d bd e0 9a 4a bf
       -0.99138004 -0.009534761 -0.057904117 -0.7914257
000270 c8 62 31 bf 89 ec 86 3e 8c 9c 57 3e 10 7f 36 3e
       -0.69291353 0.26352337 0.21055812 0.17821908
000280 d1 a3 5d 3f cf 84 39 bf 67 99 9b be 3f 10 32 3f
       0.8657809 -0.72468275 -0.30390474 0.6955604
000290 da a5 1e 3e 5c 1d e7 be f7 05 7a be df 96 84 3e
       0.15492955 -0.45139587 -0.24416338 0.25896356
0002a0 f5 9e bc 3e 90 e0 a4 3e d9 f8 f4 3d fa b5 11 bf
       0.36840025 0.32202578 0.119615264 -0.569183
0002b0 e0 85 8a bf e6 dd b8 3e 2d 4c 7e be fd fb e9 be
       -1.0822105 0.36106795 -0.24833746 -0.45700064
0002c0 f9 ee 17 bf 41 56 32 bd d9 70 59 bf 43 a3 a6 bf
       -0.5934902 -0.04353929 -0.84937817 -1.3018574
0002d0 9d 06 dd bc 37 e3 46 be b6 3f 0b 3e 89 82 87 bf
       -0.026980693 -0.19422613 0.13598523 -1.0586711
0002e0 ad 73 2c 3f c6 29 5f bf c8 50 27 3f 77 16 a8 3e
       0.6736401 -0.87173116 0.6535764 0.3282964
0002f0 80 9e ad 3e e6 cc 20 bf 19 4d 55 3e d5 49 17 3f
       0.33909988 -0.6281265 0.20830192 0.59097034
000300 1c 06 68 bf 48 30 1d 3e 6d e9 2b bf b1 54 28 bf
       -0.9063432 0.15350449 -0.67153054 -0.6575423
000310 15 60 8d bf 1a 78 60 bf fe 05 ec be f0 9a be 3e
       -1.1044947 -0.8768326 -0.46098322 0.37227583
000320 f7 3b fc 3e 82 c3 81 bf 6a 77 d5 be fd 1d bb 3e
       0.492645 -1.0137789 -0.41692668 0.36546317
000330 b4 b1 74 bf 61 07 99 bf 9f 49 b4 3c 43 47 a6 bf
       -0.95583653 -1.1955377 0.022007762 -1.2990497
000340 2a ae 38 bf b9 29 b7 be ff fb 9f bc 0b 96 61 3f
       -0.72140753 -0.3577402 -0.01952934 0.8811957
000350 71 26 9e 3f d4 82 0f 3e f8 23 87 bd e0 d1 85 3e
       1.2355481 0.1401475 -0.06598657 0.26136684
000360 c1 3f ef 3e 2e 5f af 3c 3f b2 cc be 19 a0 a8 be
       0.46728328 0.02140769 -0.3997974 -0.32934645
000370 37 31 3f bf 84 38 e3 3e 1b 8f 2f 3f 81 27 ea be
       -0.7468447 0.44379056 0.68577737 -0.45733264
000380 a9 53 9c be ec 44 6b 3c 37 72 3a be 2a 21 40 3d
       -0.30532578 0.014359694 -0.18207632 0.046906628
000390 30 46 f1 be ee cd 91 be 1f 0f da 3d db dd de 3e
       -0.4712386 -0.28477424 0.10647415 0.43528637
0003a0 20 6d 94 3f 38 4a 69 be 82 0b 8d 3e 34 f6 24 3e
       1.1595802 -0.22782218 0.27547842 0.16109544
0003b0 0b b3 9e 3e 86 cc bf 3e f5 cc 28 3f b2 ea 8c 3f
       0.30995974 0.37460726 0.6593774 1.1009123
0003c0 f7 dd b4 bd 35 cd cf bc 54 1a 4e 3e 2e 0b 43 3f
       -0.08831399 -0.025366405 0.20127231 0.76188934
0003d0 2a c1 50 bf 84 95 6b 3f e4 e7 36 bf a3 1b 5e bf
       -0.81544745 0.9202502 -0.71447587 -0.8676092
0003e0 18 b9 96 bd 49 6e 25 3f 87 38 18 3e 39 11 01 bf
       -0.073595226 0.64621407 0.14865313 -0.50416905
0003f0 6d 6e 72 3f ab 39 dc bd 0b a4 58 3f 54 0f 65 3f
       0.94699746 -0.10753187 0.8462531 0.89476514

sequential/dense_2/MatMul f4 [10, 20]
000000 97 51 f4 3d 83 48 3b 3f af c0 80 be 3e 96 ce be
       0.119296245 0.7315752 -0.25147006 -0.40349
000010 c6 d6 87 bf 0c ba b9 bd ba 61 c5 3f 8d 38 63 3f
       -1.0612419 -0.09068689 1.5420449 0.88758165
000020 e5 56 5d bf 97 08 83 3f b9 a9 f3 bf 5e 59 14 bf
       -0.86460716 1.0236996 -1.903617 -0.57948864
000030 c5 21 04 40 08 f3 ce 3d 7b 06 92 3f 0a fa 7e be
       2.0645611 0.10104948 1.1408228 -0.2490007
000040 51 15 2f bd 46 7e 24 3f b0 ce a4 bf 4f 4b f6 bf
       -0.04274494 0.6425518 -1.2875576 -1.9241732
000050 77 5a 96 3f b7 3b 0c bf 6b 7b c0 3f fc 39 dd 3f
       1.1746358 -0.5477862 1.5037664 1.728332
000060 0d 62 34 3f bd 14 b7 bf 95 97 02 c0 31 b4 2f 3f
       0.70462114 -1.4303204 -2.0405018 0.68634325
000070 ad 3c bf 3e 2c 7e 94 3e d9 4b dd 3e a8 d8 d9 bf
       0.3735098 0.29002512 0.4322193 -1.7019243
000080 dd 55 75 bf 31 66 ba bf 80 5a ce bf 20 8a 6b 3f
       -0.9583414 -1.4562436 -1.6121368 0.9200764
000090 df d8 85 3f a8 4c fe be 73 da a4 3f 2c 5d d4 3e
       1.0456809 -0.4966786 1.2879165 0.41477334
0000a0 bd 5c 51 3e db 0c 91 3d 3d 98 f6 be 32 06 90 bf
       0.20445533 0.0708253 -0.48163024 -1.1251891
0000b0 3f c4 d3 3f 2e 8f 77 3f 8f d0 15 bf d7 53 86 bf
       1.6544265 0.9670285 -0.5852136 -1.0494336
0000c0 0b c2 a2 3e db c7 d4 bf 07 a8 17 3f c1 ad ae 3f
       0.31788668 -1.6623491 0.59240764 1.3646775
0000d0 96 d6 8d bf be b4 9c 3f 86 92 ce 3e 6b 12 b2 bf
       -1.1081111 1.2242658 0.40346164 -1.3911871
0000e0 02 2c 72 bf 1a 91 8b 3f 4a b3 7a bf 29 47 8c 3f
       -0.945984 1.0903656 -0.97929823 1.0959216
0000f0 c4 70 1a be d3 94 72 3f 11 51 76 bf 79 bb b7 bf
       -0.15082079 0.9475834 -0.9621745 -1.4354087
000100 bf dc a4 3f 4d 98 d7 3f 77 7b 1c bf dd 34 37 bf
       1.2879866 1.6843354 -0.6112589 -0.7156504
000110 cb 44 e6 3e 11 42 04 c0 16 1f aa 3e f1 58 a2 3f
       0.4497436 -2.0665324 0.33226842 1.2683393
000120 8b 0a f2 bf 37 24 80 3f 82 e4 ce 3c 73 a9 a0 bf
       -1.8909467 1.0011052 0.025255445 -1.2551712
000130 57 b1 cc be d6 1e 80 3f f3 71 63 bf ce fc 80 3f
       -0.3997905 1.000941 -0.8884575 1.007715
000140 cf fc 36 bf 42 fd 83 bf 0f 2b c3 3f 87 ac ea 3f
       -0.71479505 -1.0311663 1.5247515 1.8333901
000150 5a 43 0b 3f d9 80 da 3d 6b bc be 3f 95 6e bb bd
       0.54399645 0.10669107 1.4901251 -0.09151951
000160 cc 7e 48 bf d2 53 8f 3e fd 6a 78 3e b5 3a 1b 3f
       -0.78318477 0.27993637 0.24259563 0.60636455
000170 8a 3c a5 bf c3 99 d1 3f a8 b6 16 40 0e ca e1 3f
       -1.29091 1.6375049 2.3548985 1.7639787
000180 60 3f fe be 3f 55 fd bf b0 4c ae 3f c4 68 47 bf
       -0.49657726 -1.979164 1.3617153 -0.77894235
000190 e7 14 bf 3d 59 66 5b bf 10 35 f4 3e 61 0c bf 3e
       0.09330159 -0.85703045 0.47696733 0.37314132
0001a0 fa 07 b4 3f cc 79 a2 3e 09 83 a4 bf f6 39 5a bf
       1.4064934 0.3173355 -1.2852489 -0.8524469
0001b0 b3 ae 27 3f 4b 49 95 bf 54 d2 d8 3f fc d3 12 3f
       0.65500945 -1.1662992 1.6939187 0.5735471
0001c0 8a 56 04 c0 60 43 15 bf 81 78 cf bf 9c 8a 9a 3e
       -2.067782 -0.5830593 -1.620865 0.30183876
0001d0 dd c1 25 bf d0 b1 83 be 59 66 b4 3f c6 2a 01 40
       -0.64748937 -0.25721598 1.4093734 2.0182357
0001e0 0d 04 b6 bf 09 c0 69 3f 1c 38 ae be f8 89 97 bd
       -1.4219986 0.9130865 -0.34027183 -0.07399362
0001f0 d4 ad 35 3e 15 12 a6 3f 10 90 20 3f 5b ff 91 bf
       0.17742091 1.2974268 0.6271982 -1.1406053
000200 06 be 51 bf 40 e0 c9 bf 68 2a 1a be 24 03 b3 3f
       -0.8193058 -1.5771561 -0.15055239 1.3985333
000210 02 4f 8e bc bb c4 9c 3f 39 88 4a 3f 2c c9 de be
       -0.017371658 1.2247537 0.7911411 -0.43512857
000220 0b d0 7c bf 09 88 36 bd c6 4a cf 3d ec 9b f6 be
       -0.9875495 -0.044563327 0.10121684 -0.48165834
000230 30 62 90 3f 27 e8 84 bd fe 9d ae 3e aa 8b 42 3e
       1.1279964 -0.06489592 0.34104913 0.1899859
000240 ae bf 08 bf 92 38 fc bf 48 b2 1c bd 33 a2 04 40
       -0.5341748 -1.9704764 -0.03825596 2.0723999
000250 05 d0 57 3f 3e 69 ea 3f 2e a5 ca bd e2 91 03 c0
       0.8430179 1.8313367 -0.09894787 -2.055779
000260 8a 51 8c 3d 3a 16 e7 bf 1d 05 9d be 78 38 9f 3f
       0.0685149 -1.8053658 -0.30667964 1.2439108
000270 4f d5 ff 3f bb d9 01 bf 05 b9 16 3f aa b3 e9 3d
       1.9986972 -0.50722855 0.5887607 0.11411221
000280 d6 3a bc 3f ea b2 c8 be 7d 5b 9d 3f 5e 63 97 3f
       1.4705455 -0.39199 1.2293545 1.18272
000290 bb 64 5b 3f 90 be e8 be 2a 15 f0 bf cc 5a 0b 3e
       0.8570058 -0.45457888 -1.8756459 0.13608855
0002a0 e9 d9 08 40 0b dd d7 be 1b a8 d0 3f bd 95 8e bd
       2.1383002 -0.4216083 1.6301302 -0.06962154
0002b0 c9 91 97 bf 47 64 7e bf 1d 1f ec bf eb ae 9a 3f
       -1.1841365 -0.9937176 -1.8446995 1.2084631
0002c0 87 53 2a 3f 4c 3b 93 be 84 dc 4c 3f 76 00 c2 3f
       0.665337 -0.28756177 0.8002398 1.5156391
0002d0 62 0e b1 be 87 e4 87 3f de 81 cf bf 9a 37 c7 bf
       -0.34581286 1.0616616 -1.6211507 -1.5563843
0002e0 b8 f7 32 bf b0 a3 e5 3f 5d 52 0b 40 51 b7 b2 bf
       -0.6990924 1.7940578 2.176902 -1.3962194
0002f0 6c c2 78 bf 37 4c 59 be 1b c7 59 bf cb 5f d1 3f
       -0.97171664 -0.2122048 -0.85069436 1.6357359
000300 86 95 6e 3f 54 16 09 40 34 66 fd 3f 62 12 e5 bf
       0.93196905 2.1419878 1.9796815 -1.7896235
000310 d8 73 3a bf 3f 11 b4 3e 26 45 79 bf 24 5f 39 bf
       -0.72833014 0.35169408 -0.9737114 -0.724108

sequential/third/MatMul f4 [6, 10]
000000 24 6c 49 c0 6a 64 50 c0 31 36 bd 3f cf 9d 9a 3f
       -3.1472254 -3.2561288 1.4782163 1.2079409
000010 77 56 c6 bf 80 d5 b9 3f 28 96 8b be cf 31 82 c0
       -1.5495137 1.451828 -0.27262998 -4.06858
000020 dd 9a 5d 3f a2 b0 a2 3f dd 7e 69 c0 19 ce db 3f
       0.8656443 1.2710154 -3.6483681 1.7172271
000030 67 49 46 c0 77 70 40 c0 15 5e 7f 40 e7 02 b1 3f
       -3.0982301 -3.0068643 3.9901173 1.3829011
000040 76 ae 1c c0 6c cb fd bd 77 d7 69 3e 6b 91 61 c0
       -2.4481483 -0.12392315 0.228361 -3.5245006
000050 70 18 bf 3f 9f 10 44 c0 32 ff 2d c0 02 6e d8 bf
       1.4929333 -3.0635145 -2.718701 -1.6908572
000060 77 32 79 bf e5 c3 66 c0 73 c6 bf bf b6 4d 79 3f
       -0.9734263 -3.6057065 -1.4982437 0.973842
000070 e1 24 f5 bf 9d 29 4e 40 c4 93 52 c0 ec 05 9d 3e
       -1.915188 3.2212899 -3.290269 0.3066858
000080 e0 e5 4e 3f 94 43 d7 3f 8e a4 64 c0 8a d7 91 3f
       0.8081951 1.6817498 -3.5725436 1.1393902
000090 4f c7 6e c0 3c c8 23 3f 89 83 fa 3e 57 c6 1d c0
       -3.7309148 0.6397741 0.48928478 -2.4652307
0000a0 e2 2b 5f 3f db bf 77 3f e3 cf 26 c0 03 6e 1e c0
       0.87176335 0.96777123 -2.6064384 -2.4754646
0000b0 69 8d 25 c0 4b e5 2b c0 e3 e9 63 c0 6c af 23 3f
       -2.586756 -2.68587 -3.5611503 0.6393955
0000c0 53 fb 09 40 c8 e0 d2 bf 16 d0 b9 3f f6 05 47 c0
       2.1559646 -1.6474848 1.4516628 -3.1097388
0000d0 38 06 a3 3f 17 ac 84 3f 93 5a 00 40 48 84 30 c0
       1.2736273 1.0365018 2.0055282 -2.7580738
0000e0 f9 4b ec 3f a6 38 51 c0 6a 21 53 c0 84 eb 4f be
       1.8460685 -3.2690825 -3.2989144 -0.20304686
