Python/SpeechRecognition/asr_nlp_main_sr_eval/models/autonom_manual.tflite (tflite, 47300 bytes, 4 tensors)

sequential/dense/BiasAdd/ReadVariableOp f4 [20]
0.63151735 0.2812407 -1.844014 -1.8167082 -1.41445 0.009854901 0.30789056 -0.7391911
-0.4700458 -1.7161531 0.3662841 -1.7841078 1.0802232 -1.4133502 -1.6021532 -1.2304053
-1.6078916 -1.3031795 -1.3421746 -1.2069042
00000000: 1fab 213f c8fe 8f3e a708 ecbf e589 e8bf
00000010: b30c b5bf 7376 213c d5a3 9d3e a13b 3dbf
00000020: d8a9 f0be e8aa dbbf 9789 bb3e a55d e4bf
00000030: c144 8a3f a9e8 b4bf 5b13 cdbf ec7d 9dbf
00000040: 64cf cdbf 96ce a6bf 61cc abbf d67b 9abf

sequential/dense_1/BiasAdd/ReadVariableOp f4 [3]
0.025560247 -0.41401938 0.048962947
00000000: b963 d13c 59fa d3be 5f8d 483d

sequential/dense/MatMul f4 [20, 571]
-0.069896564 -0.12128261 0.59510255 0.3646534 -0.8274871 -0.60672826 0.0014493375 -0.41152725
-0.020773731 -0.55549175 0.2853139 -0.34290648 0.045161568 -0.21798505 -0.3428559 0.3601763
0.14278892 0.31887212 -0.062701136 0.2625388 0.44709396 0.38257894 -0.059033047 -0.12727611
0.57710373 -1.1914839 0.44819644 -0.47194606 -0.42490816 -0.07283515 0.20887412 0.094527885
-0.15905511 -0.28250277 0.17694223 0.37424996 0.21636811 0.16534837 0.1441917 -0.78267103
-0.14135729 -0.14251438 -0.0031699291 0.09434533 0.009520862 -0.20803809 -0.7819842 0.023411894
0.5390408 -0.124923564 -0.015187344 0.530137 0.0959658 -0.1037133 -0.09301414 -0.4404117
0.2646047 -0.08710124 -0.5907212 -0.007142391 0.10912133 -0.6700713 -0.35735893 0.41662768
-0.050874997 -0.58556277 0.5507112 0.5653904 -0.38873032 0.49628958 -0.27265665 0.31680408
0.14354764 0.07741578 -0.24156944 0.1742209 0.2181766 0.09309828 0.27212167 0.053367477
0.3832679 0.10435842 0.18724121 0.1691195 0.26395878 0.22672643 -0.04162718 0.08744421
-0.54502517 -0.13742645 -0.15902194 -0.26232442 -0.030862423 -0.3118496 0.034119423 0.17996095
-0.07493502 -0.1278373 0.6659633 -0.051285286 0.53018636 -0.07126684 -0.12174699 0.4077382
-0.2666717 -0.4762843 0.18895319 0.18207055 0.031292748 -0.1228948 0.6881734 0.125206
0.21424848 0.04357127 -0.3199005 0.23558505 0.59822404 -0.0064888494 0.23594564 0.14515895
0.3448585 -0.19766302 -0.021379042 -0.45449257 -0.60551196 -0.03170599 0.57122654 0.03718646
0.021318411 0.013398994 -0.17251083 0.26621613 -0.11823955 -0.19740592 -0.53436536 0.14229815
0.25771347 -0.2627963 -0.44842616 0.030596314 -0.22807737 -0.79041153 -0.44416192 -1.0785717
0.09043588 -0.17733517 -0.34730497 0.34220326 0.029583123 0.15747082 -0.11179136 -0.25113574
-0.24627672 0.45997384 0.24314344 0.56645393 0.051194634 -0.12739983 -0.666278 0.15611741
-0.13275397 -0.37398332 0.2692798 -0.15586197 -0.6579559 0.041101914 0.32672095 -0.5176215
0.01622889 -0.54070985 -0.037965573 0.21436277 0.6936727 0.12192597 0.53866315 -0.66063523
0.16930315 0.3112702 0.41375446 0.3495306 -0.012180497 -0.71184564 -0.12876087 0.49614003
-0.10402087 -0.62610424 -0.19189706 -0.081440955 0.73944885 -0.020862427 -0.041946467 0.018160047
0.18001895 0.5692938 -0.15395705 0.0071977493 0.21395928 0.14367294 0.41150436 -0.38121408
0.5515937 0.36441937 -0.0075017833 0.2353777 0.6629226 -0.36062744 0.23244517 0.31985912
0.018816013 0.4561759 -0.34748107 0.021812487 -0.119261734 -0.038859397 -0.46713883 -0.55020815
0.030660443 -0.672667 1.0085058 -0.36286157 0.3000181 -0.35425195 -0.543762 -0.14741813
-0.00031834544 -0.26865688 0.5518413 0.22789541 -1.5637753 0.41259098 -0.3135054 -0.17190166
-0.46723267 0.12659533 -0.054926053 0.17251197 -0.088044666 -0.14849485 -0.43837547 0.025018549
-0.09500639 -0.25332996 -0.39117992 0.0021884334 -0.12702355 -0.0918885 -0.22232805 -0.27774805
-0.16144931 0.2254555 -0.37744388 -0.113868065 -0.39202487 0.0100692175 0.32301983 -0.009248579
00000000: ee25 8fbd 0463 f8bd a458 183f dab3 ba3e
00000010: 32d6 53bf 8b52 1bbf b2f7 bd3a b3b3 d2be
00000020: ac2d aabc b534 0ebf aa14 923e 7091 afbe
00000030: 56fb 383d 7937 5fbe cf8a afbe 0769 b83e
00000040: 4237 123e 3543 a33e 7469 80bd 7c6b 863e
00000050: 80e9 e43e 63e1 c33e a3cc 71bd ab54 02be
00000060: 12bd 133f 8b82 98bf 017a e53e eaa2 f1be
00000070: 908d d9be 982a 95bd 19e3 553e d697 c13d
00000080: 58df 22be 34a4 90be 5830 353e b19d bf3e
00000090: 9a8f 5d3e 1551 293e fda6 133e 215d 48bf
000000a0: f7bf 10be 4aef 11be 96be 4fbb 2038 c13d
000000b0: 64fd 1b3c f007 55be 1e30 48bf 4dca bf3c
000000c0: 94fe 093f edd7 ffbd 56d4 78bc 0fb7 073f
000000d0: b889 c43d a367 d4bd 337e bebd a47d e1be
000000e0: 447a 873e 2362 b2bd 8139 17bf b80a eabb
000000f0: 017b df3d cb89 2bbf c0f7 b6be 3950 d53e
00000100: 4d62 50bd 71e7 15bf 69fb 0c3f 6dbd 103f
00000110: a907 c7be ab19 fe3e a799 8bbe 2534 a23e
00000120: 27fe 123e 2a8c 9e3d fb5d 77be f766 323e
00000130: b069 5f3e 50aa be3d 8853 8b3e db97 5a3d
00000140: b13b c43e deb9 d53d 29bc 3f3e aa2d 2d3e
00000150: 9b25 873e f92a 683e 4381 2abd f315 b33d
00000160: c586 0bbf 85b9 0cbe a6d6 22be 634f 86be
00000170: 31d3 fcbc c0aa 9fbe cfc0 0b3d af47 383e
00000180: 8877 99bd c8e7 02be 927c 2a3f 8510 52bd
00000190: 4bba 073f 59f4 91bd 7c56 f9bd 10c3 d03e
000001a0: 3189 88be 89db f3be f27c 413e b470 3a3e
000001b0: d32c 003d 45b0 fbbd 222c 303f 0036 003e
000001c0: f463 5b3e ca77 323d 00ca a3be 353d 713e
000001d0: 3625 193f 6aa0 d4bb bc9b 713e 8ca4 143e
000001e0: 4b91 b03e 2d68 4abe 1a23 afbc 40b3 e8be
000001f0: d502 1bbf 24de 01bd e73b 123f d450 183d
00000200: f3a3 ae3c 7487 5b3c aea6 30be 7b4d 883e
00000210: 9427 f2bd c724 4abe 2bcc 08bf 9bb6 113e
00000220: 05f3 833e 3d8d 86be 1d98 e5be 1fa5 fa3c
00000230: 1d8d 69be 6958 4abf 3169 e3be a30e 8abf
00000240: 7236 b93d 5a97 35be f5d1 b1be 4435 af3e
00000250: 4e58 f23c 0840 213e def2 e4bd dd94 80be
00000260: f72f 7cbe b181 eb3e 98fa 783e 2003 113f
00000270: 77b1 513d 1a75 02be 3291 2abf 3edd 1f3e
00000280: a8f0 07be be7a bfbe 0bdf 893e 489a 1fbe
00000290: cc6f 28bf 7b5a 283d f847 a73e d882 04bf
000002a0: 73f2 843c f66b 0abf ca81 1bbd ea81 5b3e
000002b0: 8994 313f 53b4 f93d d4e5 093f 641f 29bf
000002c0: ce5d 2d3e cf5e 9f3e a0d7 d33e adf5 b23e
000002d0: b590 47bc 843b 36bf e4d9 03be 1106 fe3e
000002e0: e508 d5bd 5e48 20bf aa80 44be 84ca a6bd
000002f0: 854c 3d3f aee7 aabc 0fd0 2bbd 61c4 943c
00000300: e356 383e 3dbd 113f eba6 1dbe 19db eb3b
00000310: 2418 5b3e 001f 133e b3b0 d23e 7e2e c3be
00000320: 3f35 0d3f 2d95 ba3e 85d1 f5bb da06 713e
00000330: 4cb5 293f 29a4 b8be 1b06 6e3e 93c4 a33e
00000340: 0a24 9a3c e38f e93e 0ae9 b1be 1ab0 b23c
00000350: 7f3f f4bd 082b 1fbd d22c efbe 71da 0cbf
00000360: 9c2b fb3c e833 2cbf b816 813f fec8 b9be
00000370: f99b 993e 8360 b5be fd33 0bbf c7f4 16be
00000380: 9ae7 a6b9 658d 89be 7945 0d3f 6a5d 693e
00000390: ca29 c8bf 203f d33e c883 a0be fd06 30be
000003a0: 1f39 efbe 35a2 013e 24fa 60bd faa6 303e
000003b0: c350 b4bd 090f 18be c072 e0be b3f3 cc3c
000003c0: b692 c2bd 77b4 81be bc48 c8be d26b 0f3b
000003d0: 7612 02be 0a30 bcbd f7a9 63be fe34 8ebe
000003e0: f852 25be cedd 663e 5340 c1be a933 e9bd
000003f0: 7cb7 c8be 5cf9 243c db62 a53e 5a87 17bc

sequential/dense_1/MatMul f4 [3, 20]
-2.4581962 2.4895322 0.44275573 0.43262678 -2.0382478 -2.4042573 -2.595194 1.25078
1.4838647 -1.7045345 -3.006943 -1.9800081 -3.3344343 -2.2919528 -2.160128 -0.8071294
-2.0574093 -0.35017294 -1.4185206 1.2923506 -2.9600947 -2.996482 0.48482615 0.81643325
1.2147615 2.6731052 -2.92487 -2.03701 1.0694118 0.22913043 -1.6681466 0.18534754
-3.1018646 -0.75061494 0.67497134 -1.5907662 -0.20992145 1.2279254 -1.3985057 -1.6212826
2.9177988 -2.3531153 -0.074294046 -0.26705113 -0.64683706 -2.2193825 2.6747398 -0.8755706
-2.402091 0.52866745 2.981933 0.7656679 3.2306445 1.6462052 -0.03463559 1.2784995
1.3153278 -0.5115414 0.93666637 -1.5138612
00000000: 1653 1dc0 7f54 1f40 e1b0 e23e 4281 dd3e
00000010: a772 02c0 5adf 19c0 a917 26c0 8f19 a03f
00000020: 47ef bd3f 302e dabf c171 40c0 e870 fdbf
00000030: 5f67 55c0 5baf 12c0 8a3f 0ac0 08a0 4ebf
00000040: 98ac 03c0 de49 b3be 1592 b5bf bf6b a53f
00000050: 3172 3dc0 5cc6 3fc0 223b f83e c501 513f
00000060: 4e7d 9b3f 2814 2b40 1231 3bc0 5f5e 02c0
00000070: 7ce2 883f 2ba1 6a3e d485 d5bf bfcb 3d3e
00000080: f384 46c0 4d28 40bf ecca 2c3f 3a9e cbbf
00000090: a6f5 56be a92c 9d3f 3c02 b3bf 3086 cfbf
000000a0: 37bd 3a40 7199 16c0 7a27 98bd edba 88be
000000b0: 1d97 25bf 5d0a 0ec0 f02e 2b40 6525 60bf
000000c0: dcbb 19c0 c056 073f fed7 3e40 d002 443f
000000d0: e1c2 4e40 dab6 d23f 0cde 0dbd dfa5 a33f
000000e0: a95c a83f 61f4 02bf 5ec9 6f3f 34c6 c1bf
