Python/SpeechRecognition/asr_nlp_main_sr_eval/models/autonom_manual.tflite (tflite, 11536 bytes, 4 tensors)

sequential/dense/BiasAdd/ReadVariableOp f4 [20]
0.30293277 -0.3767843 -0.2614366 -0.387537 -0.33598825 0.06746743 -0.19407713 -0.4148859
-0.40211138 -0.42561147 -0.38990307 -0.056188375 0.32370025 -0.36863437 -0.2510045 -0.41160834
0.3827068 -0.41402933 -0.31005794 -0.33221686
00000000: 011a 9b3e dfe9 c0be 05db 85be 406b c6be
00000010: a706 acbe 5d2c 8a3d 28bc 46be ed6b d4be
00000020: 8be1 cdbe bfe9 d9be 60a1 c7be c825 66bd
00000030: 0abc a53e a5bd bcbe a983 80be 54be d2be
00000040: 25f2 c33e a7fb d3be eabf 9ebe 5418 aabe

sequential/dense_1/BiasAdd/ReadVariableOp f4 [2]
0.025656631 -0.02565663
00000000: db2d d23c da2d d2bc

sequential/dense/MatMul f4 [20, 125]
-0.015532196 -0.15739095 0.16451678 0.25689745 -0.043610867 -0.023628978 0.35601297 -0.2505764
0.33727112 -0.43524253 0.027292961 0.18461797 0.27836472 0.20760874 0.26936316 0.31939608
0.2273516 -0.27772793 0.17595428 0.15161969 -0.21929798 0.09342547 -0.2793919 0.42001653
0.11395155 -0.34793153 0.11463091 0.1330614 0.28073984 -0.30476153 0.30697513 -0.16120793
0.4204568 0.012114091 -0.261229 -0.16593076 0.16012566 -0.32833073 -0.07186826 0.2980519
0.18194406 -0.37392 0.39526907 -0.031946667 0.13948749 0.22581616 -0.19762285 0.3419729
-0.31580704 0.04154646 0.26142108 -0.35828543 -0.3699122 0.41395798 0.22317019 -0.23705624
0.22110595 -0.19267091 -0.2602688 0.2516391 -0.21964891 0.14587574 0.32853225 -0.0054463833
0.41346294 0.20078504 -0.015442624 0.18852879 -0.072788775 0.35388312 0.031257488 0.25167963
-0.040524732 0.27197018 -0.18377855 0.29267526 0.18461049 0.5020955 -0.2623448 0.18511698
0.438639 -0.22588152 -0.11179514 0.2696814 0.0020623617 -0.34570605 0.20262353 -0.032161757
-0.16416529 -0.25065684 -0.28873307 0.33440655 0.06803099 0.4588483 0.24792892 0.25418946
-0.4147458 0.40794674 -0.22914958 0.24062262 -0.250497 0.4693999 0.36763883 0.45273113
0.084935494 -0.009802108 0.3779481 -0.41257423 0.20489964 0.14823835 -0.121992834 -0.37634733
-0.05958441 -0.40260231 0.373046 -0.2703949 0.19802509 -0.12604722 0.14291756 0.5517173
0.16364796 0.30123627 0.29449764 0.47751817 0.44577742 -0.33004674 0.016737526 -0.41826057
-0.42699078 -0.21401192 -0.35254437 -0.2846071 -0.17993681 -0.06867601 -0.07465405 -0.17146781
-0.10923665 -0.36737236 -0.41947892 -0.42463714 -0.2784384 -0.07552161 -0.15690707 -0.25457764
-0.26277298 -0.24465255 -0.38067347 -0.2406224 -0.12945898 -0.1478436 -0.34368035 -0.33548424
-0.1234717 -0.20370999 -0.003096103 -0.4628317 0.021234304 -0.20010383 -0.056620236 -0.02415972
-0.15722468 -0.09718606 -0.01896268 -0.03966432 -0.07152694 -0.14176354 -0.27141944 -0.11240531
-0.06696735 -0.24622966 0.022930026 0.020728407 -0.04559131 0.107112765 -0.40767482 -0.18828887
-0.265212 -0.11733183 -0.3305392 -0.13083874 -0.34965643 -0.23750357 -0.12799598 -0.23951107
-0.16958325 -0.2434409 -0.22341752 -0.17976046 -0.47151345 -0.17195998 -0.47423074 -0.34836113
-0.10417144 -0.3168497 -0.09652729 0.014190757 -0.4423292 0.04487732 0.0568802 -0.3484821
-0.15179731 -0.097961776 -0.40751797 -0.31103507 0.020525482 -0.15515573 -0.28073892 0.099317774
-0.04713444 -0.22531183 0.1475296 -0.34247774 -0.021631418 -0.07294446 -0.17220385 -0.013215187
0.009369661 -0.26353985 -0.15778226 -0.05436126 -0.26628384 -0.14594594 -0.32578444 -0.19657002
-0.24035034 0.11692972 -0.18179822 -0.47201997 -0.17396347 -0.09953488 -0.029146066 -0.18594173
-0.2251719 -0.047817856 -0.21062739 -0.38242087 -0.19459276 0.03969389 -0.15979004 -0.3443917
-0.4309379 -0.0133726215 -0.38731194 -0.21479502 -0.37769592 -0.10798288 -0.20733002 -0.14978069
-0.16728263 -0.18391371 -0.34772962 0.0011641145 -0.053988647 -0.46580258 -0.025044039 0.0035809232
00000000: c07a 7ebc 182b 21be 1677 283e 1088 833e
00000010: 4fa1 32bd 8f91 c1bc 5547 b63e 8d4b 80be
00000020: cdae ac3e 1cd8 debe 7d95 df3c 7e0c 3d3e
00000030: d285 8e3e 6397 543e f8e9 893e e287 a33e
00000040: dcce 683e 5b32 8ebe 5c2d 343e 3142 1b3e
00000050: a68f 60be da55 bf3d 750c 8fbe 680c d73e
00000060: 6e5f e93d 1524 b2be 9cc3 ea3d 3f41 083e
00000070: 22bd 8f3e b409 9cbe d82b 9d3e b113 25be
00000080: 1d46 d73e 2e7a 463c cfbf 85be c1e9 29be
00000090: fbf7 233e f71a a8be ab2f 93bd 429a 983e
000000a0: 8b4f 3a3e 7172 bfbe b560 ca3e 82da 02bd
000000b0: cfd5 0e3e 5a3c 673e a55d 4abe 1217 af3e
000000c0: 76b1 a1be 9f2c 2a3d fcd8 853e 3071 b7be
000000d0: 2265 bdbe 4df2 d33e ba86 643e dfbe 72be
000000e0: 9969 623e 864b 45be f441 85be d7d6 803e
000000f0: a5eb 60be 7360 153e 6135 a83e 9377 b2bb
00000100: 6ab1 d33e 989a 4d3e 0f03 7dbc b10d 413e
00000110: 4812 95bd 2b30 b53e da07 003d 27dc 803e
00000120: 43fd 25bd ad3f 8b3e 7230 3cbe 88d9 953e
00000130: 880a 3d3e 5589 003f 0f52 86be 4e8f 3d3e
00000140: 4a95 e03e 7c4d 67be daf4 e4bd ae13 8a3e
00000150: b028 073b 6200 b1be 8b7c 4f3e 0cbc 03bd
00000160: f21a 28be 1856 80be d2d4 93be 5637 ab3e
00000170: d553 8b3d 2aee ea3e 14e1 7d3e 1f25 823e
00000180: 9059 d4be 65de d03e 30a6 6abe c765 763e
00000190: 2541 80be 2f55 f03e 283b bc3e 60cc e73e
000001a0: a9f2 ad3d 0599 20bc 6a82 c13e ee3c d3be
000001b0: 36d1 513e cbcb 173e 61d7 f9bd 99b0 c0be
000001c0: c80e 74bd e421 cebe e3ff be3e 3371 8abe
000001d0: 17c7 4a3e 8612 01be fb58 123e 583d 0d3f
000001e0: 5593 273e a43b 9a3e 65c8 963e 437d f43e
000001f0: f03c e43e e3fb a8be 231d 893c 4026 d6be
00000200: 899e dabe f125 5bbe b280 b4be 06b8 91be
00000210: 5b41 38be 02a6 8cbd 39e4 98bd 4295 2fbe
00000220: 77b7 dfbd 3b18 bcbe f1c5 d6be 0a6a d9be
00000230: 7a8f 8ebe 13ab 9abd 3fac 20be 0058 82be
00000240: 2e8a 86be 3386 7abe a2e7 c2be b865 76be
00000250: e590 04be 5064 17be dff6 afbe 97c4 abbe
00000260: bbde fcbd 5a99 50be fde7 4abb 47f8 ecbe
00000270: 90f3 ad3c 05e8 4cbe 9fea 67bd 9bea c5bc
00000280: 82ff 20be 7c09 c7bd 9f57 9bbc 0e77 22bd
00000290: b77c 92bd 762a 11be 7df7 8abe c134 e6bd
000002a0: 2e26 89bd a123 7cbe c0d7 bb3c 9fce a93c
000002b0: f4bd 3abd f05d db3d c1ba d0be ccce 40be
000002c0: dec9 87be ac4b f0bd 6f3c a9be 97fa 05be
000002d0: 2b06 b3be 2334 73be 6111 03be 6442 75be
000002e0: 3ba7 2dbe 9248 79be 90c7 64be 2013 38be
000002f0: 366a f1be 4716 30be 5fce f2be 645c b2be
00000300: d657 d5bd 203a a2be 1ab0 c5bd 5980 683c
00000310: f978 e2be 48d1 373d 36fb 683d 3f6c b2be
00000320: c170 1bbe 2fa0 c8bd 32a6 d0be fd3f 9fbe
00000330: 0e25 a83c 25e1 1ebe 03bd 8fbe 1e67 cb3d
00000340: 0b10 41bd 25b8 66be 0012 173e 3e59 afbe
00000350: 5f34 b1bc e863 95bd 3556 30be 8384 58bc
00000360: 3583 193c b2ee 86be ac91 21be eaa9 5ebd
00000370: 5b56 88be da72 15be 38cd a6be a749 49be
00000380: 661e 76be d978 ef3d 5029 3abe 9aac f1be
00000390: 7b23 32be f1d8 cbbd bbc3 eebc 8267 3ebe
000003a0: 7693 66be a8dc 43bd b5ae 57be abcc c3be
000003b0: 5343 47be 0f96 223d 00a0 23be 1c54 b0be
000003c0: e4a3 dcbe d718 5bbc c04d c6be 3af3 5bbe
000003d0: 5c61 c1be 2126 ddbd 524e 54be 1c60 19be
000003e0: 234c 2bbe e053 3cbe 9e09 b2be 3395 983a
000003f0: 3323 5dbd ad7d eebe 2829 cdbc ecad 6a3b

sequential/dense_1/MatMul f4 [2, 20]
0.547748 -0.28452247 -0.7003114 -0.43896702 -0.1464419 0.45832154 0.75147355 -0.28178814
-0.14620088 0.29704577 0.3224198 -0.5573152 0.3507468 -0.20645861 -0.41123745 0.2678625
-0.67692316 0.66356254 -0.17461894 0.3343821 -0.7820514 0.2864492 0.2642838 0.1558966
0.6772979 -0.47396952 -0.14079027 -0.16531248 0.2730175 0.09452561 -0.014276216 0.6421991
-0.96024895 0.3966909 0.65124553 -0.079658136 0.9913925 0.32054886 0.78396636 -0.320667
00000000: 3739 0c3f eeac 91be 9c47 33bf 49c0 e0be
00000010: def4 15be 1fa9 ea3e 9260 403f 8946 90be
00000020: afb5 15be 6216 983e 3514 a53e 35ac 0ebf
00000030: 1695 b33e e369 53be b78d d2be 4625 893e
00000040: d64a 2dbf 3cdf 293f 4fcf 32be 2134 ab3e
00000050: 8534 48bf 78a9 923e 3550 873e 5ca3 1f3e
00000060: 6563 2d3f 22ac f2be 532b 10be ad47 29be
00000070: f3c8 8b3e a596 c13d cae6 69bc 2967 243f
00000080: e0d2 75bf 121b cb3e 07b8 263f ce23 a3bd
00000090: e6cb 7d3f fb1e a43e 05b2 483f 772e a4be
