Python/SpeechRecognition/asr_nlp_main_sr_eval/models/taskClassifierPhonWordEmbeddingRNN.tflite (tflite, 420844 bytes, 10 tensors)

sequential_1/dense_1/BiasAdd/ReadVariableOp f4 [50]
00000000: 1423 01bf f0e4 1d3f 336a 01be ee2b 313e
00000010: fd4a 623e a525 633e 33ea 4b3e c27d 9bbe
00000020: 0052 a43d c642 ba3e 7c03 26be 54bd 403d
00000030: e080 8c3e 3347 c63e ea2b c43d 4994 ea3e
00000040: 64da 75be c319 193f c8a1 093e 6e28 9b3d
00000050: dcb6 b43d 73b7 c83b 2de1 3c3f cc6d 793e
00000060: 839e 503e 03e7 8c3e a21a e63d df4c 1ebd
00000070: 6e8d 12be 5d67 e2bd 21d5 8d3c 5fb3 60be
00000080: 72b0 4f3f 89dd 28be a41a 17bf 878a a83e
00000090: 9ff6 113f f61e 153f 6bb1 c1be b736 043f
000000a0: a489 483e 6ae7 babe a17d a03d 1fe1 f03d
000000b0: 24c2 b73e 5e01 99be 6fb4 da3e 9a26 b53d
000000c0: 5b66 273d dd8a 133f
-0.5044415 0.61677456 -0.12638168 0.17301914 0.22098918 0.22182329 0.19913559 -0.30369383
0.08023453 0.3637907 -0.16212267 0.047055557 0.27442074 0.38726196 0.095786884 0.45816258
-0.2400909 0.59804934 0.13440621 0.07576071 0.0882394 0.0061253845 0.7378109 0.2435829
0.20372967 0.27519998 0.112355486 -0.03864753 -0.14311764 -0.11054871 0.017313542 -0.21943425
0.8112861 -0.16490759 -0.59025025 0.32918188 0.5701694 0.5825037 -0.37830672 0.5164599
0.19583756 -0.3650468 0.07836462 0.117616884 0.35890305 -0.29883856 0.42715785 0.08845253
0.0408691 0.57633764

sequential_1/dense_2/BiasAdd/ReadVariableOp f4 [6]
00000000: 7a4a 6ebc ad21 30bc dfef 9fbd e07c be3d
00000010: 353f fd3c 5953 353d
-0.014544124 -0.010750216 -0.07809424 0.09301162 0.030913929 0.04426894

sequential_1/first/embedding_lookup/318447 f4 [12508, 8]
00000000: f0a4 3ebd 3421 a13c 6283 f93b 8730 6f39
00000010: 07b8 1cbd 8636 ad3c bcc7 80bc 2547 33bd
00000020: c2e6 283a 53c3 04bc 7fec 13bc 52bf b53b
00000030: a12b 6abd c0cd 673d 32dd 4cbd b8eb f3bc
00000040: 2d7d 2c3d eab0 483b aa04 f33c d3ae 71bb
00000050: 9d5e 2e3d a2a7 0abc 5fe7 12bc 2535 2dbc
00000060: 3ea5 8bbc 59e2 33bd a653 4d3c bd4a 57bd
00000070: b614 be3c 32d8 63bc 4d9c 54bc ee28 7c3c
00000080: 013e 0bbd 414c 553b e0ef c3bc ff79 733c
00000090: 93ce 0abb 88d7 c2bc c46a 813d 4bc3 dcbc
000000a0: 3804 863c 309e 833c a9c0 993c efdd 273d
000000b0: dafa 0e3d 298f 713d 52c3 0cbd 1128 25bd
000000c0: fd5b 03bc 22fc 02bd 8ece 1b3c e46d c33c
000000d0: f50d babd 2044 d73c 7f17 453d add6 cb3c
000000e0: a3be 08bd dd98 013d a7b6 e5bd b117 cabc
000000f0: 66f0 c73c 9227 b83d 2b25 d03d d099 8abd
00000100: 44e3 67bb 312e 7d3b 9acc d6bc 494a ac3c
00000110: d5dd e63b 1f6f 3f3c 15c9 3bbd 80a1 303c
00000120: d09b 8abd 3fac d33c 6bca 18bd 4dec b4bc
00000130: a366 b23c ec40 fd3d ed5d 71bc 0be3 4b3c
00000140: fd31 99bc f298 703c 2b8d 21bd e576 18bd
00000150: e1f5 58bc baf2 90bc 93dc 6c3c 89aa ee3c
00000160: ce1c 53bb 9850 7b3b 852d 07bd 5d49 063d
00000170: 17be 22bc c5be 3b3b 25e7 33bb e74a adbb
00000180: 0266 de3c 8de8 443d 1a18 ddbc 69a4 6a3c
00000190: 9751 ee3b 64f4 393d 5aa2 76ba a244 8f3a
000001a0: ed83 97bc c58c 43bc 571f 47bd 6199 c5ba
000001b0: 4f84 813d 5ddf 4f3c 5bf5 0f3d 81e1 283c
000001c0: 4d40 d3bc 1506 453d 57a2 1f3d bf8b d3bc
000001d0: 6924 3cbd fa0d 50bd 0571 debc aa1f abbd
000001e0: 23ec 423c 41bd 0b3d 4ec6 aabc a795 3fbc
000001f0: b53e e43c 9c60 e13c 0d68 5a3c 261d 9bbd
00000200: ab88 2bbd 33d5 1cbd ea29 9b3c 656b 02bd
00000210: 4c41 e6bd 58e6 f9bc 4163 173d 847c 383d
00000220: 88e7 253d 9430 a83c 6db1 02bd 2fb2 c4bc
00000230: a2f5 ff3c 7979 e8bc 1da0 03bc 8a6d 36bc
00000240: c1bf 76bd 2b1a bb3b fdbf ff3c a1ee be3c
00000250: a9d2 43bd a505 b53c 6e08 e33c 2f03 d7bc
00000260: c70d 9b3b ccb8 0d3d b117 46bb 3000 4f3c
00000270: 58b5 bdbc 5ca3 3d3d d6b6 31bd eade 9f39
00000280: 80ac c23d 3170 8c3d 6123 fb3c bb2f 9abd
00000290: d799 31bd 2b52 0bbd e600 a13d cb26 83bd
000002a0: 7304 40bd 2640 29bd fde2 9b3b c7d9 1c3c
000002b0: 09e3 21bc e8a2 76ba 1467 b23c 2f82 d4bb
000002c0: 2c1f 803d 089e 833c 8f37 b53c 93d5 1ebd
000002d0: 3688 af3c ac43 9b3c ef70 dfbb 8d30 5c3c
000002e0: 25d4 62bd 03a2 31bc ce33 a0bd d241 f9bc
000002f0: 2d01 62bd 9844 d43d ec23 913c 577b 3abc
00000300: 1aad ca3d 4ce0 debd 1847 38be ff69 56bd
00000310: 10d6 4bbc 5bd2 55bd d001 223e 97e6 cebd
00000320: 497d e03d a45a 54be 4b53 06be baee ff3d
00000330: c1ac 343d 6bf7 7d3d 0419 133d 27f7 343d
00000340: 9f54 4d3e b56d e4bd 0a26 bdbc 740e aebd
00000350: 0d4c f13d 5002 c4bd 07ba f93d fe45 05bd
00000360: 6dd4 8e3d 4da9 adbc ebc5 6cba fe93 ddbc
00000370: bcac 6c3d f1ad 3cbd 8320 ba3a d69c 893d
00000380: 8a0f 98bd cc10 913d f65e 19bd e30e e9bd
00000390: 23a2 33be 07a6 16bc 5ab7 463e a67d 69bd
000003a0: d3e9 7cbc 90ed 063c 99b7 9e3c fe5d 163c
000003b0: b191 89bd 42d6 f43c 04ff 94bc 6b42 debc
000003c0: 1a9c b6bd 9bf7 b83d ac59 e8bc 4ef6 263d
000003d0: 3b09 71be 6d10 9e3d 7891 2e3d fc11 53bd
000003e0: 5dfd 0cbe 8c75 8d3d d449 ba3d 5a59 fbbc
000003f0: df2f 8ebd 2652 db3b 8b2a e6bc a205 bebd
-0.046544015 0.019669153 0.007614539 0.00022810894 -0.03826144 0.021144163 -0.01572024 -0.04376902
0.0006443077 -0.00810321 -0.009028553 0.005546489 -0.057170514 0.056592703 -0.050015636 -0.029775485
0.042111564 0.0030623027 0.02966531 -0.0036877885 0.0425707 -0.008462818 -0.008966296 -0.010571753
-0.017046567 -0.043917034 0.01253215 -0.05256151 0.023203235 -0.013906525 -0.012976718 0.015390618
-0.03399468 0.0032546672 -0.023918092 0.014860629 -0.0021180257 -0.023784414 0.06319192 -0.026948592
0.016359434 0.01606664 0.018768625 0.040983137 0.0349072 0.05897442 -0.03436596 -0.040321413
-0.008017537 -0.031978734 0.009509696 0.02385611 -0.09084693 0.026277602 0.04811811 0.024882639
-0.03338493 0.031639922 -0.11216479 -0.0246695 0.024406623 0.089919224 0.10163339 -0.06767619
-0.0035383264 0.0038632269 -0.026220609 0.021031516 0.0070454874 0.011684208 -0.045846064 0.010780692
-0.06768 0.02583897 -0.037302416 -0.022085333 0.021777457 0.123658985 -0.014731866 0.012444268
-0.018700594 0.0146849025 -0.03944127 -0.03722276 -0.013242216 -0.017693866 0.014456886 0.029134052
-0.0032213214 0.0038347598 -0.033002395 0.03278481 -0.009933016 0.0028647643 -0.0027451005 -0.00528847
0.02714825 0.04807334 -0.026989032 0.014321425 0.00727291 0.045399085 -0.00094083475 0.0010930488
-0.018495524 -0.011935418 -0.048613872 -0.0015075618 0.06324064 0.012687531 0.0351461 0.010307671
-0.025787497 0.048101503 0.03897318 -0.025823472 -0.04593316 -0.05079458 -0.027153501 -0.08355649
0.01189712 0.034116033 -0.020846512 -0.011693395 0.027861932 0.027511887 0.013330472 -0.07573919
-0.041878384 -0.03828926 0.018940885 -0.0318407 -0.11242923 -0.030505344 0.03695989 0.045040622
0.04050401 0.020530976 -0.031907488 -0.024010746 0.031245057 -0.028378235 -0.008033779 -0.011134515
-0.060241465 0.0057099066 0.031219477 0.023307147 -0.047808323 0.022097418 0.02771398 -0.026246635
0.004731867 0.034600064 -0.0030226524 0.012634322 -0.02315776 0.04629837 -0.043387257 0.00030492927
0.09505558 0.06857336 0.030656518 -0.07528635 -0.043359604 -0.03401391 0.078614995 -0.064038835
-0.046879243 -0.041320942 0.0047572837 0.009573407 -0.00988079 -0.000940843 0.021777667 -0.0064852457
0.062559456 0.016066566 0.022121219 -0.0387779 0.021427255 0.018953167 -0.0068188827 0.01343931
-0.055378098 -0.010841849 -0.07822381 -0.030426893 -0.055176903 0.10364646 0.017717324 -0.011381946
0.09896298 -0.10882625 -0.1799587 -0.05234718 -0.012441173 -0.052202564 0.15821004 -0.10102575
0.10961396 -0.20737702 -0.13117711 0.12496705 0.044110063 0.062003534 0.03591253 0.044181015
0.20051812 -0.111537375 -0.023089428 -0.084988505 0.11782084 -0.095707536 0.12193685 -0.032537453
0.06974111 -0.021198893 -0.00090321776 -0.027048107 0.05778192 -0.04606432 0.0014200363 0.06719367
-0.07424839 0.07083282 -0.037444077 -0.113797925 -0.17542319 -0.009194857 0.1940588 -0.057004593
-0.015436607 0.00823535 0.019374656 0.009177683 -0.067172416 0.029887322 -0.018188007 -0.02713128
-0.08916493 0.09031602 -0.028363071 0.04076224 -0.23538677 0.07717977 0.0426192 -0.051530823
-0.13768525 0.06907186 0.09096113 -0.030682255 -0.069427244 0.0066931425 -0.028096458 -0.09278418

sequential_1/simple_rnn/zeros f4 [1, 8]
00000000: 0000 0000 0000 0000 0000 0000 0000 0000
00000010: 0000 0000 0000 0000 0000 0000 0000 0000
0.0 0.0 0.0 0.0 0.0 0.0 0.0 0.0

sequential_1/simple_rnn/simple_rnn_cell/BiasAdd/ReadVariableOp/resource f4 [8]
00000000: 4c06 2ebc 0d8e 383c 9b9a 8a3c d9ba d9ba
00000010: 5051 5fbc df26 533a cc81 523c e4cb 8bbb
-0.0106216185 0.011264336 0.016919425 -0.0016611471 -0.013630226 0.00080548035 0.012848329 -0.004266249

sequential_1/simple_rnn/TensorArrayV2_1 f4 [25, 1, 8]
00000000: 0000 0000 0000 0000 0000 0000 0000 0000
00000010: 0000 0000 0000 0000 0000 0000 0000 0000
00000020: 0000 0000 0000 0000 0000 0000 0000 0000
00000030: 0000 0000 0000 0000 0000 0000 0000 0000
00000040: 0000 0000 0000 0000 0000 0000 0000 0000
00000050: 0000 0000 0000 0000 0000 0000 0000 0000
00000060: 0000 0000 0000 0000 0000 0000 0000 0000
00000070: 0000 0000 0000 0000 0000 0000 0000 0000
00000080: 0000 0000 0000 0000 0000 0000 0000 0000
00000090: 0000 0000 0000 0000 0000 0000 0000 0000
000000a0: 0000 0000 0000 0000 0000 0000 0000 0000
000000b0: 0000 0000 0000 0000 0000 0000 0000 0000
000000c0: 0000 0000 0000 0000 0000 0000 0000 0000
000000d0: 0000 0000 0000 0000 0000 0000 0000 0000
000000e0: 0000 0000 0000 0000 0000 0000 0000 0000
000000f0: 0000 0000 0000 0000 0000 0000 0000 0000
00000100: 0000 0000 0000 0000 0000 0000 0000 0000
00000110: 0000 0000 0000 0000 0000 0000 0000 0000
00000120: 0000 0000 0000 0000 0000 0000 0000 0000
00000130: 0000 0000 0000 0000 0000 0000 0000 0000
00000140: 0000 0000 0000 0000 0000 0000 0000 0000
00000150: 0000 0000 0000 0000 0000 0000 0000 0000
00000160: 0000 0000 0000 0000 0000 0000 0000 0000
00000170: 0000 0000 0000 0000 0000 0000 0000 0000
00000180: 0000 0000 0000 0000 0000 0000 0000 0000
00000190: 0000 0000 0000 0000 0000 0000 0000 0000
000001a0: 0000 0000 0000 0000 0000 0000 0000 0000
000001b0: 0000 0000 0000 0000 0000 0000 0000 0000
000001c0: 0000 0000 0000 0000 0000 0000 0000 0000
000001d0: 0000 0000 0000 0000 0000 0000 0000 0000
000001e0: 0000 0000 0000 0000 0000 0000 0000 0000
000001f0: 0000 0000 0000 0000 0000 0000 0000 0000
00000200: 0000 0000 0000 0000 0000 0000 0000 0000
00000210: 0000 0000 0000 0000 0000 0000 0000 0000
00000220: 0000 0000 0000 0000 0000 0000 0000 0000
00000230: 0000 0000 0000 0000 0000 0000 0000 0000
00000240: 0000 0000 0000 0000 0000 0000 0000 0000
00000250: 0000 0000 0000 0000 0000 0000 0000 0000
00000260: 0000 0000 0000 0000 0000 0000 0000 0000
00000270: 0000 0000 0000 0000 0000 0000 0000 0000
00000280: 0000 0000 0000 0000 0000 0000 0000 0000
00000290: 0000 0000 0000 0000 0000 0000 0000 0000
000002a0: 0000 0000 0000 0000 0000 0000 0000 0000
000002b0: 0000 0000 0000 0000 0000 0000 0000 0000
000002c0: 0000 0000 0000 0000 0000 0000 0000 0000
000002d0: 0000 0000 0000 0000 0000 0000 0000 0000
000002e0: 0000 0000 0000 0000 0000 0000 0000 0000
000002f0: 0000 0000 0000 0000 0000 0000 0000 0000
00000300: 0000 0000 0000 0000 0000 0000 0000 0000
00000310: 0000 0000 0000 0000 0000 0000 0000 0000
0.0 0.0 0.0 0.0 0.0 0.0 0.0 0.0
0.0 0.0 0.0 0.0 0.0 0.0 0.0 0.0
0.0 0.0 0.0 0.0 0.0 0.0 0.0 0.0
0.0 0.0 0.0 0.0 0.0 0.0 0.0 0.0
0.0 0.0 0.0 0.0 0.0 0.0 0.0 0.0
0.0 0.0 0.0 0.0 0.0 0.0 0.0 0.0
0.0 0.0 0.0 0.0 0.0 0.0 0.0 0.0
0.0 0.0 0.0 0.0 0.0 0.0 0.0 0.0
0.0 0.0 0.0 0.0 0.0 0.0 0.0 0.0
0.0 0.0 0.0 0.0 0.0 0.0 0.0 0.0
0.0 0.0 0.0 0.0 0.0 0.0 0.0 0.0
0.0 0.0 0.0 0.0 0.0 0.0 0.0 0.0
0.0 0.0 0.0 0.0 0.0 0.0 0.0 0.0
0.0 0.0 0.0 0.0 0.0 0.0 0.0 0.0
0.0 0.0 0.0 0.0 0.0 0.0 0.0 0.0
0.0 0.0 0.0 0.0 0.0 0.0 0.0 0.0
0.0 0.0 0.0 0.0 0.0 0.0 0.0 0.0
0.0 0.0 0.0 0.0 0.0 0.0 0.0 0.0
0.0 0.0 0.0 0.0 0.0 0.0 0.0 0.0
0.0 0.0 0.0 0.0 0.0 0.0 0.0 0.0
0.0 0.0 0.0 0.0 0.0 0.0 0.0 0.0
0.0 0.0 0.0 0.0 0.0 0.0 0.0 0.0
0.0 0.0 0.0 0.0 0.0 0.0 0.0 0.0
0.0 0.0 0.0 0.0 0.0 0.0 0.0 0.0
0.0 0.0 0.0 0.0 0.0 0.0 0.0 0.0

simple_rnn_cell/MatMul_1 f4 [8, 8]
00000000: 79a7 15bf 9cb3 81be 7c37 55bf 942f 403e
00000010: 0c43 bb3d d6e9 adbe 33f7 443e 9c6d c2be
00000020: 2a8b f9be b644 903e df9a 293f d087 a83e
00000030: 4fa7 1cbd e4bd cf3e 8e48 db3e 2314 6a3e
00000040: 78e8 0fbe ca96 c13e 72d0 ab3e 331f 77bc
00000050: da49 71bf d49f cdbe 78d4 303d fa9b bf3e
00000060: bbc7 703e 883a f5bd 5d5d 7abd 450b 363f
00000070: b07c f63e 80c9 05bf 2737 2a3d d183 0b3f
00000080: 6419 71be ecc2 17bf af55 073f 92f5 34be
00000090: a433 d03e 09a8 20bf ab2a bcbe 9e48 8dbe
000000a0: fd3e 83be 2c1a 79be 08df afbe 616c 00bf
000000b0: 9272 8bbd 9e0a d63e 9ca5 c8bd 2843 393f
000000c0: ddca d83d aecc 29bf 227c 81be c5ac 253e
000000d0: a22b 86be 697c 773d aaa0 433f 6e85 3dbd
000000e0: f407 0e3e 281c d03e b206 b9bd b6ad 06bf
000000f0: 52e7 633e b8d5 5cbe f921 593f a14b 9b3e
-0.5845867 -0.25332344 -0.8328779 0.1876815 0.091436476 -0.33967465 0.19234924 -0.3797425
-0.48738986 0.28177422 0.6625194 0.32916117 -0.038245495 0.40574563 0.42828792 0.22859244
-0.14053524 0.37810355 0.3355747 -0.015083122 -0.94253314 -0.40161002 0.043171376 0.37423688
0.23513691 -0.119740546 -0.061124194 0.71110946 0.48142004 -0.5226059 0.041556504 0.5449801
-0.23544842 -0.592818 0.5286512 -0.17671803 0.406644 -0.627564 -0.36751303 -0.27594465
-0.25633994 -0.2432639 -0.34349847 -0.50165373 -0.06808962 0.41804975 -0.097972125 0.723681
0.10585568 -0.6632794 -0.25290018 0.16179188 -0.26205164 0.06042138 0.7641703 -0.046269827
0.13870221 0.40646482 -0.0903448 -0.5260881 0.2225621 -0.21565902 0.84817463 0.30331138

simple_rnn_cell/MatMul f4 [8, 8]
00000000: a31a 7c3e 8ef3 b4bd 5d72 47bd 5dc8 193d
00000010: 5c3c 2fbf 8829 fdbc 14db 6d3e 73e3 03bf
00000020: 8a78 123f 7ace 873e 4a52 a13e 3d0d 033f
00000030: 016f 3dbe 6283 d4be be3d ebbe 8031 be3d
00000040: 9ccd 293e 5914 84be ee94 1c3f 016a f6be
00000050: 901a 063e bf36 0fbf 28dc 00bd 7f4f f83e
00000060: 2a46 953d 5521 2dbe bb9b 8fbe 168d 8cbd
00000070: 1369 253e bd19 4f3e a574 233f 695f 09bf
00000080: 6fa7 883d 386c 6ebd 0d4a dfbe dcff 9a3e
00000090: f7f8 15bf 0457 f03e 4817 ed3e 0a98 193f
000000a0: b000 2fbf 986c 5dbe 3f4f e83e 397f e23e
000000b0: 8507 9c3c 07b1 ab3e d437 cbbe 4c50 bc3e
000000c0: 06de adbe fda3 0d3f dbdb 683e 8e7f 0dbf
000000d0: c1bc d0be 88e8 28be 94b2 f43e ac08 15bf
000000e0: 14de e03e 57cd b33e 5fa1 c73c d0d4 6bbe
000000f0: 84b1 04bd 0f9e 733d 9240 cb3d c412 9d3e
0.24619536 -0.08835517 -0.04869305 0.037544597 -0.68451476 -0.030903593 0.23228103 -0.51518935
0.5721518 0.26524717 0.31508094 0.51192075 -0.18499376 -0.41506487 -0.45945543 0.09286785
0.1658234 -0.25796774 0.6116475 -0.4812775 0.1309607 -0.5594291 -0.031459957 0.4849815
0.07288773 -0.16907246 -0.280485 -0.068628475 0.16153364 0.20224662 0.6384986 -0.5366121
0.066725604 -0.058208674 -0.43611184 0.3027333 -0.58583015 0.46941388 0.46306825 0.5999762
-0.68360424 -0.21623456 0.4537296 0.44237688 0.019046554 0.335335 -0.3969103 0.36780012
-0.33958453 0.5532835 0.22740118 -0.5527276 -0.40769008 -0.16494954 0.47792494 -0.5821636
0.43919432 0.351176 0.02436894 -0.230304 -0.032395855 0.05947691 0.09924425 0.3067838

sequential_1/dense_1/MatMul f4 [50, 8]
00000000: 0973 9dbe 30a1 903f c27e 963f 64f0 0d3f
00000010: c213 b0bf 05b9 233e 373f 1f3e 4efc 363f
00000020: 76f4 adbf bb4c 403f 5b4c 553f c1ba 05bf
00000030: 2a34 353f 26ef f63e 14b3 92bf 5a7c 37bf
00000040: 1fca d83d b834 34bf 41f9 81bf 74e7 9dbf
00000050: 71cc d3be 3c94 b43f 6731 6abd c3a4 593f
00000060: c81a 783f 6a08 01bf 3b67 6dbf 8c5d 483f
00000070: d456 17be b6b0 33bf a87a ec3f 3476 c53e
00000080: 69ca 993f 2875 4cbf 328b 3bbf 5950 8a3f
00000090: ead8 1abf bfa3 07bf 136e de3f 11ac 963d
000000a0: 15e2 7d3f 2c27 c5bf f8aa 0dc0 22d3 89bf
000000b0: 47f8 443f aec0 e13e b886 8bbd eb5d 2cbf
000000c0: 893e 433f eb80 183f ffc3 6c3d fcf3 ae3f
000000d0: 3e02 273f e941 b2bf c61c 2f3f 6606 0fbf
000000e0: 1e1a 6ebf e086 6a3e 530b dbbd d4dd bbbf
000000f0: d030 86be 14e3 5e3f 7014 dbbf 397b 4b3e
00000100: 8aa5 a23f 8062 20bf be4f 3ebf e1e0 a33f
00000110: a8dd 04bf 5b30 4abf aaef 0b40 4c17 fb3e
00000120: 60ee 9e3e 3f29 a3be 2b4b b9be f42c 8e3e
00000130: 81a1 5540 b7d6 a8bf b3ab bbbf 6bd9 e6bf
00000140: d04f 81be 8189 0d3e 693f 85be 36b2 63bf
00000150: 03cc 93bf 390e 8b3f ad7e 2bbe 7de6 4c3f
00000160: e72a b63e c528 20bf 7317 63bf 4b21 a93c
00000170: 1562 4040 c372 7cbf e657 75bf 9461 bcbf
00000180: ba08 483f 5821 893d bb81 343f 71fd e33f
00000190: 01f4 093f 30c9 a9bf fa63 9c3f e51d d6be
000001a0: f84d 24bf f34e 9d3f dd0a c93f cbb4 103f
000001b0: 330e a0bd 8829 41bf c67b b8be 3e59 adbe
000001c0: e016 c33f 8182 83bf e2b1 69bf 9509 073f
000001d0: bf60 10bf 9abb 5abd 81a9 c33f 1b06 293f
000001e0: fa96 003f bd61 6d3e bc21 343a db57 5d3f
000001f0: c67e f73f dcd5 53bf 6b90 09bf 09f1 c4bf
00000200: b064 cabe 373d e93e 69e1 973e 1784 69be
00000210: 5add 3fc0 2ab4 973f acfe 8c3f e322 fc3f
00000220: ccf5 32bf f4e1 0840 85df 3940 0540 883f
00000230: 7bb7 a7be 797f 22bf 6a81 c6bd 0ba8 6e3e
00000240: 82f0 7abf 78aa d93f 653d 0740 9548 5c3f
00000250: aa15 14bf d7f0 3ebf 9c20 cfbe 4a43 a83d
00000260: 4eff 9d3f 5595 15bf eaf0 29bf 424a 9f3f
00000270: 6f70 0ebf 5d5f 0ebf bb38 e43f a154 e43e
00000280: 76dc b33f f503 06bf d2a6 9abe 3b42 853f
00000290: 08a8 1abf b8a8 5cbf ad46 0340 116e 913e
000002a0: 69ec 0a3d bbce 753e 911d a43e ec99 b5be
000002b0: 0a0f 1dc0 498b 9a3f 6b00 023f a48d c13f
000002c0: 5867 ba3e 0b3a abbf 0f59 c2bf d6d5 07bf
000002d0: c330 4a3f abc6 85bd 3fab 163e c341 cabe
000002e0: f0cd 993d 2c14 36bf e28f e1be bab6 3b3e
000002f0: ada4 4b40 1cd1 aebf 3ee2 a3bf f964 bdbf
00000300: 6241 1e3f b6f0 aebf 8b9a d9bf 62c6 22bf
00000310: 7d26 ea3c f762 123f 290b 583f 8339 9ebe
00000320: 8cb6 a2bf 080c 803f 09b6 043f f4ce 2ebf
00000330: e5f4 c73e bd66 1e3f 92dd e3bf 8ca3 6bbf
00000340: 27fa 7b3f 9488 45bf add8 f0be c241 953f
00000350: 4b64 c4be 9265 30bf d495 0640 17af 383e
00000360: 1a70 703d c78b 423f 6c47 5d3f 0a48 683f
00000370: 1860 473f b55e 78bf 13e5 c53d 850c 62bf
00000380: a7f0 aa3f 4cad 83bf fe85 37bf c717 833f
00000390: 04fb 52bf 328a 30bf 758e 0040 1157 553f
000003a0: aa3b 05bf 90a5 f73e f262 053f 0397 7dbe
000003b0: 5ee1 3bc0 31db 563f b8af 8a3f c023 c43f
000003c0: 643a 83bf d97f e1bc ef93 1a3d 94f2 a1bf
000003d0: b079 8abe b6ff 303f 38dd cabf 7775 ba3d
000003e0: fbdc 11be 84e4 023f 772d 143f bf47 acbe
000003f0: 9cdf 38c0 f7c8 7c3f 54ad c03f 1eb1 933f
-0.30751827 1.129919 1.1757433 0.5544493 -1.375603 0.15988548 0.15551458 0.71478736
-1.3590229 0.7511708 0.83319634 -0.5223809 0.7078272 0.4822933 -1.14609 -0.7167412
0.105854265 -0.7039294 -1.0154191 -1.2336259 -0.41366914 1.4107738 -0.05717602 0.8501703
0.96915865 -0.50403464 -0.9273564 0.7826774 -0.14779216 -0.70191514 1.8474932 0.38566744
1.2014896 -0.79866266 -0.7325927 1.080577 -0.60487235 -0.5298423 1.7377342 0.07357038
0.991731 -1.5402579 -2.21356 -1.0767558 0.7694134 0.44092315 -0.06812805 -0.6733081
0.76267296 0.59571713 0.057804104 1.3668208 0.65237796 -1.3926364 0.6840328 -0.5586914
-0.930086 0.22903013 -0.10695519 -1.4677072 -0.26209116 0.87065244 -1.7115612 0.19871224
1.2706769 -0.626503 -0.74340427 1.2803003 -0.5190072 -0.78980035 2.186503 0.49041212
0.3104124 -0.31867406 -0.3619016 0.27768672 3.3379824 -1.3190526 -1.4661773 -1.8035101
-0.25256205 0.13821985 -0.2602494 -0.88943803 -1.1546634 1.0863715 -0.16747542 0.800392
0.35579607 -0.6256221 -0.88707656 0.020645758 3.0059865 -0.9861261 -0.9583725 -1.4717278
0.78138316 0.06695813 0.70510453 1.7811719 0.53887945 -1.3264523 1.221801 -0.41819683
-0.6418147 1.2289718 1.570644 0.5652587 -0.07815208 -0.75453997 -0.36031932 -0.3385715
1.5241356 -1.0274202 -0.9128705 0.52748996 -0.5639762 -0.053401567 1.5286103 0.6602494
0.5023037 0.23181815 0.0006871482 0.8646218 1.9335563 -0.827482 -0.5373599 -1.5386058
-0.39529943 0.45554516 0.29664162 -0.22804295 -2.9978852 1.1851857 1.101522 1.9698147
-0.69906306 2.138791 2.9042675 1.0644537 -0.32757172 -0.6347576 -0.096926525 0.23306291
-0.98023236 1.7005148 2.1131222 0.8604825 -0.57845557 -0.7458624 -0.40454566 0.08215959
1.2343538 -0.5843099 -0.6638323 1.2444537 -0.5564031 -0.5561426 1.7829813 0.44595817
1.4051654 -0.5234979 -0.302054 1.0410837 -0.60412645 -0.86194944 2.0511887 0.28404287
0.033916865 0.24004643 0.32053807 -0.35468996 -2.454043 1.2073756 0.5078189 1.512135
0.3640697 -1.3377088 -1.5183429 -0.5306066 0.78980654 -0.065320335 0.14713763 -0.39503297
0.075099826 -0.7112453 -0.44055086 0.18331423 3.181926 -1.3657565 -1.2803419 -1.479644
0.61818516 -1.3667209 -1.7000288 -0.6358396 0.028582806 0.5718226 0.8439203 -0.30903253
-1.2711959 1.0003672 0.51840264 -0.68284535 0.39054027 0.61875516 -1.7801993 -0.9204643
0.9842858 -0.77161527 -0.4704031 1.1660693 -0.38357767 -0.68904984 2.1028948 0.18035541
0.05870066 0.75994533 0.86437106 0.9073492 0.77881 -0.9701951 0.09662833 -0.88300353
1.3354691 -1.0287261 -0.7168883 1.0241631 -0.8241427 -0.6896087 2.008695 0.8333598
-0.52044165 0.48368502 0.52104104 -0.24764638 -2.9356303 0.8392821 1.0834875 1.532341
-1.0252194 -0.027526783 0.037738737 -1.2652154 -0.27045965 0.69140184 -1.5848761 0.09104436
-0.14244454 0.5112994 0.57881874 -0.33648488 -2.888648 0.9874415 1.5052896 1.1538427

sequential_1/dense_2/MatMul f4 [6, 50]
00000000: 895a b9be 8e81 b6bf fa4d 2d3f c6ee 4c3f
00000010: 395e 543f 4b1f 993e eca7 efbe 15ac 5bbe
00000020: 353e b33e 86be aabf 968a 8b3e eafa 4abf
00000030: f43a 50bf f0a0 c2bf 5228 483f 0004 afbf
00000040: 7064 613f ad5e f7bf ead7 fbbf 1eb2 593e
00000050: e6c0 553e 3bb0 f13e be29 d23e d9f4 8cbf
00000060: dafa 9e3e 4719 b9bf e932 833e 2de5 85bf
00000070: fd2f 553f 5f88 443f d417 aa3d 1620 3c3f
00000080: ceb2 00c0 4ce5 0c3f fbd6 3cbf 9d4c aabf
00000090: 8e0e 003f 907f 8fbf 1354 943f 50e7 e8bf
000000a0: 27a5 0d3f 1f3c 2b3f 894e 313f d280 eebf
000000b0: f07d 72bf e8ab 8a3e 876e 03c0 2c0b b8bf
000000c0: fc41 1a3f 7f87 6cbf 9a9d 423f 3d90 9a3e
000000d0: a5a5 b73c 3164 a6bf 61b2 dbbf ea57 02c0
000000e0: ed4b babf d86e 323f 5007 c2bf 1287 76bf
000000f0: c04a 503f a94e 9dbf 8b9b 79bf c8e7 9d3e
00000100: e689 89bf 4c75 b6bf 24c7 163f 4318 f33e
00000110: 2a52 513f 33f0 b3bf 922d e5be 753e 233f
00000120: 5e63 e0bf db82 b0bf 03e4 e5bf 37b8 4e3f
00000130: c52b c8bf c564 d1be ad0d a3bf c017 453f
00000140: e334 0b3f 67ba 693e 4ba2 af3e 31b4 e13e
00000150: c682 713f ffeb 88bf d5ed d5bf 38ef 393f
00000160: 59ab 16c0 e3ed 0e3f 1f63 4fbf 0b36 ecbf
00000170: 6de3 e2bf e13b 623f 9468 b1bf 6f68 593f
00000180: b32c 3f3f 8453 6a3f ec24 3e3f 4295 ba3e
00000190: e6ba 9dbf 19cb 82bf 1259 f0be bbe1 043f
000001a0: 937a 3b3f 0ed6 a83e 81e4 323f ba66 b2bf
000001b0: 9e48 543f f9ca 2b3f 79ca 82bf 5471 573f
000001c0: 4a72 3b3f 9451 61bd 04cd a63e 834a 213f
000001d0: b05a b3bf 0142 edbe 4cf3 c9bf bb6a 273f
000001e0: edae 0b3f 392c 98bf 9db9 363e b939 423f
000001f0: bc49 4f3f 3faf 5dbf 9cb6 333f a2e7 21be
00000200: 853b 5a3f 9603 a5bf eefb 88bf d5fa 60bf
00000210: 3405 0ebf 7a27 64bf 8620 b3bf f91e 1c3f
00000220: 997f 1d3f 9a10 bfbf 5a5a db3e d5e0 0dbf
00000230: fa43 2e3e e0ba 183f 2414 0f3f 2de1 93bf
00000240: 19fe 273f 7515 adbf 52ca cabf 91a0 9abf
00000250: a0d3 adbf 512f e2bf df91 ae3e 0257 ecbd
00000260: e165 dcbe 4572 2b3f 3691 d93e 6e8a 9fbf
00000270: c182 da3e c859 8fbf 84e6 723f 56d8 2ebf
00000280: ab0f cfbd d990 a0bf ca2e 843f bc9c 8dbc
00000290: 5785 013f 6dfd e03d 8ebf 6f3e 8bb1 c73e
000002a0: 411c 063d 1cdf 363f e6a9 4a3f d9da a73e
000002b0: dc78 08bf 6c97 92bf 5288 53be 9777 cdbe
000002c0: 2451 6f3f e945 283e abfc 133f 53a2 313e
000002d0: 3c42 5ebf 339a 063f 088f 59be db54 213e
000002e0: 57a9 01be b858 47bf c3f6 023f 4707 293f
000002f0: 626a 67bf 473d c13e e147 f43d 6afd b5bf
00000300: 2bbd 53be 4fdf 0ebd 9adf 2fbf 4126 6cbf
00000310: c6a4 b23e 754c 51bf 187b 113e df92 143f
00000320: 4525 02bf 194a 003f 4538 9dbf 2cbf e2be
00000330: 8380 c2be 6d6c a6be 32c7 3f3f e670 d3be
00000340: 29d8 67bf dab1 893f c4ba f9be bb87 d13e
00000350: c385 153f 58b7 3a3f b4fc 01c0 0dff 783f
00000360: 7094 78bf 1717 313f bd12 fa3e a07c 66bf
00000370: a337 18bf d559 47bf 9079 523e 0e5b 2a3f
00000380: a1f7 4abf 9bdd 3f3f e5bc 5cbf 6913 5b3f
00000390: 1db1 c0bf 831c a3be 6d1a 163e 8590 66bf
000003a0: 5325 2d3f 979e cabf 1dc6 753e 7d36 623f
000003b0: a02b 68bf 4283 283f 0249 aabf d6b0 4e3f
000003c0: dfb1 eabf 8734 13bf 0e4f 72bf a80b 3a3f
000003d0: fa25 783f 918f 17bf 1bf5 233f f25e ce3e
000003e0: 816c 83bf 197f 283f 13c6 75bf 204b f43e
000003f0: 5d69 633f 5e27 c6be cc06 f9be a179 a33e
-0.36201885 -1.4258287 0.6769711 0.8005184 0.8295627 0.29906687 -0.46807802 -0.21452363
0.35008398 -1.3339393 0.2725417 -0.79289114 -0.81339955 -1.5205364 0.78186524 -1.3673096
0.8804388 -1.9325768 -1.9675267 0.21259353 0.20874366 0.47204766 0.41047472 -1.1012222
0.3105076 -1.4460839 0.2562478 -1.0460564 0.8327635 0.76770586 0.08305326 0.7348646
-2.0109134 0.5503738 -0.73765534 -1.330463 0.5002221 -1.1210804 1.1588157 -1.8195591
0.5533013 0.6688861 0.6926046 -1.8633063 -0.94723415 0.2708428 -2.053621 -1.4378409
0.60256934 -0.9239425 0.7602173 0.3018817 0.022417853 -1.2999326 -1.7163812 -2.0366158
-1.4554421 0.69700384 -1.5158482 -0.9629985 0.8136406 -1.228963 -0.97502965 0.30840898
-1.0745208 -1.4254546 0.58897614 0.47479448 0.81766 -1.4057678 -0.4476133 0.63767177
-1.7530324 -1.3789934 -1.7960209 0.8074984 -1.5638357 -0.40897194 -1.2738549 0.76989365
0.54377574 0.22825013 0.34303507 0.44082788 0.9434017 -1.069702 -1.6713206 0.72630644
-2.3542082 0.55831736 -0.8101062 -1.8453993 -1.7725655 0.8837262 -1.386004 0.8492498
0.7467758 0.91533685 0.7427509 0.36442 -1.2322662 -1.021823 -0.46942955 0.5190694
0.7323391 0.3297581 0.6987992 -1.39376 0.82923305 0.67106587 -1.021804 0.841573
0.73221266 -0.05500944 0.3257829 0.6300432 -1.4012051 -0.4633942 -1.5777373 0.6539723
0.5456379 -1.1888496 0.17844243 0.7586933 0.80971885 -0.8659553 0.70200515 -0.15811017
0.8524707 -1.2891719 -1.0701883 -0.8788274 -0.5547669 -0.89122736 -1.39943 0.6098476
0.61522824 -1.4926941 0.4284237 -0.5542119 0.17018119 0.5966015 0.5589011 -1.1553093
0.656221 -1.3522173 -1.5842993 -1.2080251 -1.3580208 -1.767069 0.34095666 -0.11540033
-0.43046477 0.66971236 0.424936 -1.246412 0.42677882 -1.1199274 0.9488299 -0.6829885
-0.1011041 -1.2544204 1.0326779 -0.01728665 0.50594085 0.10985837 0.23412916 0.39002642
0.03274179 0.7143419 0.79165494 0.32784155 -0.53309417 -1.145246 -0.20657471 -0.40130302
0.93483186 0.16432919 0.57807416 0.17347078 -0.86819816 0.5257904 -0.21245968 0.15755026
-0.12662254 -0.7786975 0.5115778 0.6602673 -0.903967 0.37742063 0.11927772 -1.4217961
-0.2067763 -0.034880932 -0.68700564 -0.9224587 0.34891337 -0.8175729 0.14207113 0.5803661
-0.5083812 0.50113064 -1.2282797 -0.44286478 -0.37988672 -0.32504597 0.7491332 -0.41297072
-0.9056421 1.0757401 -0.48775303 0.40923867 0.5840723 0.7293601 -2.0310488 0.97264177
-0.971015 0.6917586 0.4884242 -0.9003391 -0.59459895 -0.7787145 0.20554185 0.6654519
-0.792841 0.7494752 -0.8622573 0.8557649 -1.5054051 -0.3185769 0.14658518 -0.9006427
0.6763508 -1.5829648 0.24001355 0.8836439 -0.90691566 0.65825284 -1.330353 0.8073858
-1.8335532 -0.57502025 -0.9465188 0.72674036 0.9693295 -0.5920344 0.64045876 0.40306813
-1.0267488 0.65818936 -0.9600536 0.47713566 0.88832647 -0.3870191 -0.48637998 0.31928733
