Python/SpeechRecognition/asr_nlp_main_sr_eval/models/taskClassifierPhonWordEmbedding.tflite (tflite, 650644 bytes, 5 tensors)

sequential/dense/BiasAdd/ReadVariableOp f4 [300]
000000 b8 e6 00 3e 49 75 b8 3d 2f 0e 9d bc 4a 04 f2 3d
       0.12588012 0.09006745 -0.019171802 0.11817224
000010 dd 9f b2 bd 5f 34 00 be 98 60 9e bd c9 41 98 bb
       -0.08721898 -0.12519978 -0.077332675 -0.004646514
000020 51 bf 8f bd 8b 35 a4 bd dd e5 b8 3d 82 cd 21 bc
       -0.070189126 -0.08018025 0.09028218 -0.009875657
000030 30 9d 2e 3d 41 b7 0c 3e d2 9b 5e 3d 95 2d 1a be
       0.042630374 0.13741781 0.05434782 -0.1505645
000040 84 c2 43 3c 2b c4 eb 3d 18 07 9c 3c 23 af e5 3d
       0.011948232 0.115120254 0.019046351 0.11215045
000050 69 9b 3a be 3f 7a a4 3d 96 b9 69 bd 88 37 26 bd
       -0.18223347 0.08031129 -0.057061754 -0.040580302
000060 31 36 ec 3d 28 f9 7e 3c be ca 9b ba bd d9 f0 bd
       0.11533774 0.015562333 -0.0011885983 -0.1176028
000070 c3 83 be 3c 16 b4 22 bd 11 b5 3a 3d f9 66 22 bd
       0.023256188 -0.039722525 0.045582835 -0.039648984
000080 8c e2 e6 3d 23 ce 96 3d e2 09 27 3d 26 76 bd 3d
       0.11273679 0.07363536 0.04078091 0.09251051
000090 95 9b 2b be 30 ae 63 bd f6 19 cf 3d f7 b5 4f 3d
       -0.16758569 -0.05558604 0.101123735 0.050710645
0000a0 28 5a 8e 3d 42 1b 8b 3d c6 13 a6 3d 5d 10 01 3e
       0.0695079 0.067923084 0.0810924 0.12603898
0000b0 53 75 f0 bc 8c ed 76 3b 95 93 c2 3c c4 e7 a5 3d
       -0.02935282 0.003767821 0.023752013 0.081008464
0000c0 f3 e3 2c 3d 2b 6c 5d bd 41 32 76 3d eb 52 97 3d
       0.042209577 -0.054058235 0.06010652 0.07388862
0000d0 4b d6 9b 3d 22 94 46 3b 3d d7 7d bd 7f d9 83 39
       0.076092325 0.0030300696 -0.061972845 0.00025148314
0000e0 2d 82 4a 3d 11 23 07 3e 5c 56 5e bd 88 41 99 3d
       0.04944055 0.1319697 -0.054281577 0.07483202
0000f0 b2 3d 70 3d 84 90 e3 bd 0e 9f cf bd ac 32 93 3c
       0.058652587 -0.111115485 -0.10137759 0.017968498
000100 e2 26 b1 3d 3f d1 a5 3d 84 e5 8a 3d 42 ab 23 bd
       0.086499944 0.08096551 0.06782058 -0.039958246
000110 1e a5 6b 3d 27 af c6 bc ac a0 11 3e a0 19 99 3d
       0.057530515 -0.024253441 0.14221448 0.07475591
000120 02 58 b8 3d 54 e3 b7 3d 84 a5 ce 3d ca 6e 18 3c
       0.09001161 0.08978906 0.10090163 0.009303758
000130 1d 3d 76 3c e1 fe f2 3b a7 61 d4 3c 24 50 c7 bd
       0.015029219 0.007415638 0.02592547 -0.097320825
000140 d4 ad d6 3d 73 e6 dd 3d 8f eb 8c bd 91 23 74 bc
       0.10482374 0.1083497 -0.06880867 -0.014901058
000150 24 6e 02 be df d6 0b 3d 66 44 95 3d 23 b2 1b 3e
       -0.12737328 0.034140464 0.072884366 0.15204673
000160 15 54 b9 b7 cc 1b 9e bd 4a cd ba bd fe d9 b4 3c
       -2.2092872e-05 -0.077201456 -0.09121187 0.022076603
000170 af 90 b1 3d 70 9b e5 bd 17 74 79 bd bf 15 d8 3d
       0.08670174 -0.11211288 -0.060901728 0.10551023
000180 fe cd 00 bd 35 ba b3 3d 03 a7 3f 3d 0f 53 ab 3c
       -0.03144645 0.087757505 0.046790134 0.020913629
000190 f3 ae 01 bc 84 1e 8d bd b6 c0 8d bc 68 18 87 3d
       -0.007915246 -0.06890586 -0.017303806 0.06596452
0001a0 5a bb 02 bd bd b5 b3 3d 51 b8 7c bd 3f b1 fa 3d
       -0.031916954 0.08774898 -0.061699215 0.12240838
0001b0 c3 cd 0a bd 7c d6 e3 3d f8 28 bb 3c cc 78 c5 bb
       -0.033887636 0.11124894 0.022846684 -0.006026363
0001c0 b6 98 ba bd 1b e4 2e 3d 4c fd 25 3e ff b8 7f 3d
       -0.091111585 0.042698007 0.16209906 0.062432285
0001d0 27 3a 97 3d 21 05 3b bd 57 8a 77 bd a7 4e 59 bd
       0.073841386 -0.04565919 -0.060434666 -0.053053524
0001e0 45 00 13 bd 5d 5d b7 3d 6e f1 26 3d b2 ba a3 3d
       -0.03588893 0.089533545 0.04075759 0.07994594
0001f0 6f 92 33 3d c7 c9 1a 3e d0 01 09 3e 03 c3 2f 3b
       0.04384082 0.15116034 0.13379598 0.0026819117
000200 45 af 9e 3d 0f 58 fd bb c7 61 b7 bc 6c 52 bf bd
       0.07748274 -0.0077314447 -0.022385491 -0.093418926
000210 32 1f a6 3c 98 55 ec 3d 1d eb 38 3d 4a 4f ff 3d
       0.020278547 0.11539763 0.045146096 0.12466295
000220 82 dc 95 bc f9 90 f4 bc b0 d7 02 bd 97 34 b6 bd
       -0.018293623 -0.029854285 -0.031943977 -0.088967495
000230 8b 71 5a 3d 45 06 26 be f0 de 8d bd 4e 3c 51 3d
       0.05333094 -0.16213329 -0.069272876 0.0510829
000240 cb 51 88 bc c7 a8 4f bc 92 e4 ed bd 10 1c a2 bd
       -0.016640564 -0.012674517 -0.11615862 -0.07915509
000250 bf 33 07 bd a3 d6 e7 3c 13 7a 6e 3d 6a 41 41 3d
       -0.033008333 0.028300589 0.058221888 0.047181524
000260 15 90 5d 3d 9c 69 b2 3d 66 13 92 bc 43 ef 15 3d
       0.054092485 0.0871155 -0.017831516 0.03660513
000270 c3 4d e5 3b 25 58 9c bd 16 20 8e 3d 60 86 6d bc
       0.0069977953 -0.07634 0.06939714 -0.0144973695
000280 5e 9d bc b9 be f4 39 bc 67 3e a9 3d e2 61 ab 3d
       -0.00035975402 -0.011349855 0.082638554 0.08368279
000290 82 64 82 bd 1b 5c a5 bc ef af 95 bd 15 a8 ad bd
       -0.063668266 -0.02018552 -0.07308947 -0.08479325
0002a0 80 c8 25 be ea 70 02 be ec 70 b4 3c 70 89 aa 3d
       -0.16189766 -0.12738386 0.022026502 0.083269954
0002b0 5c 16 22 3d e7 b8 1b 3e b2 81 ea bd af 31 b9 3a
       0.039572105 0.15207253 -0.11450519 0.0014129187
0002c0 f3 a1 77 3d e8 5a b6 bd 97 a2 6d bd da 2e ec bd
       0.06045718 -0.08904058 -0.058016386 -0.11532374
0002d0 cf dc a1 3c 9e 5b 63 bd f5 98 80 3c 4e 02 dd 3d
       0.01975861 -0.055507295 0.015697936 0.10791455
0002e0 7c 8d c8 3c 2c 29 72 3d c4 62 52 bd 73 86 39 bc
       0.024481528 0.059121296 -0.05136372 -0.011323559
0002f0 50 c1 60 bd 4b 5b 10 3e dc ae 4d bd 25 e0 d6 bd
       -0.054871857 0.14097326 -0.050215587 -0.10491971
000300 0a b9 ec bc 87 bb 12 3d 61 61 5a 3d b1 59 3d bd
       -0.028896827 0.03582337 0.053315524 -0.046228115
000310 3a 11 d9 bc f8 c4 4b 3d 5b 7d 2a 3b d6 ad fb bb
       -0.026497472 0.04974839 0.002601466 -0.007680635
000320 d1 fb 82 b9 26 21 a9 3d 07 97 13 bd 65 14 bf 3c
       -0.0002498315 0.08258276 -0.036032703 0.023325155
000330 62 c3 25 3c 60 75 83 3d 29 b5 5c bd b4 cf f2 bc
       0.010117384 0.06418872 -0.053883705 -0.029640056
000340 4b 2d 8b bc fe 34 ee 3b 7e 7a 1f bc 8a fe 78 3d
       -0.01698937 0.0072695008 -0.009733794 0.060789622
000350 03 b1 0e 3d 1a 96 5e bd 05 4e 37 3d ae 3f 28 3e
       0.03483678 -0.054342367 0.04475214 0.16430542
000360 ff ce c7 3c 6e f1 84 3d 45 0e bb 3d ad 29 bd bc
       0.024390696 0.064913616 0.09133581 -0.023091162
000370 80 1a 75 bd af 0c 02 bc 6a ea a1 bd c9 02 68 3c
       -0.059839725 -0.007937594 -0.07906039 0.01416082
000380 97 0b cf 3c c8 cb 8e bd b1 03 0b 3c e4 e8 f8 3d
       0.025274081 -0.06972462 0.008484767 0.12153795
000390 a0 87 db bd 66 a1 a7 3d 0d 17 ed 3d a1 7c 66 3d
       -0.10719228 0.08185081 0.11576662 0.0562712
0003a0 8c 9f 56 3d 50 f4 51 3c aa ab 60 3d fa 51 e0 bd
       0.05239825 0.012814596 0.05485121 -0.10953136
0003b0 02 97 b7 bd a4 67 7f 3d d3 81 93 bc b3 d8 5a bd
       -0.08964349 0.0623547 -0.018006241 -0.053429317
0003c0 9f 6f 1c bb 50 a3 97 3d 37 91 cd bc b6 d3 7f bd
       -0.0023870242 0.07404196 -0.025093658 -0.062457763
0003d0 e7 29 be bc b7 ca 79 bd 60 2f 33 3d 86 a0 48 bd
       -0.02321334 -0.06098434 0.043746352 -0.048981212
0003e0 bd 48 a0 3c b5 6c ae bd 5c 51 ac 3d 08 d1 3e bc
       0.019565934 -0.08516828 0.084139556 -0.011646517
0003f0 04 6a 8e 3c 1a 34 b7 bd f9 29 ee bc 61 b4 64 3d
       0.017384537 -0.089454845 -0.029072748 0.055836085

sequential/first/embedding_lookup/217028 f4 [12508, 8]
000000 8a e8 01 bb 8a 91 24 3d fa 9f 95 bc 79 c3 de 3c
       -0.0019822442 0.04017786 -0.01826476 0.027192818
000010 87 d4 f4 bc b0 40 09 bd 2a a2 34 3c 07 f8 53 3b
       -0.029886497 -0.033508956 0.011024991 0.003234388
000020 42 57 02 bb 7d 80 42 3d 8a 39 ef 3c 0c 9a 2f bd
       -0.0019888435 0.047485817 0.029202241 -0.04287152
000030 d2 d0 60 bd 51 8a 6a 3c 1c 0a f3 3c 38 c0 46 3c
       -0.054886647 0.014315204 0.029667906 0.012130789
000040 f4 4e cb bb 72 3d 1b 3d c6 cc b4 3c 5f b4 38 bc
       -0.0062044803 0.037900396 0.0220703 -0.011273473
000050 94 4b 86 bd 56 23 0a 3c b2 74 25 3d a7 81 a4 bd
       -0.06557384 0.008431276 0.040394492 -0.08032542
000060 ba 6c 23 bd 53 ae ec bc 49 5c 25 bd fe 92 81 3d
       -0.03989861 -0.028891718 -0.040371213 0.06326865
000070 d7 82 ac 3c b1 5b a9 3c b6 34 a7 3c 15 a7 98 3b
       0.021058483 0.020673605 0.020410877 0.0046585896
000080 f1 3c cd bb d6 5c 74 3c 92 d9 1b 3d c5 b9 60 bd
       -0.0062633683 0.014914712 0.038049288 -0.054864664
000090 4a af 40 bc 60 d1 77 bd 78 ee 42 3d 83 47 d6 bd
       -0.011760542 -0.06050241 0.047590703 -0.104628585
0000a0 1e 53 ab 3c 70 fe fa bc f9 1c 16 bd 85 53 49 3c
       0.020913657 -0.030638903 -0.036648724 0.012287979
0000b0 9b 93 a0 3c 0b 7f 04 3c 57 39 4c 3c 32 c1 a3 3c
       0.019601634 0.00808693 0.012464843 0.019989584
0000c0 3e 53 04 bd 69 ca 55 3d 7a 73 19 3d f7 70 2e bd
       -0.03230595 0.052194986 0.037463643 -0.0425882
0000d0 e0 eb 82 bd 50 9d 6a 3c ec c9 2c 3d 9a 20 9b 3d
       -0.06392646 0.014319733 0.042184755 0.07574578
0000e0 1a 0c 0c be 22 0c 29 3c 1a 5d a0 bb 21 98 33 bd
       -0.13676491 0.010317834 -0.004893911 -0.043846253
0000f0 e2 8b 1b bd 18 fe a0 bc 76 77 0c 3e ee 79 e7 bb
       -0.0379752 -0.019652411 0.13717446 -0.0070640957
000100 96 73 b2 3c 58 4c 92 bc 06 fd 26 3d 9c 9a 99 bd
       0.021783631 -0.01785867 0.040768646 -0.075001925
000110 d6 58 38 3d 2d 25 8f bc 07 2c dd bb 16 29 f0 3d
       0.045006596 -0.017473781 -0.0067496332 0.117265865
000120 45 bb 7d bc 12 e2 6b 3d da b7 86 bc 3a 07 97 bd
       -0.015486543 0.057588644 -0.01644509 -0.07374425
000130 3f 16 e6 3c db e1 34 bd d1 33 4b bd a2 3d 6a bd
       0.02808678 -0.044160705 -0.049609963 -0.057187684
000140 d6 5d a2 3d e3 9c 05 3d b0 c1 75 b9 47 7f 57 bd
       0.07928054 0.032620322 -0.00023437175 -0.052611616
000150 6c 1b 44 bc 5a 99 82 bc c5 60 5e 3b f1 49 4f bd
       -0.0119694285 -0.015942264 0.003393219 -0.050607625
000160 e1 2d 32 3d a0 cb 90 3d bc 3d fb 3c c4 ad 98 bd
       0.043500785 0.070700884 0.030669086 -0.07455018
000170 f9 d2 4b bc 80 4d b9 bc 95 0b 0e 3c 3b 1f e0 3a
       -0.0124404365 -0.022619963 0.008669754 0.0017099151
000180 d4 c6 81 3b 94 0f 26 3d 4b 7f 6a bd 9d 6f 49 bd
       0.0039604697 0.0405422 -0.057250302 -0.04917871
000190 75 d5 30 bd bf fa 29 bd 68 df ee bc 27 a0 df 3c
       -0.04317232 -0.041498896 -0.029159263 0.027298046
0001a0 bc be 0b bd 38 25 4f 3d 43 3d 99 bc 25 5a 00 3d
       -0.034117445 0.050572604 -0.01870597 0.03133597
0001b0 1f 6d 3f 3a 78 2a b4 3c 8f 00 48 be 4a 8b 44 bc
       0.0007302332 0.021992907 -0.19531463 -0.0119961
0001c0 5b 61 0e 3e b5 70 2f be 7b 94 ad 3d 63 88 f0 3d
       0.13904326 -0.17132838 0.08475586 0.11744764
0001d0 84 21 d7 bd 9f 54 61 3d 33 d7 68 bd a3 ff 89 be
       -0.105044395 0.05501234 -0.056845855 -0.26952848
0001e0 36 60 0a 3e f7 9f b2 3d e0 fd 48 3d 77 41 43 3c
       0.13513264 0.08721917 0.04907024 0.0119174635
0001f0 66 7e 85 bc da 85 55 bd 92 1a 8d bb ed 9a 97 3d
       -0.016295623 -0.052129604 -0.004306146 0.074025966
000200 9d 3f c1 3d 2e b2 de 3d ad fa 66 bd f6 d6 6d be
       0.094359614 0.10873829 -0.056391407 -0.23226532
000210 37 fc a3 3d af 13 66 be 59 49 ce 3c 3b 60 6a bd
       0.080070905 -0.22468446 0.02518146 -0.05722068
000220 ec b8 3d 3d 09 3a 96 3d 23 ef 5c bd 9d 59 1d be
       0.046318933 0.07335288 -0.053938996 -0.15366216
000230 16 a4 74 3d b2 8d 44 bd 4d 3a c6 bc 57 73 89 3d
       0.059726797 -0.047986694 -0.024197722 0.067114525
000240 8b 6c d9 bd 1f 18 2c be 95 80 fb 3c cb e8 9c bd
       -0.10616406 -0.16806076 0.030700961 -0.07661589
000250 b8 2e 8e bd 06 22 76 3d 42 2a a7 bd c3 40 fe 3a
       -0.06942505 0.06009104 -0.08162357 0.0019397963
000260 d7 cf 70 bb 88 bc 02 3d a3 64 b7 ba 9b 04 7e bd
       -0.0036744976 0.03191808 -0.0013991784 -0.06201611
000270 7e 03 05 bd d7 a0 56 3d 7e 7b 16 be 8d ab 14 3d
       -0.032474034 0.052399483 -0.14695546 0.036296416
000280 60 e6 1c 3c 88 37 25 bc 5f 7f c6 ba 68 14 b7 bd
       0.00957641 -0.01008404 -0.0015144161 -0.08939439
000290 82 d9 0b 3e 0d 73 d0 bc 54 60 36 be aa 31 0f bd
       0.13657191 -0.025445485 -0.17810184 -0.034959473
0002a0 43 56 df 3b 20 03 4a 3d 65 e4 93 bd 3f f2 73 3c
       0.006815703 0.049319386 -0.07221297 0.014889299
0002b0 c6 c9 10 3d 20 00 63 bc 5c 94 8a bd 5c 0e 03 3d
       0.035348676 -0.01385501 -0.067665786 0.031996116
0002c0 a5 6d 9d bd a5 cb b9 bb 34 e6 7e 3d 84 c7 15 bd
       -0.07686929 -0.0056700283 0.062231258 -0.036567226
0002d0 d8 8c d3 bc e0 56 3f bd ef bf 8d bc 1e a8 90 bd
       -0.025823995 -0.04671371 -0.017303435 -0.07063316
0002e0 09 67 aa 3d b4 7b 95 3c d8 0e 3b 3d d9 10 2f bd
       0.08320434 0.018247463 0.045668453 -0.042740677
0002f0 7f c1 24 be 55 0c 8d bd b4 c4 4e 3e 58 7c a1 38
       -0.16089438 -0.06887118 0.20192224 7.700239e-05
000300 2d 8c bb be e3 01 6b 3e 54 c6 0f 3e 05 de 37 3d
       -0.36630383 0.22949938 0.140405 0.04488947
000310 31 02 28 3e 4d 11 c2 3c 59 72 22 be 94 6c 76 be
       0.16407086 0.02368989 -0.15863933 -0.24064857
000320 8c 08 7a be b2 95 24 3e 06 7d 13 3c bc 30 34 3e
       -0.24417323 0.16072729 0.009001976 0.17596716
000330 18 bd 16 3e 69 5a a8 bd 21 70 23 3e 1b c0 00 3e
       0.14720571 -0.08220369 0.15960743 0.12573282
000340 e8 18 a2 bc 25 5f 8a 3e ce 30 c0 bd 3b d4 d0 be
       -0.019787267 0.27025715 -0.09384309 -0.4078692
000350 db 4f f5 3e 91 69 97 3c 27 5a 76 3e 60 d6 6b 3e
       0.47912487 0.018482955 0.24057828 0.23030996
000360 e7 53 bf bd 5f f4 c5 3d e8 57 f0 bd 1b c0 40 be
       -0.09342175 0.09665751 -0.11735517 -0.18823282
000370 a9 73 f0 3d a5 e3 95 bd 22 c5 c8 bd ba 4d f6 3d
       0.117408104 -0.073188104 -0.09803225 0.12026544
000380 fe aa 86 3e ee e6 9f 3e 0e 04 ad 3e 8f 03 02 3e
       0.26302332 0.31230873 0.33792156 0.1269667
000390 42 f8 e2 be da d6 9f 3d 13 91 da be b4 c5 af be
       -0.4433003 0.078046516 -0.42688808 -0.34330523
0003a0 0f 00 13 3a b2 90 37 3e 69 2d 7b bc fa 32 2e 3d
       0.0005607614 0.1792629 -0.015330651 0.042529084
0003b0 79 2e 60 bd d7 4a a5 3d f1 ae 1b bd 66 75 1e bd
       -0.05473182 0.08070915 -0.038008634 -0.03868618
0003c0 28 d2 eb be 70 55 c3 be f6 7f 57 3e 13 85 81 3e
       -0.46058774 -0.3815112 0.21044907 0.2529684
0003d0 7a 0d 9c bc 78 ec 30 3f 49 ec 51 3d 87 fe 14 be
       -0.019049395 0.6911082 0.05125073 -0.1455022
0003e0 a5 79 51 3d 20 a8 84 be 89 4e ac be 28 b4 62 3e
       0.0511414 -0.2590952 -0.33653668 0.22139037
0003f0 c6 b1 48 be 04 98 b8 bc cc c4 80 3e 00 0a 24 3d
       -0.19599065 -0.022533424 0.25150144 0.0400486

sequential/third/BiasAdd/ReadVariableOp f4 [6]
000000 fa 52 7d 3c 38 10 fb 3b 14 9e eb 3a d9 a3 2b bc
       0.015461678 0.0076618455 0.0017976188 -0.010476076
000010 bd 02 8a bb 5b a6 32 3d
       -0.004211752 0.04361568

sequential/dense/MatMul f4 [300, 200]
000000 57 9e c2 3d 60 4a 8e bf e7 e7 31 bf 57 1d 7b bf
       0.09502857 -1.1116447 -0.6949448 -0.98091644
000010 11 0a 33 3f 94 44 8a be 9d af e0 3e 0b ac 23 3f
       0.69937235 -0.27005446 0.43883982 0.6393439
000020 ac a7 1e be ce f0 94 bf f7 46 8e be 5f 0d 93 bf
       -0.15493649 -1.1635988 -0.27788517 -1.1488456
000030 51 26 38 3f 89 fd ba 3d cd 23 bd 3f b5 fc e6 3e
       0.71933466 0.09130389 1.477655 0.45114675
000040 01 f2 71 be 5d 5c 33 bf 38 2b 73 3e ef b2 2a bf
       -0.23627473 -0.7006281 0.23746955 -0.6667928
000050 1d 01 7c bd 05 81 9a bd 3f 1a 6f 3f 29 a8 9c 3e
       -0.0615245 -0.0754414 0.93399423 0.30597046
000060 64 a2 9e be 90 d5 8e be 3c b0 07 bf 17 37 7a be
       -0.3098327 -0.2789731 -0.5300329 -0.24435078
000070 26 07 79 be d8 c7 2f bf 90 3f 80 3f e8 4c 65 3f
       -0.24319133 -0.6866431 1.0019398 0.89570475
000080 58 1b 9e be 8f 47 3f b7 6c 37 02 be 3f 3e 98 be
       -0.30880237 -1.1401148e-05 -0.12716454 -0.2973499
000090 83 a4 af 3e fb 8a 0e bf db 18 89 3f 2d 5f 26 3f
       0.343052 -0.5568082 1.071071 0.64988977
0000a0 a9 9e 90 be 59 98 07 3e ff 1a 60 bf 3a a2 a3 bd
       -0.28246048 0.1324171 -0.8754119 -0.07989927
0000b0 99 7a 9d 3d d1 ec 12 bf 31 80 0f 3f f0 32 59 3f
       0.07689399 -0.57392603 0.5605498 0.8484335
0000c0 8e c7 28 3e 87 b0 f0 bd cc d4 2c bf 14 71 d6 3e
       0.16482374 -0.1175242 -0.675122 0.41883147
0000d0 84 ad 37 3e 3e 81 64 be cc 8b f9 3d 7f 67 6c 3f
       0.17937285 -0.22314927 0.12184867 0.9234542
0000e0 f3 56 07 bf c9 e0 f3 3d 75 d8 ec be 7b d3 9b 3e
       -0.5286705 0.11908109 -0.46258894 0.30434784
0000f0 53 e4 f3 bd da fc 65 3d a7 0b c5 3e fc 97 71 3f
       -0.11908784 0.05614934 0.38485453 0.94372535
000100 44 35 1f be 51 ff 47 be 52 c3 30 bf 33 fb 87 3e
       -0.15547663 -0.19530989 -0.69048035 0.26558837
000110 2e ff 3e 3d cf 18 88 be 4e 14 1c 3e d0 43 45 3f
       0.046630077 -0.26581427 0.1524212 0.770566
000120 69 8b c5 be d1 bb 8e 3e bd d0 fc be 47 fd b0 3c
       -0.38582924 0.27877668 -0.49378005 0.021605147
000130 94 5e 33 3e d4 43 f6 3d e9 65 c9 3d eb 84 83 3f
       0.17516547 0.12024656 0.09833891 1.0274938
000140 3a df 94 be 7e e6 19 3e 45 4b fd bd 09 5d 33 bd
       -0.29076558 0.15029332 -0.12367872 -0.043789897
000150 bb 2c 52 3d ac ea ef bd d2 86 35 be 0f 7e 3d 3f
       0.05131219 -0.11714682 -0.17727211 0.74020475
000160 ad 32 bd be d4 c9 62 3e c3 bf 8f bd bb 2f a9 3d
       -0.36952725 0.22147304 -0.070189975 0.08261057
000170 71 fd a8 bb 87 00 dd 3c 95 a3 39 3e c5 3c 57 3f
       -0.0051571657 0.02697779 0.18128808 0.840771
000180 4c 63 bb be 4a af 64 3a 7e 97 31 be b5 62 a7 3c
       -0.36599195 0.000872363 -0.17342946 0.02043281
000190 e8 b3 5a be 3c 5f 79 3c 57 59 2f be 45 8b 01 3f
       -0.21357691 0.01522046 -0.17123924 0.50603133
0001a0 6d 07 f8 be f8 4a 58 bc 0d 23 20 3e 5a 7c 55 3e
       -0.48443165 -0.013201468 0.15638371 0.20848218
0001b0 16 13 5c bb 02 87 36 3d de 38 d6 3d 22 f2 10 3f
       -0.0033580712 0.044562347 0.10460065 0.56619465
0001c0 0b 70 25 3e 90 c0 f0 3d 5a 57 42 3e 09 14 08 be
       0.16156022 0.117554784 0.18978634 -0.13288893
0001d0 22 25 fb bc 4b a7 f0 39 8e d9 a9 3c b7 ea 92 3e
       -0.030657355 0.0004590101 0.020733621 0.28694698
0001e0 a4 ee bf 3d 5c b1 e8 3d 27 4b 22 bd 2f 5d 5b bc
       0.09371689 0.113619536 -0.039622452 -0.013388916
0001f0 e5 9c 6a 3e 2f fb 0a 3d a0 a5 ee bd 95 26 bb 3e
       0.22911413 0.033930954 -0.11652684 0.36552873
000200 de 3c 88 3e 69 6f 8c 3d 29 b7 b8 bd 46 32 b9 3b
       0.26608938 0.06857187 -0.0901931 0.005651745
000210 b5 94 b3 bd 5b f2 f2 3b 45 3d 8e bc 6d 50 e9 3e
       -0.08768598 0.007414145 -0.0173632 0.45569173
000220 8a 49 7e 3e 6f 78 76 3c a8 68 83 3d 6e 5a 88 3d
       0.2483274 0.015043362 0.06416446 0.06657873
000230 da 64 14 3d 28 61 9f bd 82 6d 88 bc 9e f3 a8 3e
       0.036228992 -0.07782203 -0.01665378 0.32998365
000240 a1 44 17 3d 62 e9 a8 3b 5e 26 ad 3d a3 e1 bf ba
       0.036930684 0.0051547745 0.084545836 -0.0014639389
000250 e4 f2 f2 3c 18 c0 12 bd 4b f9 4e be e0 39 9f 3e
       0.029656835 -0.035827726 -0.20212285 0.31098843
000260 ea 9a 94 3e a7 80 ed 3d bb 12 96 bd be 06 54 3d
       0.2902444 0.11596804 -0.07327791 0.051764242
000270 15 1e 18 3d 60 ad cd bc 8e 2d 0d be 4a 1b 69 3e
       0.037138063 -0.025107086 -0.13786909 0.22764316
000280 4e 48 3a 3e 0e 53 90 3b 9f bf 5c bd 64 ae 52 bc
       0.18191645 0.004404432 -0.05389368 -0.012858961
000290 f2 cf 98 bd bc 47 a4 bd 9a 7d bf bd 56 61 a0 3e
       -0.074615374 -0.08021495 -0.093501285 0.3132426
0002a0 ce 1b cd 3d fc a3 ac 3d b3 b0 5e be 22 9e 4f 3e
       0.10015069 0.08429715 -0.21747093 0.20275167
0002b0 af 9f 43 bd 40 61 df bc c5 a5 71 3e a0 8c b8 3e
       -0.047759708 -0.027268052 0.23598392 0.36044788
0002c0 f8 5e 0d 3d aa 44 be 3d 17 26 ec bc 18 ac 72 3d
       0.034514397 0.092904404 -0.028826756 0.059246153
0002d0 f3 b5 c0 bd db 84 55 bd 6f 1d cc bd d9 25 5b 3e
       -0.09409704 -0.052128654 -0.099665515 0.21401156
0002e0 07 06 f1 3d 4f 76 56 3d 96 92 04 bc 8e e9 30 3d
       0.11768728 0.05235892 -0.008091589 0.043191485
0002f0 17 81 63 bd 5b da 4f bd 70 f9 b3 3d 51 11 8b be
       -0.05554303 -0.05074535 0.08787811 -0.2716165
000300 71 4c f1 3d 8e 30 84 3d ec 23 69 be a2 19 89 ba
       0.11782158 0.064545736 -0.2276761 -0.001045991
000310 a2 de d0 bc ed c0 64 be dd 8c 0a 3d e0 0a 50 3d
       -0.025496785 -0.2233922 0.033825744 0.05079162
000320 b7 85 11 3f 07 98 06 bf b6 30 1e 3f 36 29 18 3f
       0.5684466 -0.52575725 0.61793077 0.5943788
000330 21 51 42 bf c0 5e 64 3f d0 9b f8 3d 45 df ed bf
       -0.7590504 0.8920708 0.12139094 -1.8583761
000340 4c f5 44 3f 2d 5b ea be 74 04 48 3f f6 e6 5f 3e
       0.76936793 -0.45772687 0.78131795 0.21865448
000350 97 04 0f 3f 4e 3a 4a 3f 47 c0 b4 bf 99 77 9b 3f
       0.5586638 0.78995216 -1.4121178 1.2145873
000360 80 b3 78 3f f1 08 64 be 29 71 c5 3e 34 ca 67 bd
       0.97148895 -0.22269036 0.38562897 -0.05658932
000370 96 33 30 3e 37 0f 87 3f 3e 5f 89 bf 84 43 05 3f
       0.17207178 1.0551518 -1.0732191 0.52056146
000380 f9 d5 9b 3f 21 3a 08 bf d1 de 2d 3f 19 7c 34 be
       1.2174674 -0.532137 0.67918116 -0.17625464
000390 53 87 5c be d5 9d 67 3f 07 0a 7b bf 22 6b 84 3e
       -0.21535997 0.9047521 -0.98062176 0.25862986
0003a0 9e 13 2b 3f c2 a8 e9 be b3 e4 44 3f 4e ed 08 3d
       0.6682681 -0.45636564 0.7691147 0.033429436
0003b0 38 93 a1 bd ef ae 60 3f 59 df 38 bf 73 f7 5f be
       -0.07889408 0.8776693 -0.722158 -0.21871738
0003c0 d3 3c 66 3f 81 90 20 bf 80 46 ec 3e 1e d0 9b bd
       0.8993656 -0.62720495 0.46147537 -0.076080546
0003d0 e6 78 37 be 14 e4 ca 3e 60 88 d4 be 20 0c b0 be
       -0.17917213 0.39627135 -0.41510296 -0.3438425
0003e0 56 f2 2c 3f d2 bd e2 be a6 e3 27 3f e9 2c 3b be
       0.67557275 -0.44285446 0.6558174 -0.1827885
0003f0 39 8e e9 be 80 51 fb 3e be 25 48 bb 4f f6 81 bd
       -0.4561632 0.49085617 -0.0030540074 -0.06345808

sequential/third/MatMul f4 [6, 300]
000000 99 e4 06 3e cb bc 45 3e a6 4c c3 3e bd 5c 10 3f
       0.1317314 0.193103 0.38144416 0.5639151
000010 cb 91 10 3f 30 36 60 be f0 5e c3 be 83 4d b0 3d
       0.5647246 -0.21895671 -0.3815837 0.08608534
000020 3e d8 29 be 0f b1 63 3e 1f 00 d0 be 35 3f 22 be
       -0.16586396 0.22235511 -0.40625092 -0.15844424
000030 92 03 ca 3e 98 c1 ca 3e 81 2f 64 3e d5 ec fa be
       0.3945585 0.39600825 0.22283746 -0.49008814
000040 47 d5 d7 3e b4 7d c0 bd b4 a1 81 be b2 91 2f bf
       0.42154905 -0.09398976 -0.25318682 -0.6858169
000050 b9 8e 92 be 19 d8 ac be f2 43 a9 3e d9 78 f3 be
       -0.28624514 -0.3375862 0.3305965 -0.47553137
000060 cd 5f 31 bf 4a 58 2b bd f0 72 7f be f5 9d f7 3d
       -0.69286805 -0.041832246 -0.24946189 0.12090675
000070 28 29 10 be da ab 91 3e 81 27 c8 3e 1d 3a 1f bf
       -0.140782 0.28451425 0.3909264 -0.6219805
000080 5f 88 66 3e db 60 52 3e 35 48 71 3e e0 30 f7 be
       0.22512959 0.2054476 0.23562701 -0.48279476
000090 c9 04 b8 bc 18 18 ea 3e 3f 00 31 3e 0d 02 87 3d
       -0.02246322 0.45721507 0.1728525 0.06592188
0000a0 4e ae 8a 3e 1b f5 f8 bc 41 46 74 be 79 eb c9 bd
       0.2708611 -0.030390313 -0.23854925 -0.09859366
0000b0 ef ff 9f be 41 6d ae 3d 81 2d be 3e 3b ee cb 3e
       -0.3124995 0.08516932 0.37144092 0.39830193
0000c0 a3 23 99 bb ce 72 5d bd 29 09 c8 be 5f 0f 25 bf
       -0.0046734377 -0.054064564 -0.3906949 -0.6447658
0000d0 e7 a8 2c bf a3 b5 30 3f 0f 8d 69 3d e3 ec f2 3e
       -0.67445225 0.69027156 0.05701929 0.47446355
0000e0 38 2d d0 3e 32 c3 dc bd e8 c6 83 bd d0 1e d4 3e
       0.406595 -0.10779418 -0.06434423 0.41429758
0000f0 45 3c 11 3f 50 21 cc 3e 09 61 a1 bd cd 04 49 3e
       0.5673259 0.39869165 -0.07879836 0.19630738
000100 f0 12 14 be 56 de 98 be 5d 77 39 bf 0b f3 05 3d
       -0.14460349 -0.2985713 -0.7244776 0.032702487
000110 16 61 a4 be 6c a7 30 be 73 80 97 bc df 35 91 be
       -0.3210532 -0.17251366 -0.018493867 -0.28361413
000120 19 c4 94 3d 58 3c 30 bf 98 4c 24 bf ad be dd be
       0.07263965 -0.6884208 -0.6417937 -0.43309537
000130 61 43 99 be 45 97 e6 3e 43 10 d5 be c9 31 be 3e
       -0.2993422 0.45037284 -0.4161397 0.37147358
000140 02 d6 8b 3e 3f aa 45 bf 7d fa ed be 19 45 44 3e
       0.27311713 -0.772129 -0.4648017 0.19166984
000150 ed 52 c8 bc 95 6b 6a 3e 03 9e 5d 3e 88 7a e2 bd
       -0.024453605 0.22892602 0.21642308 -0.11058527
000160 85 e7 7d 3e 66 d8 d6 3e 3a 7f 8a 3e 71 1b 0f 3f
       0.24795349 0.41961974 0.2705019 0.5590125
000170 1a 0c ee be 3a 83 52 3e 43 e7 14 bf 91 24 2d bf
       -0.46493608 0.20557871 -0.5816538 -0.6763392
000180 57 16 1e bf f2 e5 0f 3f a4 f0 94 be 82 49 33 bf
       -0.6175284 0.56210244 -0.29089844 -0.7003404
000190 7b 9d c7 be 92 0a 5a be 56 52 00 be 13 7c 16 bf
       -0.38987336 -0.21293095 -0.12531409 -0.5878307
0001a0 e2 6b 5b 3e 7c b6 a3 bd 2e 1b bf 3d 68 9e ac 3e
       0.21427873 -0.079937905 0.09331356 0.33714604
0001b0 94 9e 37 be 69 a0 c2 3e 0f 52 e3 be ff 79 f1 be
       -0.17931587 0.38013008 -0.44398543 -0.47163388
0001c0 a8 72 d4 3e 90 aa ea bd 2e 4e 58 3e 3c 54 19 3f
       0.41493726 -0.114583135 0.21123573 0.59894156
0001d0 90 d1 a2 3d e0 5a 6a be b4 90 04 bf 2b 1a f6 3e
       0.07950127 -0.22886229 -0.517833 0.4806684
0001e0 cc 0e 10 3e 3a 31 06 3e 2a 6c 07 be 13 9a d7 3e
       0.14068145 0.13104716 -0.13224855 0.42109737
0001f0 c7 a0 12 bd 22 e5 fa bb af 40 26 3e 94 c4 7d 3e
       -0.03579786 -0.0076567093 0.16235612 0.2478202
000200 fd b3 cd 3e a5 79 f2 3e 2e 21 e3 3d 6e cb cc be
       0.40176383 0.47358432 0.11090313 -0.39998955
000210 54 ef 05 3f 46 60 0b 3f e7 c5 9c 3e 2b a4 41 be
       0.5231831 0.54443777 0.30619738 -0.18910281
000220 15 27 5f 3e 91 13 db 3e 27 3c 05 bd 33 05 62 3d
       0.21792252 0.42788365 -0.03252807 0.05518074
000230 4a 72 a2 bd 67 0d 80 be ae 3e f0 be 55 e7 f0 3e
       -0.07931955 -0.25010225 -0.4692282 0.47051492
000240 41 56 81 3e cb 27 8c be 18 d2 57 3e f8 e9 d9 3e
       0.2526112 -0.2737411 0.21076238 0.42561316
000250 d1 41 59 be d3 c1 a5 be d5 5d 24 bf c7 81 6e be
       -0.21216513 -0.3237444 -0.64205676 -0.23291694
000260 b3 6e ce 3d 0c 5a 77 be 59 19 c0 3e 1e 19 6b be
       0.10079708 -0.24155444 0.3751934 -0.229588
000270 95 eb 6d be 89 da 2d 3e 46 e8 3c 3e 1d aa 1b bf
       -0.23234399 0.16977896 0.1844798 -0.6080645
000280 19 33 9b be 9d 9f e1 3d e9 20 06 bf 0e 0c ed 3e
       -0.30312422 0.11016772 -0.52393967 0.4629826
000290 b3 24 3a be 20 1e 0a 3e 66 79 8d 3e ae a7 79 be
       -0.18178062 0.13488054 0.27631682 -0.24380371
0002a0 e8 84 81 be 72 0d 76 3e 7b eb 23 bf 15 5c f2 be
       -0.25296712 0.24028566 -0.6403119 -0.47335878
0002b0 19 ee c8 3c e0 51 11 3f 12 8f fb 3e 03 dc 01 3f
       0.024527596 0.56765556 0.4913259 0.50726336
0002c0 fa bf aa 3e 85 dd a6 3e 59 32 bb 3e 92 7e 01 3f
       0.33349591 0.3259088 0.3656185 0.50583756
0002d0 ae ae 7a be 93 35 4e bd b5 dd 9a be 76 d6 1f bf
       -0.24480698 -0.05034406 -0.30247274 -0.62436616
0002e0 ae 54 f5 be 94 c4 13 bf e0 c0 ec 3e c5 82 95 bc
       -0.47916168 -0.5772183 0.46240902 -0.018250832
0002f0 e5 25 78 3e 47 81 ad 3d 27 f1 67 be b6 79 16 be
       0.24233206 0.08471923 -0.22650586 -0.14694867
000300 dd 28 4b be 32 bc f6 be 47 da 0f 3f 86 5e bb bd
       -0.19839807 -0.48190457 0.5619244 -0.09148888
000310 76 71 85 3b 23 49 ee 3e 88 ac a6 3e da 8c c2 3e
       0.0040723635 0.46540174 0.32553506 0.37998086
000320 3a a6 40 3b 95 16 d0 be c1 a1 da 3d a3 6d 4b be
       0.0029395954 -0.4064223 0.10675383 -0.19866042
000330 14 4e 81 be 0a 19 8d 3d 70 e8 0c be 84 55 a6 be
       -0.2525488 0.068895414 -0.13760543 -0.32487118
000340 13 42 31 bf 40 36 ad be ad 3a 25 bf 61 45 52 3e
       -0.69241446 -0.33830452 -0.6454266 0.20534278
000350 1d fa de 3e c1 b0 3d bd f9 4c 38 bf d6 a9 15 3e
       0.43550196 -0.046311144 -0.7199245 0.14615569
000360 be c1 b0 3e 2a b2 d1 3e 52 39 fd 3e ca fc d5 3e
       0.34522814 0.4095624 0.49457794 0.41794425
000370 04 e8 78 3d ea 44 eb be 87 f5 a3 3e 9a e5 37 3e
       0.060768142 -0.45951015 0.3202326 0.1795868
000380 1e 22 b6 bd 4a 60 dc be 57 15 c0 3e a7 5e 4f 3e
       -0.08893226 -0.43042213 0.3751628 0.20250951
000390 b5 66 c2 be 6b 87 43 bf 2a 5b d2 3e 2d 78 d5 bd
       -0.37968984 -0.76378506 0.41085178 -0.10423312
0003a0 10 e0 0b 3f 7f 0e c1 be 8d eb e4 3d 0e 7a 2e 3e
       0.5463877 -0.37706372 0.1117774 0.17038748
0003b0 a0 b6 a1 be 47 27 80 3e 1a 8c 01 bf e9 a3 e4 3e
       -0.31584644 0.25029966 -0.50604403 0.44656304
0003c0 71 15 aa 3d da d5 19 be d1 0e 15 bf f6 b2 ff 3e
       0.08304871 -0.15022984 -0.58225733 0.49941224
0003d0 f2 45 be 3e 2f 4a f3 be de c1 12 3f 4c 22 2a bd
       0.3716274 -0.47517535 0.5732707 -0.041536614
0003e0 21 d9 9a 3e 8a 48 17 3e fe 0e ac be 20 16 e6 3e
       0.3024378 0.14773765 -0.33605188 0.44938755
0003f0 60 e7 2e bf df e1 1c bf 6d 15 e7 3d 85 33 9f 3c
       -0.683218 -0.6128215 0.112833835 0.019433746
