Python/SpeechRecognition/asr_nlp_main_sr_eval/models/taskClassifierPhonWordEmbedding.tflite (tflite, 650644 bytes, 5 tensors)

sequential/dense/BiasAdd/ReadVariableOp f4 [300]
-0.10136441 0.08180894 0.027701544 0.08793992 0.14947982 0.14369482 0.023691095 -0.07664893
0.080009066 0.006859611 -0.043187596 0.029022643 -0.056949034 0.0059715323 0.050173912 -0.01697546
0.04617609 0.02578499 0.036561545 0.15836099 0.10522797 -0.028097052 -0.0021963834 -0.09311822
0.041045174 -0.0018975277 -0.04736858 -0.049448907 -0.035896108 -0.14871098 0.039069075 -0.05508915
0.1495678 0.10473686 0.035659917 -0.054303642 -0.07779345 -0.12775102 -0.007157081 -0.016311705
0.10203029 0.01879895 0.11410579 0.0369469 0.06286614 -0.1293592 0.11846595 -0.014584514
-0.07818162 -0.016647447 -0.023878 0.06768742 -0.0072393655 -0.06591283 0.0016129569 -0.01544188
0.09993468 0.030851895 0.089292005 0.14601259 -0.0072309864 -0.11955282 0.069064125 0.01586089
0.049297832 0.07216995 0.07051687 -0.06681682 -0.0813375 -0.07882512 -0.05643189 0.052249525
-0.011336286 -0.0001944134 -0.11728996 0.16017039 0.08884915 0.026123838 -0.028002074 0.056862652
0.06332673 0.16542724 0.15535909 0.026447708 -0.07170031 -0.058709554 -0.009975222 0.06915745
-0.01254106 0.06461459 0.020512009 0.016329579 -0.015512378 -0.09368157 -0.059500832 0.05646736
-0.028062753 0.05549997 0.020374175 -0.08503361 0.15124278 -0.0012799145 0.037647802 0.0370316
0.11923685 -0.13906457 0.005873976 0.042016834 0.021139836 0.034931466 -0.014792418 0.084966294
-0.14449105 0.1362668 0.0011803022 -0.1026758 -0.037089594 -0.087363265 -0.08963761 0.018857263
0.006366734 -0.10601055 -0.08876847 0.08486002 -0.012397666 0.05403772 0.07822169 0.027835945
-0.016990718 0.1925998 -0.06591381 -0.0007296238 -0.055287074 0.03449396 0.08177854 0.1098662
0.040763322 -0.05221453 0.025345936 -0.02755318 -0.13635631 0.16808873 -0.048191078 0.00520732
0.12243642 0.027000757 -0.046337996 0.1256602 0.09886505 -0.042244162 0.031197015 -0.06894455
-0.050126247 -0.008343434 -0.14126527 -0.08585783 -0.029398557 0.16756587 -0.13835092 -0.1059758
0.14650129 -0.011138074 0.009627709 0.014756102 -0.018584706 -0.06288395 0.12561809 0.052641053
0.18618107 -0.012796384 -0.116510585 0.051377933 0.11081049 -0.06291982 0.02222739 -0.15414655
-0.06290686 -0.03780032 0.0049271625 0.13271213 -0.0013479199 -0.12133475 -0.020916538 -0.026979797
-0.055004667 -0.014526965 0.16295452 0.0045667267 -0.010231241 0.034928165 -0.0843992 0.008436296
-0.002176981 0.014883375 0.108337596 -0.053361874 0.09385378 0.13294932 -0.17191233 0.15162668
-0.050117385 0.07554723 0.015402461 -0.02763579 0.059300214 -0.016095225 -0.14092673 0.14960374
-0.018381016 -0.035963494 0.036798853 -0.02577817 -0.0023788223 -0.02431681 0.031825483 -0.017549688
0.08503511 0.13295545 0.018697018 0.12748984 0.029652711 0.0666921 0.14145565 0.025530344
-0.0033109463 0.04408753 -0.0509197 -0.011887493 -0.014123809 0.022706583 0.023683455 -0.06480415
-0.054404218 0.120693 -0.06542657 -0.008339516 0.13948794 0.096971974 -0.04566964 0.12932485
0.07324598 -0.022964872 0.16777636 0.004494888 0.001140614 -0.05469899 -0.030246532 0.12434072
-0.14645465 0.04416692 0.047874823 0.08744942 0.13659437 -0.020103455 -0.0557892 -0.033744663
00000000: 2598 cfbd 728b a73d 59ee e23c d819 b43d
00000010: 3d11 193e bc24 133e d413 c23c 1dfa 9cbd
00000020: cbdb a33d 96c6 e03b 7ae5 30bd e5c0 ed3c
00000030: 6443 69bd d8ac c33b 2983 4d3d 1f10 8bbc
00000040: 2423 3d3d 0b3b d33c 8fc1 153d 6229 223e
00000050: c381 d73d ca2b e6bc 33f1 0fbb c4b4 bebd
00000060: fc1e 283d 77b6 f8ba 8e05 42bd f08a 4abd
00000070: cc07 13bd b147 18be e506 203d 29a5 61bd
00000080: 4d28 193e 4780 d63d 2210 123d 7f6d 5ebd
00000090: 2c52 9fbd 2ad1 02be f285 eabb 20a0 85bc
000000a0: 42f5 d03d 4100 9a3c 4cb0 e93d a255 173d
000000b0: f6bf 803d bd76 04be 479e f23d e3f3 6ebc
000000c0: af1d a0bd 3a60 88bc cc9b c3bc b49f 8a3d
000000d0: 3338 edbb 4efd 86bd da69 d33a f0ff 7cbc
000000e0: 8eaa cc3d 1dbd fc3c bade b63d 5384 153e
000000f0: e9f1 ecbb 1cd8 f4bd 7e71 8d3d b2ee 813c
00000100: 86ec 493d d7cd 933d 266b 903d 42d7 88bd
00000110: 4694 a6bd 116f a1bd 2025 67bd 9903 563d
00000120: d4bb 39bc 73db 4bb9 b835 f0bd b503 243e
00000130: 8bf6 b53d a901 d63c 9b64 e5bc d0e8 683d
00000140: 72b1 813d c265 293e 7416 1f3e dda8 d83c
00000150: 9dd7 92bd 6e79 70bd 1d6f 23bc 6ca2 8d3d
00000160: 0579 4dbc a754 843d cd08 a83c 9cc5 853c
00000170: a127 7ebc 1fdc bfbd 25b7 73bd 524a 673d
00000180: dce3 e5bc f053 633d bee7 a63c 1a26 aebd
00000190: 63df 1a3e cec2 a7ba 9534 1a3d 72ae 173d
000001a0: 7332 f43d f166 0ebe 7b7a c03b d819 2c3d
000001b0: 732d ad3c 4c14 0f3d e65b 72bc cf02 ae3d
000001c0: 76f5 13be 8689 0b3e 5fb4 9a3a b147 d2bd
000001d0: 42eb 17bd 83eb b2bd ec93 b7bd 8c7a 9a3c
000001e0: 09a0 d03b 0f1c d9bd 3ecc b5bd 17cb ad3d
000001f0: 951f 4bbc a856 5d3d b232 a03d 3508 e43c
00000200: 1e30 8bbc e238 453e d2fd 86bd 3944 3fba
00000210: b374 62bd 8a49 0d3d 827b a73d 8801 e13d
00000220: 71f7 263d e7de 55bd 48a2 cf3c 35b7 e1bc
00000230: fda0 0bbe 741f 2c3e 0264 45bd 2ba2 aa3b
00000240: f2bf fa3d b130 dd3c e9cc 3dbd 11ad 003e
00000250: c279 ca3d 3708 2dbd e290 ff3c cd32 8dbd
00000260: 2e51 4dbd e6b2 08bc d8a7 10be 3bd6 afbd
00000270: 3ed5 f0bc 6396 2b3e ddab 0dbe d709 d9bd
00000280: 6f04 163e 787c 36bc 8abd 1d3c 94c3 713c
00000290: f43e 98bc 4dc9 80bd 07a2 003e 259e 573d
000002a0: 40a6 3e3e eda7 51bc 1a9d eebd ab71 523d
000002b0: 9cf0 e23d 1bdc 80bd 3716 b63c 98d8 1dbe
000002c0: 50d5 80bd 82d4 1abd 0974 a13b b0e5 073e
000002d0: b0ac b0ba 5a7e f8bd 2959 abbc bc04 ddbc
000002e0: 934c 61bd 8202 6ebc 8ddd 263e 7ba4 953b
000002f0: efa0 27bc d610 0f3d 7dd9 acbd 6438 0a3c
00000300: aeab 0ebb 66d9 733c 1ae0 dd3d fb91 5abd
00000310: 6936 c03d de23 083e c909 30be 0644 1b3e
00000320: e347 4dbd 82b8 9a3d 9b5a 7c3c 7464 e2bc
00000330: c8e4 723d 22da 83bc 194f 10be b931 193e
00000340: c993 96bc 754e 13bd 65ba 163d be2c d3bc
00000350: 04e6 1bbb 0c34 c7bc 705b 023d 5dc4 8fbc
00000360: e326 ae3d 7925 083e 7d2a 993c b28c 023e
00000370: 3eea f23c de95 883d c0d9 103e 0325 d13c
00000380: 76fc 58bb 2095 343d 2d91 50bd c2c3 42bc
00000390: 8c67 67bc 2803 ba3c ce03 c23c 0ab8 84bd
000003a0: f5d6 5ebd e42d f73d 5efe 85bd 77a2 08bc
000003b0: edd5 0e3e 3e99 c63d 1710 3bbd bc6d 043e
000003c0: fd01 963d d420 bcbc 91cd 2b3e da49 933b
000003d0: a880 953a 0c0c 60bd 93c7 f7bc 59a6 fe3d
000003e0: 35f8 15be 5fe8 343d 6418 443d ae18 b33d
000003f0: 65df 0b3e 00b0 a4bc 3783 64bd d837 0abd

sequential/first/embedding_lookup/203934 f4 [12508, 8]
-0.038665436 0.0051794737 0.0021724887 0.019240683 0.036453087 0.056130797 0.0031786172 0.043819826
-0.034825433 0.04383133 0.047258794 -0.037727367 0.02463987 0.040093962 -0.017208219 0.00043738406
-0.089754395 0.03594385 -0.013466555 -0.04437023 -0.002276546 0.011575439 0.023145434 0.019083025
0.026234014 0.013575336 -0.07205024 -0.0003269693 0.034728922 -0.034169037 -0.031536985 0.009253884
-0.11731723 0.03346527 -0.00829291 -0.032263692 -0.033677947 0.053491637 0.027999345 0.025932224
-0.0042408425 0.010306407 -0.032848924 -0.0117453085 0.018427579 -0.038880903 -0.04517043 -0.004552258
-0.04815234 0.0054203398 0.06333677 0.034221128 0.077262126 0.03762068 -0.088009916 -0.006790669
-0.15619001 0.026151016 -0.021563616 0.08382068 0.059271075 -0.0075322776 -0.027177826 0.04234701
-0.009601173 -0.05894558 0.05590078 0.00041723985 -0.038391467 -0.05369809 -0.117929526 -0.049704425
-0.07671224 0.020891592 -0.014257176 0.00071175897 -0.06859032 0.076500185 0.06463092 -0.0603742
-0.010043694 0.036188107 0.00949172 -0.06297083 -0.06159311 0.06955999 0.010726737 0.0047271084
-0.019827565 0.026614305 0.075549886 0.005494402 -0.07145038 0.032553874 0.014346822 0.020369459
-0.05161092 -0.021860575 -0.00950945 0.038961366 -0.021577146 0.057026144 -0.0115561355 0.05524914
0.059254244 -0.008769946 -0.0055671893 -0.014267821 0.0776213 0.056709837 0.0029159535 -0.010829207
0.03227276 0.31429374 0.011073591 -0.15690027 0.20495167 0.036571085 -0.010624051 -0.07183084
0.060729552 -0.03882882 0.06147289 0.05660992 -0.080444895 0.011176575 0.007887287 0.06441916
-0.17505743 -0.092382304 -0.0044224174 0.0076847854 -0.2071735 0.13267367 0.11920143 0.12385107
0.0065571927 -0.057998836 -0.010696771 0.06490889 -0.11809245 0.08249379 -0.0267831 0.037746463
0.059743248 0.009970208 0.019182712 -0.017837603 0.032756794 0.09012535 -0.017349422 -0.009328686
0.05140754 -0.017309612 0.07741773 -0.068407506 0.022252185 0.001801266 -0.025968479 0.048771042
0.08527549 0.01668453 -0.06410202 0.027498763 -0.14292426 0.06735297 0.02371523 -0.13863768
-0.021205124 0.028013662 -0.047507454 0.03631598 0.05672591 0.08028892 -0.0828324 0.007747892
-0.023213778 0.01065448 0.007995831 -0.017916584 -0.0919168 -0.010217513 0.09442239 -0.089820445
-0.0435384 0.030259967 0.050216958 -0.010108153 0.056147218 0.049708415 -0.0332785 0.10181204
0.033385023 0.057743013 -0.1448498 0.010270761 0.24177974 0.020523189 0.3434553 -0.31562647
0.0843948 -0.13399452 -0.09751796 0.087499656 0.20625904 -0.0085507585 0.03251813 -0.26523748
-0.16791315 -0.35530338 -0.18666133 0.17869861 -0.37439212 -0.36392954 0.14753477 0.110165335
-0.03953548 -0.05671284 0.010310149 0.00499308 -0.17214537 0.126912 -0.11163824 -0.05464594
0.31175566 0.34345573 0.55678034 0.024255015 0.10484785 0.40910804 0.6675071 -0.12374656
-0.09789942 0.033605043 0.0030993817 -0.025453756 0.057131846 -0.09891764 0.08551504 0.09872894
0.7347076 0.20464566 -0.44354212 -0.30626863 0.16064301 -0.42510846 -0.021535726 -0.03522581
-0.25682926 0.15754557 -0.26014525 -0.018036654 0.1953123 -0.3787915 -0.13730924 0.07205201
00000000: a65f 1ebd 93b8 a93b 5060 0e3b a39e 9d3c
00000010: d54f 153d 68e9 653d 5950 503b 6b7c 333d
00000020: 1da5 0ebd 7b88 333d 7092 413d 0388 1abd
00000030: 8dd9 c93c 9139 243d 40f8 8cbc b250 e539
00000040: 27d1 b7bd dc39 133d d3a2 5cbc 8fbd 35bd
00000050: 1b32 15bb e9a6 3d3c 7e9b bd3c 0154 9c3c
00000060: b7e8 d63c 166b 5e3c 148f 93bd 146d abb9
00000070: ea3f 0e3d d5f4 0bbd ed2c 01bd 9a9d 173c
00000080: 0444 f0bd e112 093d fcde 07bc ef26 04bd
00000090: e3f1 09bd 0c1a 5b3d e25e e53c d16f d43c
000000a0: c4f6 8abb 34dc 283c 988c 06bd 656f 40bc
000000b0: 6ff5 963c 9541 1fbd a104 39bd 1c2b 95bb
000000c0: 633b 45bd 1b9d b13b b5b6 813d 742b 0c3d
000000d0: 9b3b 9e3d 2418 1a3d 8b3e b4bd 4384 debb
000000e0: 46f0 1fbe a83a d63c 2ea6 b0bc 2daa ab3d
000000f0: 3ac6 723d 53d1 f6bb 08a4 debc 0f74 2d3d
00000100: 3d4e 1dbc ec70 71bd 37f8 643d fcc0 da39
00000110: 5f40 1dbd 87f2 5bbd 0985 f1bd de96 4bbd
00000120: 4f1b 9dbd d824 ab3c ee96 69bc 5695 3a3a
00000130: 1579 8cbd 21ac 9c3d 375d 843d f04a 77bd
00000140: 4e8e 24bc fb39 143d 2983 1b3c daf6 80bd
00000150: 0f49 7cbd 7875 8e3d 32bf 2f3c dce5 9a3b
00000160: 6b6d a2bc 3e06 da3c e6b9 9a3d 620a b43b
00000170: 9454 92bd 3657 053d ef0e 6b3c dadd a63c
00000180: f965 53bd f314 b3bc 86cd 1bbc f495 1f3d
00000190: 8ec2 b0bc 3f94 693d f255 3dbc ec4c 623d
000001a0: 94b4 723d d2af 0fbc f86c b6bb 94c3 69bc
000001b0: ebf7 9e3d 9348 683d 9519 3f3b fc6c 31bc
000001c0: 7130 043d 1ceb a03e 026e 353c 77aa 20be
000001d0: dade 513e 90cb 153d 8010 2ebc 0c1c 93bd
000001e0: 8dbf 783d f80a 1fbd ffca 7b3d cedf 673d
000001f0: 4bc0 a4bd f41d 373c ae39 013c 31ee 833d
00000200: 4142 33be ef32 bdbd ede9 90bb a7d0 fb3b
00000210: 4a25 54be 9bdb 073e e11f f43d a1a5 fd3d
00000220: b8dd d63b 3090 6dbd 8241 2fbc f4ee 843d
00000230: 74da f1bd 81f2 a83d 3b68 dbbc 099c 1a3d
00000240: 56b5 743d 155a 233c 1025 9d3c 2a20 92bc
00000250: fd2b 063d a493 b83d 6020 8ebc 58d7 18bc
00000260: b690 523d e3cc 8dbc 308d 9e3d 3c19 8cbd
00000270: 374a b63c 7518 ec3a d9bb d4bc 25c4 473d
00000280: eba4 ae3d ffad 883c eb47 83bd 1645 e13c
00000290: bd5a 12be 5bf0 893d 7146 c23c 09f7 0dbe
000002a0: 5eb6 adbc e87c e53c 2d97 42bd 11c0 143d
000002b0: 6e59 683d 846e a43d 09a4 a9bd 07e2 fd3b
000002c0: d22a bebc 2190 2e3c f200 033c cdc5 92bc
000002d0: e03e bcbd 5b67 27bc 8760 c13d c8f3 b7bd
000002e0: 5255 32bd c0e3 f73c 4cb0 4d3d ab9c 25bc
000002f0: a0fa 653d 0d9b 4b3d 094f 08bd d582 d03d
00000300: bcbe 083d f083 6c3d 8253 14be b246 283c
00000310: 1c95 773e 3f20 a83c 60d9 af3e cb99 a1be
00000320: 2ed7 ac3d dc35 09be 7fb7 c7bd 0533 b33d
00000330: 9235 533e 7b18 0cbc bb31 053d 35cd 87be
00000340: 6df1 2bbe 53ea b5be 2624 3fbe c5fc 363e
00000350: 53b0 bfbe f954 babe 5b13 173e 5d9e e13d
00000360: f5ef 21bd b94b 68bd e6eb 283c fe9c a33b
00000370: e046 30be 38f5 013e 97a2 e4bd 6cd4 5fbd
00000380: 709e 9f3e 6ed9 af3e 2889 0e3f 74b2 c63c
00000390: 78ba d63d 9c76 d13e bfe1 2a3f d66e fdbd
000003a0: 7e7f c8bd 71a5 093d ff1e 4b3b 6584 d0bc
000003b0: 1503 6a3d 5595 cabd 8222 af3d 6632 ca3d
000003c0: cc15 3c3f a28e 513e f417 e3be 3ecf 9cbe
000003d0: 9a7f 243e d1a7 d9be b16b b0bc f048 10bd
000003e0: 207f 83be a053 213e c231 85be 9bc1 93bc
000003f0: f3ff 473e f6f0 c1be cb9a 0cbe 0190 933d

sequential/third/BiasAdd/ReadVariableOp f4 [6]
0.016349442 0.0024633794 0.0045101237 0.003772857 -0.02276751 0.049658507
00000000: 44ef 853c a670 213b a9c9 933b 0942 773b
00000010: ee82 babc b866 4b3d

sequential/dense/MatMul f4 [300, 200]
-0.30989152 0.85935515 1.1327318 0.844243 0.5339614 1.2793235 -0.70308733 0.74958706
-1.1010844 0.47418368 0.91228056 0.60269636 -0.5594875 0.8493003 0.8425841 1.0682019
-0.5265643 0.66658914 0.1717676 0.3094465 0.27388075 0.8326428 0.3196306 0.47781113
-0.27456665 0.60718095 -0.18249102 0.12088206 0.101722226 0.9013223 0.6123108 0.20173648
-0.13245678 0.5135155 0.05690664 0.5448564 0.34819594 0.3855802 0.4879019 0.46747878
-0.100851096 0.43746772 -0.07549782 0.22021164 0.5046662 0.40064996 0.33514407 0.24561268
-0.13186333 0.09124294 -0.11097843 0.451495 0.5201899 0.08471717 0.5789972 0.24481119
-0.26668957 0.41631526 0.004284409 0.21900333 0.24411568 0.23342201 0.15331233 0.2297309
-0.15897144 0.37880248 -0.095119186 -0.13105863 0.17291513 0.12807904 0.29805422 0.19506626
-0.17000228 0.2795324 0.054647468 0.23074313 0.32109633 0.2682074 0.09279421 -0.017035697
-0.16690537 0.11806275 -0.120893225 -0.19874714 0.07919273 0.22115053 0.20361875 0.051623683
-0.1639304 0.18283717 0.018467087 0.041312482 0.3994904 0.3470234 0.34284383 0.17195982
-0.04614743 0.20184645 -0.03290583 -0.108695105 -0.030852886 -0.0018301517 0.30938458 0.06018453
-0.066763304 0.059587013 0.21511793 0.030423688 0.25304174 0.2683964 -0.0472053 -0.046541136
-0.0052458085 0.16619523 -0.2610576 -0.001425612 -0.06765548 0.009621616 0.13010988 -0.007924794
-0.10580302 0.02076182 0.10503197 -0.20000896 0.04954173 0.037539303 0.07616762 -0.0246508
0.07123824 -0.08389115 0.100109905 0.023945052 0.20085026 -0.06871224 0.08050801 -0.14403942
-0.11818988 0.06480884 0.048608348 -0.024024487 0.003492291 0.042683546 0.16786812 0.015661985
-0.029777355 0.07637421 -0.26156756 -0.20754114 0.07294313 0.03719289 0.33575767 -0.0035139227
0.13096097 0.02873681 0.38253307 -0.19354343 -0.055430673 -0.00582076 -0.063396685 -0.124294706
0.03160968 -0.11424721 -0.20872444 0.08102216 0.09867631 -0.042452287 0.157574 -0.04212921
0.023880173 -0.048333276 -0.005807834 -0.032816082 0.18051445 -0.011150445 0.091218814 -0.0056687887
-0.09820941 -0.06514596 -0.046484783 0.019583287 -0.09924804 0.062285326 0.07671095 -0.0029991067
-0.003918239 -0.07200973 -0.18119678 0.051967766 0.14812897 -0.0048866984 -0.032621462 -0.0064736344
0.052229885 -0.064511284 -0.10815644 -0.06817233 0.07628368 0.036146175 -0.09320771 -0.00016233583
0.56703466 -0.97463024 -1.2780136 -0.3218862 -0.1363018 -1.2430413 0.034593236 -0.797585
1.2168758 -0.37240443 -0.8905166 -1.0218971 1.1444817 -0.97755146 -0.6539656 -0.72726166
0.172886 -0.3260263 -0.23294598 -0.6410732 0.33395734 -1.2802175 -0.2131814 -0.6277458
0.3271207 -0.3267722 0.15058757 -0.5194914 0.39702517 -1.1732447 -0.62837183 -0.5985733
0.08148982 -0.061812036 -0.17814514 -0.85803646 -0.02498765 -0.4735515 -0.40749103 -0.76965857
0.4320462 -0.14038427 -0.011733117 -0.4168958 0.0036722268 -0.6143159 -0.36277628 -0.54026747
0.2625874 0.32459715 -0.18985201 -0.29600856 -0.13169935 -0.13488817 -0.28556743 -0.397332
00000000: 1aaa 9ebe b3fe 5b3f 5bfd 903f 4f20 583f
00000010: b2b1 083f dfc0 a33f 88fd 33bf f0e4 3f3f
00000020: 55f0 8cbf 34c8 f23e 388b 693f 4f4a 1a3f
00000030: 933a 0fbf bf6b 593f 97b3 573f d7ba 883f
00000040: ebcc 06bf 96a5 2a3f d9e3 2f3e c66f 9e3e
00000050: 193a 8c3e 1428 553f 9fa6 a33e a9a3 f43e
00000060: 0094 8cbe 3670 1b3f edde 3abe 0391 f73d
00000070: be53 d03d 0fbd 663f 67c0 1c3f 0294 4e3e
00000080: c0a2 07be c075 033f f016 693d b67b 0b3f
00000090: bd46 b23e c56a c53e 47ce f93e 6159 ef3e
000000a0: 058b cebd c5fb df3e 9a9e 9abd 297f 613e
000000b0: ce31 013f fe21 cd3e 0198 ab3e e481 7b3e
000000c0: 2e07 07be 94dd ba3d a948 e3bd 5a2a e73e
000000d0: 2a2b 053f 3280 ad3d 2939 143f c9af 7a3e
000000e0: 898b 88be 4627 d53e 3a64 8c3b 6942 603e
000000f0: 76f9 793e 2e06 6f3e e8fd 1c3e 943e 6b3e
00000100: 69c9 22be 66f2 c13e d9cd c2bd 3c34 06be
00000110: aa10 313e 2727 033e 909a 983e 73bf 473e
00000120: 1415 2ebe df1e 8f3e 06d6 5f3d ed47 6c3e
00000130: bd66 a43e 7b52 893e e40a be3d 728e 8bbc
00000140: 3ee9 2abe e2ca f13d de96 f7bd 5f84 4bbe
00000150: cc2f a23d 4975 623e 6f81 503e 5b73 533d
00000160: 5fdd 27be ab39 3b3e 4a48 973c 4737 293d
00000170: 018a cc3e 0dad b13e 3a89 af3e 3c16 303e
00000180: 1605 3dbd d6b0 4e3e 43c8 06bd 8a9b debd
00000190: 31bf fcbc b3e1 efba a867 9e3e 0e84 763d
000001a0: 33bb 88bd 8311 743d e047 5c3e 193b f93c
000001b0: b08e 813e 416b 893e 585a 41bd eba1 3ebd
000001c0: 08e5 abbb 152f 2a3e 57a9 85be 9adb baba
000001d0: f58e 8abd fca3 1d3c 863b 053e ffd6 01bc
000001e0: 41af d8bd b114 aa3c 001b d73d 26cf 4cbe
000001f0: 45ec 4a3d d0c2 193d c5fd 9b3d 79f0 c9bc
00000200: 5be5 913d 20cf abbd 6c06 cd3d 6a28 c43c
00000210: b1ab 4d3e 01b9 8cbd 62e1 a43d 127f 13be
00000220: 890d f2bd 7fba 843d 8c19 473d 00cf c4bc
00000230: ecde 643b f1d4 2e3d 9fe5 2b3e 904d 803c
00000240: a4ef f3bc 156a 9c3d 2fec 85be aa85 54be
00000250: 3563 953d 9257 183d 6ee8 ab3e d749 66bb
00000260: a21a 063e 7569 eb3c 60db c33e 4030 46be
00000270: 460b 63bd 13bc bebb 1fd6 81bd 398e febd
00000280: 2779 013d 71fa e9bd dcbb 55be f2ee a53d
00000290: ce16 ca3d 73e2 2dbd 145b 213e ae8f 2cbd
000002a0: 5aa0 c33c 1df9 45bd a54f bebb 286a 06bd
000002b0: c8d8 383e 5bb0 36bc eed0 ba3d 3fc1 b9bb
000002c0: 0422 c9bd 3f6b 85bd d466 3ebd 216d a03c
000002d0: 8e42 cbbd e61e 7f3d a11a 9d3d a98c 44bb
000002e0: 9264 80bb d679 93bd a68b 39be 27dc 543d
000002f0: 1faf 173e 9920 a0bb 159e 05bd c820 d4bb
00000300: 01ef 553d 7e1e 84bd 2081 ddbd ef9d 8bbd
00000310: 9e3a 9c3d 030e 143d afe3 bebd b138 2ab9
00000320: 2f29 113f 5e81 79bf f395 a3bf 45ce a4be
00000330: b392 0bbe fa1b 9fbf a3b1 0d3d 882e 4cbf
00000340: 96c2 9b3f cbab bebe e5f8 63bf 86cd 82bf
00000350: 607e 923f d040 7abf 4a6a 27bf d22d 3abf
00000360: 0709 313e ebec a6be 6489 6ebe 601d 24bf
00000370: 75fc aa3e 2bde a3bf 3a4c 5abe f3b3 20bf
00000380: 5d7c a73e b04e a7be a133 1a3e 63fd 04bf
00000390: e246 cb3e e22c 96bf fadc 20bf 1a3c 19bf
000003a0: 22e4 a63d 9e2e 7dbd ae6b 36be 47a8 5bbf
000003b0: e6b2 ccbc 5875 f2be aaa2 d0be 5808 45bf
000003c0: 2935 dd3e e5c0 0fbe 423c 40bc 5e73 d5be
000003d0: bea9 703b cf43 1dbf d0bd b9be f84e 0abf
000003e0: db71 863e 9931 a63e 9168 42be 6f8e 97be
000003f0: 32dc 06be 2020 0abe e535 92be 1a6f cbbe

sequential/third/MatMul f4 [6, 300]
-0.09326066 0.25649905 -0.31634772 -0.6949183 -0.7515752 -0.36803743 0.38547403 0.5259628
-0.30735737 0.04089443 -0.1096113 0.48296866 0.26550263 -0.15999651 0.37195385 0.09914254
0.12949196 0.002656792 0.04900238 0.34155682 0.19116278 0.17776702 -0.2826733 0.45902845
0.29295418 -0.07532576 -0.14211397 0.32410252 0.38172877 -0.382683 -0.7730334 -0.19425
0.31880406 -0.47518238 0.085471205 -0.22810677 -0.124503 0.47568712 0.62279296 0.1886703
-0.63951445 -0.48846027 -0.46874365 -0.2237131 0.029034039 -0.0990449 -0.093571246 0.029023472
0.36401874 -0.26723582 0.20539372 -0.6903559 -0.44571632 0.40918368 0.33903438 0.28018317
0.24833949 -0.425818 -0.54575753 0.19826986 0.39904606 0.44154778 0.3428762 0.055212677
0.16069767 0.42644954 -0.5911781 -0.11019174 0.37201738 0.4737221 0.265057 0.50685275
0.3171844 0.13165069 0.39235696 0.102340505 -0.09652265 0.38193676 -0.1818182 0.2713065
-0.23984237 0.3133383 -0.024382256 -0.008399674 0.1815466 -0.16172141 0.3626113 -0.71707356
-0.001002862 0.06869043 0.3342165 0.5505197 -0.2972303 0.2096225 -0.28029847 -0.25883925
-0.0104049565 -0.51195204 0.3746226 0.3343902 -0.26303405 -0.23086797 -0.16317765 -0.7204445
-0.15721036 -0.12204176 -0.32110533 0.37330282 0.12028584 0.16924371 0.35400733 -0.46562576
-0.31590074 -0.33632916 -0.31119445 0.1892223 -0.2973616 0.26023155 0.55753946 0.09780107
-0.40422186 0.45356086 0.454977 0.32333434 -0.5040137 -0.3188092 0.11931819 -0.6656047
0.121719785 -0.060327157 -0.32209077 0.014268002 -0.3080517 -0.5735001 -0.617626 -0.2011368
0.1642859 -0.5386994 -0.54989153 -0.62896687 0.6417515 -0.08020985 -0.16137628 0.4734655
0.16564795 -0.6802659 -0.39994156 -0.5310725 -0.81142646 0.3692843 -0.6958899 0.5591876
-0.6942109 -0.14273196 0.20029202 -0.28591162 -0.12997174 0.38107386 -0.38524666 0.28488487
0.341208 0.2514833 0.49563426 -0.41686195 -0.4142262 0.29890397 -0.5174467 0.2878561
0.17194754 -0.23801033 0.34664416 0.18654224 -0.3246536 -0.067679554 0.0270354 -0.34248734
-0.4059391 -0.35394275 0.13824853 0.39095214 -0.29104242 -0.041932143 0.064644575 0.01325663
-0.1696877 0.37296224 0.31814232 -0.23076655 0.4436573 -0.6587648 0.407195 0.28321904
-0.59961927 -0.40541303 -0.83406556 -0.5654657 0.27596164 -0.20549758 -0.33045012 0.32348236
0.017772743 -0.37379763 0.26474875 0.43350607 -0.5060914 -0.23945871 -0.47742254 0.18001306
0.21194626 -0.08704011 0.3361872 0.18801777 -0.23405999 0.44011667 -0.3647583 0.12466996
0.25998223 -0.30087605 0.45076424 0.24094251 -0.47008222 -0.662453 0.38425452 0.40257102
-0.51655465 0.33352163 0.34034145 0.4686615 0.04644363 -0.38435146 -0.39080718 -0.18748799
-0.48784885 0.21182047 -0.5055241 -0.4738646 0.17200875 -0.6980151 -0.5928635 0.5058317
0.48729163 -0.043062057 0.3289649 -0.4323653 0.26124182 -0.29929724 -0.5418475 -0.5704241
-0.21159749 0.060200404 0.3705402 -0.1858411 0.24836227 0.3923655 0.46977633 0.12110323
00000000: 72ff bebd d853 833e 54f8 a1be 2ae6 31bf
00000010: 3b67 40bf 676f bcbe da5c c53e 80a5 063f
00000020: f25d 9dbe eb80 273d e47b e0bd ab47 f73e
00000030: f6ef 873e 20d6 23be bc70 be3e 3e0b cb3d
00000040: 8a99 043e 931d 2e3b b8b6 483d 89e0 ae3e
00000050: 2dc0 433e 8f08 363e 8eba 90be c705 eb3e
00000060: 17fe 953e 6444 9abd 5386 11be c4f0 a53e
00000070: f471 c33e 07ef c3be 84e5 45bf 79e9 46be
00000080: 493a a33e 1b4b f3be 870b af3d d294 69be
00000090: 6efb febd 438d f33e 5c6f 1f3f ca32 413e
000000a0: 38b7 23bf 7717 fabe 2bff efbe 0c15 65be
000000b0: cbd8 ed3c 0dd8 cabd 48a2 bfbd a2c2 ed3c
000000c0: aa60 ba3e 22d3 88be bb52 523e 2abb 30bf
000000d0: ee34 e4be 8680 d13e ea95 ad3e 2b74 8f3e
000000e0: b54c 7e3e d104 dabe c4b6 0bbf 4107 4b3e
000000f0: c44f cc3e 8d12 e23e 788d af3e b026 623d
00000100: ee8d 243e 9857 da3e 7357 17bf 35ac e1bd
00000110: 1079 be3e b48b f23e 8db5 873e 1ac1 013f
00000120: fe65 a23e 70cf 063e 03e3 c83e e697 d13d
00000130: abad c5bd 378d c33e 8d2e 3abe b0e8 8a3e
00000140: 3d99 75be e16d a03e 4cbd c7bc c99e 09bc
00000150: 5ae7 393e 4c9a 25be 30a8 b93e 2292 37bf
00000160: 7772 83ba 91ad 8c3d 6d1e ab3e dcee 0c3f
00000170: 922e 98be 48a7 563e 4883 8fbe 9486 84be
00000180: 8d79 2abc 4a0f 03bf 89ce bf3e 3135 ab3e
00000190: 66ac 86be a768 6cbe 0b18 27be 0d6f 38bf
000001a0: c1fb 20be 08f1 f9bd eb67 a4be 8c21 bf3e
000001b0: 6c58 f63d 394e 2d3e 7340 b53e 8066 eebe
000001c0: bebd a1be 5633 acbe e154 9fbe 7ec3 413e
000001d0: c83f 98be 123d 853e e8ba 0e3f ed4b c83d
000001e0: 2bf6 cebe 2139 e83e bff2 e83e 148c a53e
000001f0: 0b07 01bf f63a a3be 185d f43d 1265 2abf
00000200: 3948 f93d 9c19 77bd 15e9 a4be 56c4 693c
00000210: f4b8 9dbe e7d0 12bf bd1c 1ebf cef6 4dbe
00000220: 903a 283e 34e8 09bf b1c5 0cbf f903 21bf
00000230: d449 243f 1045 a4bd d33f 25be 126a f23e
00000240: 9e9f 293e e825 2ebf 24c5 ccbe 5ef4 07bf
00000250: a5b9 4fbf d512 bd3e d725 32bf eb26 0f3f
00000260: ceb7 31bf 5428 12be 5a19 4d3e 0263 92be
00000270: 5017 05be 1d1c c33e 0d3f c5be 6edc 913e
00000280: d1b2 ae3e 6bc2 803e c6c3 fd3e ee6e d5be
00000290: 7515 d4be f109 993e 6377 04bf e061 933e
000002a0: 0413 303e fbb8 73be 587b b13e ee04 3f3e
000002b0: ff38 a6be 949b 8abd 5879 dd3c 805a afbe
000002c0: 40d7 cfbe fc37 b5be 0691 0d3e e12a c83e
000002d0: 8303 95be 0ac1 2bbd 6064 843d 5632 593c
000002e0: 9dc2 2dbe e8f4 be3e 8de3 a23e 114e 6cbe
000002f0: 0d27 e33e cfa4 28bf dd7b d03e 1602 913e
00000300: a680 19bf 4c92 cfbe 5285 55bf 5cc2 10bf
00000310: d84a 8d3e f56d 52be c230 a9be 7b9f a53e
00000320: 2598 913c 6762 bfbe 268d 873e 82f4 dd3e
00000330: 358f 01bf aa34 75be ba70 f4be 5855 383e
00000340: 7108 593e 1642 b2bd bb20 ac3e bb87 403e
00000350: 6cad 6fbe f956 e13e 9ac1 babe f752 ff3d
00000360: 641c 853e 6d0c 9abe 92ca e63e a2b9 763e
00000370: 9eae f0be 8596 29bf 02bd c43e ca1d ce3e
00000380: ed3c 04bf 59c3 aa3e 3c41 ae3e 66f4 ef3e
00000390: ad3b 3e3d b7c9 c4be e117 c8be dafc 3fbe
000003a0: 53c7 f9be 77e7 583e 076a 01bf 619e f2be
000003b0: 1023 303e 1eb1 32bf e7c5 17bf 307e 013f
000003c0: 4a7e f93e d761 30bd 166e a83e fc5e ddbe
000003d0: 7dc1 853e 7d3d 99be 85b6 0abf 5007 12bf
000003e0: 03ad 58be b394 763d 72b7 bd3e 214d 3ebe
000003f0: ae52 7e3e 21e4 c83e 8686 f03e f804 f83d
