Python/SpeechRecognition/asr_nlp_main_sr_eval/models/taskClassifierPhonWordEmbeddingRNN.tflite (tflite, 420844 bytes, 10 tensors)

sequential_1/dense_1/BiasAdd/ReadVariableOp f4 [50]
000000 09 a8 8e 3f b3 0b 71 be 88 26 01 3e f1 46 0c 3e
       1.114503 -0.23539619 0.12612355 0.13698937
000010 6b 51 92 3e f5 b5 c8 be 16 74 53 be 21 f8 4d 3e
       0.28577742 -0.39201322 -0.20649752 0.20114185
000020 ed 76 b1 3e e2 ea 84 3f eb 58 0f bf 35 2c d0 3e
       0.34661046 1.038418 -0.55995053 0.40658727
000030 cc 57 8f 3e 58 41 e8 3e 74 bd b2 3e 42 33 98 be
       0.2799667 0.45362353 0.34910166 -0.29726607
000040 94 11 80 3f 6c 69 2a bf 03 ec 6b 3f 12 a8 61 3f
       1.0005364 -0.6656711 0.92157 0.8814708
000050 27 e0 0d 3d 3e 35 73 3f 65 1f ad be 4b e7 3c 3f
       0.034637596 0.95003116 -0.33813015 0.73790425
000060 b0 c9 65 3f 63 c7 d2 bd 4c eb 14 3f 06 40 44 3e
       0.89760876 -0.10291936 0.58171535 0.19165048
000070 29 b1 30 3f ce 1b 19 3f 7c fa d4 3e 00 ae ed bd
       0.69020325 0.5980805 0.41597354 -0.116054535
000080 0e 6d 81 be 56 39 da 3e 2f 81 d1 3d f6 5a 01 3f
       -0.25278515 0.4262187 0.10229718 0.5052942
000090 44 07 49 3e 2e 0e ac be 6f 39 ac be 6a 45 b6 3d
       0.19631678 -0.33604568 -0.33637568 0.088999584
0000a0 2d ed 29 3e c6 9e 0b 3f f8 58 cf bd 51 fb a9 be
       0.16594382 0.54539144 -0.10124391 -0.33199552
0000b0 de 28 92 bd 4c b2 ad 3e bf 16 a9 be 0b c9 c9 3e
       -0.07136701 0.33925092 -0.33025166 0.39411196
0000c0 07 82 df 3d 56 8d 0b 3c
       0.109134726 0.008517584

sequential_1/dense_2/BiasAdd/ReadVariableOp f4 [6]
000000 90 66 dc 3d 1c e8 b0 bd 36 78 ba 3d a1 85 86 3d
       0.1076175 -0.08638021 0.0910496 0.065684564
000010 f8 37 e7 3c 42 18 42 bd
       0.02822493 -0.047386415

sequential_1/first/embedding_lookup/408730 f4 [12508, 8]
000000 b5 6b 9f 3d a9 f4 8b bd df ca 9d 3c a5 24 fa bc
       0.07784215 -0.068337746 0.019261776 -0.030535052
000010 5a b5 bf bc c0 47 ad 3d eb b4 e7 3d 6b 21 25 3d
       -0.023401905 0.08460951 0.11313804 0.040315073
000020 10 d4 14 3c 6a 4b 97 3b d9 eb 5d 3d b1 f9 41 3c
       0.009083763 0.0046171444 0.05418 0.011839316
000030 50 52 34 bc eb 44 32 3b 13 a6 fe 3c d3 61 2e 3c
       -0.011005953 0.0027201723 0.03108505 0.01064344
000040 e1 50 f5 3c 85 68 39 3d 5e e0 31 bd 01 56 8b ba
       0.029945793 0.045265693 -0.043426864 -0.001063049
000050 88 04 98 3c f8 09 57 bd 2a d2 33 bd 54 e5 41 bb
       0.018556848 -0.05249974 -0.0439016 -0.0029586153
000060 47 5b 7b 3b a9 7f 47 bc 2d 6c c3 3c ac c5 13 bd
       0.0038353966 -0.012176433 0.023855293 -0.036077186
000070 c9 78 4f 3b 3d a8 18 3b 93 52 51 3d cf 6e 92 3d
       0.0031657687 0.0023293637 0.05110414 0.07150041
000080 f1 a6 ac 3c e8 a2 4a bc 2e 1a 63 3d 66 b8 82 bd
       0.021075698 -0.012367941 0.05544489 -0.063828275
000090 21 22 60 ba c3 33 01 3b fe 99 3e bc 99 53 3b bd
       -0.00085500075 0.001971469 -0.011633394 -0.04573402
0000a0 4a 29 7d bc d5 24 3a 3c 1e e3 2a bc ba 0c 3a bb
       -0.015451739 0.0113613205 -0.0104301255 -0.0028388933
0000b0 c2 44 fd bb a8 27 bc 3c f6 71 bf bc e1 f5 52 bc
       -0.007729144 0.022968128 -0.02336977 -0.012876005
0000c0 6d 2a 40 39 df 07 f5 3a 80 8c 51 3c 75 6c fe bc
       0.00018326352 0.0018694362 0.0127898455 -0.031057576
0000d0 f3 42 8b 3d 84 8a 90 bd 54 13 55 bc 86 97 be bc
       0.06799879 -0.0705767 -0.013005096 -0.023265611
0000e0 9b 00 56 3c 8a 92 be bc bc 9c 35 3d b3 bf 33 bd
       0.013061668 -0.023263235 0.044338927 -0.04388399
0000f0 df 42 d9 3c eb ab 90 bd 36 e6 2e bd 7b 6c 44 bd
       0.026521144 -0.07064041 -0.042700015 -0.047955018
000100 eb 09 a2 bc 8a c7 99 3b 96 ee 08 3d 57 e4 44 bc
       -0.01978012 0.0046929764 0.03343066 -0.012017331
000110 3d 99 a3 3a e8 e7 fa 3c 65 ec 0d bd 54 56 dd ba
       0.0012481582 0.03062816 -0.03464927 -0.001688669
000120 5b d0 a0 3c 0b 86 1a 3c 85 fe 2b 3c 4a fc 8b bd
       0.019630602 0.009431372 0.010497694 -0.0683523
000130 9e 39 34 3d 72 89 d8 3c ba 71 be bb ae b8 6f bd
       0.04400026 0.026432727 -0.005811897 -0.058525734
000140 e4 49 92 bc a7 81 93 bc c7 e6 76 3d 9c ac fe bb
       -0.0178575 -0.018006159 0.06027868 -0.0077720415
000150 2e f6 d6 bc 3a 4d 1b 3d 7e 61 2f 3d 6e ee c7 ba
       -0.026240434 0.037915446 0.042817585 -0.0015253553
000160 63 72 6e bb c6 d5 d6 bb ea 7f 44 3d e2 a0 3e bd
       -0.0036384098 -0.0065562455 0.04797355 -0.04654015
000170 33 98 d9 3b 61 d1 11 3b d9 b9 74 bc bf 90 8a bb
       0.006640458 0.0022250044 -0.014936888 -0.004228681
000180 8e 57 bf 3c 52 f4 a1 3c 38 3f 3d 3c d8 ba 15 38
       0.023357179 0.019769821 0.011550717 3.569838e-05
000190 b8 a4 10 3d 03 35 ee bc 20 a5 00 bd fd 19 1a 3d
       0.035313338 -0.029078012 -0.031407475 0.03762244
0001a0 d0 4a 44 3c 82 3e e4 3c f4 cb 34 3d bb 15 4d 3d
       0.011980727 0.027861837 0.044139817 0.050069552
0001b0 91 71 0b 3c ac d8 9c bc b5 b4 63 bb df e3 d7 3c
       0.008510963 -0.019146286 -0.003474516 0.026353775
0001c0 a8 50 82 3d 56 bb ea bc bc 7c 15 bd 0c 2a 9b 3c
       0.0636304 -0.028653782 -0.03649591 0.018940948
0001d0 40 fb 37 bc 9c d4 70 3d 6c 4a 63 ba 55 a3 27 bd
       -0.011229336 0.05879651 -0.00086704525 -0.04092725
0001e0 31 e5 8d bd 53 cd 49 3d fd a9 47 3d 5e 95 d3 3c
       -0.069284804 0.049268078 0.048746098 0.02582806
0001f0 df 55 51 bd b4 2b 65 3d 87 f1 74 bd f9 c4 4e bd
       -0.051107284 0.05594988 -0.05980065 -0.050480817
000200 ad 1c 02 bc 31 a9 2a 3d 13 80 49 3c 93 d8 59 bc
       -0.007941407 0.04166526 0.012298602 -0.013296264
000210 9c 93 97 3d 90 48 2b 3d d6 99 b1 3c 4e 5e 72 bd
       0.07401201 0.041817248 0.0216798 -0.059171967
000220 3f 61 7a 3c b4 d2 77 bb df 76 d8 3c 42 57 b1 bc
       0.015281974 -0.0037814798 0.02642387 -0.021648053
000230 24 41 ee ba 26 80 05 bc 43 a9 38 bd 1d 17 97 bc
       -0.0018177372 -0.008148229 -0.045083296 -0.018443638
000240 36 e8 f9 3c 60 a0 9c ba 30 34 4f bb ae 91 7b bc
       0.030506235 -0.0011949651 -0.00316168 -0.015354557
000250 16 82 d9 3c 4c a5 49 3b 21 a6 16 3c 3d 84 fe 3c
       0.026551288 0.003076869 0.009194882 0.031068916
000260 9c 25 ee 3c 25 b4 04 3d 48 8d 3c bd 40 e7 52 bd
       0.029070668 0.03239836 -0.046033174 -0.05149007
000270 d8 ef 20 bd 37 20 46 bc 1e 9e 55 3c bd e1 ef 3c
       -0.039291233 -0.012092642 0.013038186 0.029282445
000280 fc 25 50 3d fb 25 f5 bc 5f 73 41 3b c9 63 23 3d
       0.050817475 -0.029925337 0.002951823 0.039890084
000290 d4 79 74 3c 4c 29 6d 3d fc 38 60 bd bc 8d 42 3d
       0.014921624 0.057900712 -0.054741845 0.04749845
0002a0 03 71 e6 3a d4 32 be 3c 95 41 a6 bc 2e d3 b3 3c
       0.0017581288 0.023217596 -0.020294944 0.021951284
0002b0 8c 5f 55 3d 80 ff ea 3c b0 b4 55 3d 0f f3 15 3d
       0.052093074 0.028686285 0.05217427 0.036608752
0002c0 b0 43 d0 3b f3 c1 25 ba 66 a2 d1 bc 6f dd 5c bd
       0.006355725 -0.0006323151 -0.025590133 -0.053922113
0002d0 bc ba c5 bc 1d 34 05 bc a5 5f 66 3d 88 5e 7c bd
       -0.024136893 -0.008130101 0.056243557 -0.06161359
0002e0 d0 8a 96 bc cd 4f ca 3a 79 99 0e bc ce ae d9 bc
       -0.018376738 0.001543516 -0.008703583 -0.026572611
0002f0 49 8e 21 3d 86 3e 1e 3d 41 5d 51 bd 41 a6 d4 3b
       0.039442334 0.038633846 -0.051114324 0.0064895456
000300 a9 79 43 3d 75 f2 99 bd 5e 83 2a bd 9c 0f d6 3d
       0.047723446 -0.07516948 -0.041629188 0.10452196
000310 92 e6 1a bd 21 8a c0 3d 63 35 c0 bd 84 2e 45 bd
       -0.037817545 0.09401346 -0.09385183 -0.048140064
000320 e1 3e 24 bc a7 17 04 3c 54 49 e3 bb ce 45 fc bc
       -0.010024757 0.00806228 -0.0069362316 -0.030795004
000330 da 47 6b 3c 5f 06 ec 3c de 88 0d 3a 47 6c 0d 3b
       0.0143603925 0.028811632 0.0005399118 0.002157943
000340 5f 36 1d bc 2f 50 4b bd fc 8d 52 bd 54 0a 0a 3d
       -0.009595483 -0.049637016 -0.051404938 0.033701256
000350 25 af 01 be 0a 0a cb bd 11 b5 6d bd da 0f 34 3c
       -0.12664469 -0.09914024 -0.058034007 0.010990107
000360 6b d1 9a 3c 9a 25 2e bd 76 78 61 3c c8 69 a2 3c
       0.018898686 -0.04251633 0.01376163 0.019825831
000370 5b 09 d5 3c 77 fc a0 bc 14 63 cb bc 41 27 12 bd
       0.026005438 -0.019651635 -0.024827518 -0.035681967
000380 a9 d9 7f bd 9a e8 9c 3d 2f c1 4d bd 7c 82 21 bd
       -0.062463436 0.07661553 -0.050233062 -0.03943108
000390 59 8a 48 bc 31 74 59 bc 37 6d 64 3d 25 9f 44 3d
       -0.012240016 -0.013272331 0.055768218 0.048003335
0003a0 a6 fb 7f 3d 5d 34 4b 3c 5e a4 b1 3d d7 88 80 3d
       0.06249585 0.012402621 0.08673929 0.062761
0003b0 45 83 98 3d 9c 6d d4 3c f8 45 64 bd 87 4e 8e bd
       0.07446913 0.025931172 -0.05573079 -0.06948572
0003c0 8e 37 5a be 4c 0e 44 3e 58 b6 a6 3d 71 a6 bc be
       -0.21310255 0.19146079 0.08140248 -0.36845735
0003d0 5a 03 aa bc b0 b0 96 3d 62 17 e2 3e 38 6a 69 3e
       -0.020753551 0.07357919 0.44158465 0.22794425
0003e0 b8 34 c5 bd fd 90 f2 3c ed 53 ed bc 79 d8 51 3c
       -0.09629196 0.029610151 -0.028970683 0.012807959
0003f0 e3 5d 66 bc 71 9b 78 3c 8b 55 14 3d 94 f1 ff 3d
       -0.01406047 0.015173779 0.036214393 0.12497249

sequential_1/simple_rnn/zeros f4 [1, 8]
000000 00 00 00 00 00 00 00 00 00 00 00 00 00 00 00 00
       0.0 0.0 0.0 0.0
000010 00 00 00 00 00 00 00 00 00 00 00 00 00 00 00 00
       0.0 0.0 0.0 0.0

sequential_1/simple_rnn/simple_rnn_cell/BiasAdd/ReadVariableOp/resource f4 [8]
000000 5b 72 f1 3c e4 ba b0 bb d2 62 b9 bb db 3a 86 3c
       0.029473474 -0.005393373 -0.0056575323 0.016385486
000010 60 46 c0 3b 54 a5 de bb fb db 2e bb fa 99 81 3c
       0.0058677644 -0.006794611 -0.0026681412 0.015820492

sequential_1/simple_rnn/TensorArrayV2_1 f4 [25, 1, 8]
000000 00 00 00 00 00 00 00 00 00 00 00 00 00 00 00 00
       0.0 0.0 0.0 0.0
000010 00 00 00 00 00 00 00 00 00 00 00 00 00 00 00 00
       0.0 0.0 0.0 0.0
000020 00 00 00 00 00 00 00 00 00 00 00 00 00 00 00 00
       0.0 0.0 0.0 0.0
000030 00 00 00 00 00 00 00 00 00 00 00 00 00 00 00 00
       0.0 0.0 0.0 0.0
000040 00 00 00 00 00 00 00 00 00 00 00 00 00 00 00 00
       0.0 0.0 0.0 0.0
000050 00 00 00 00 00 00 00 00 00 00 00 00 00 00 00 00
       0.0 0.0 0.0 0.0
000060 00 00 00 00 00 00 00 00 00 00 00 00 00 00 00 00
       0.0 0.0 0.0 0.0
000070 00 00 00 00 00 00 00 00 00 00 00 00 00 00 00 00
       0.0 0.0 0.0 0.0
000080 00 00 00 00 00 00 00 00 00 00 00 00 00 00 00 00
       0.0 0.0 0.0 0.0
000090 00 00 00 00 00 00 00 00 00 00 00 00 00 00 00 00
       0.0 0.0 0.0 0.0
0000a0 00 00 00 00 00 00 00 00 00 00 00 00 00 00 00 00
       0.0 0.0 0.0 0.0
0000b0 00 00 00 00 00 00 00 00 00 00 00 00 00 00 00 00
       0.0 0.0 0.0 0.0
0000c0 00 00 00 00 00 00 00 00 00 00 00 00 00 00 00 00
       0.0 0.0 0.0 0.0
0000d0 00 00 00 00 00 00 00 00 00 00 00 00 00 00 00 00
       0.0 0.0 0.0 0.0
0000e0 00 00 00 00 00 00 00 00 00 00 00 00 00 00 00 00
       0.0 0.0 0.0 0.0
0000f0 00 00 00 00 00 00 00 00 00 00 00 00 00 00 00 00
       0.0 0.0 0.0 0.0
000100 00 00 00 00 00 00 00 00 00 00 00 00 00 00 00 00
       0.0 0.0 0.0 0.0
000110 00 00 00 00 00 00 00 00 00 00 00 00 00 00 00 00
       0.0 0.0 0.0 0.0
000120 00 00 00 00 00 00 00 00 00 00 00 00 00 00 00 00
       0.0 0.0 0.0 0.0
000130 00 00 00 00 00 00 00 00 00 00 00 00 00 00 00 00
       0.0 0.0 0.0 0.0
000140 00 00 00 00 00 00 00 00 00 00 00 00 00 00 00 00
       0.0 0.0 0.0 0.0
000150 00 00 00 00 00 00 00 00 00 00 00 00 00 00 00 00
       0.0 0.0 0.0 0.0
000160 00 00 00 00 00 00 00 00 00 00 00 00 00 00 00 00
       0.0 0.0 0.0 0.0
000170 00 00 00 00 00 00 00 00 00 00 00 00 00 00 00 00
       0.0 0.0 0.0 0.0
000180 00 00 00 00 00 00 00 00 00 00 00 00 00 00 00 00
       0.0 0.0 0.0 0.0
000190 00 00 00 00 00 00 00 00 00 00 00 00 00 00 00 00
       0.0 0.0 0.0 0.0
0001a0 00 00 00 00 00 00 00 00 00 00 00 00 00 00 00 00
       0.0 0.0 0.0 0.0
0001b0 00 00 00 00 00 00 00 00 00 00 00 00 00 00 00 00
       0.0 0.0 0.0 0.0
0001c0 00 00 00 00 00 00 00 00 00 00 00 00 00 00 00 00
       0.0 0.0 0.0 0.0
0001d0 00 00 00 00 00 00 00 00 00 00 00 00 00 00 00 00
       0.0 0.0 0.0 0.0
0001e0 00 00 00 00 00 00 00 00 00 00 00 00 00 00 00 00
       0.0 0.0 0.0 0.0
0001f0 00 00 00 00 00 00 00 00 00 00 00 00 00 00 00 00
       0.0 0.0 0.0 0.0
000200 00 00 00 00 00 00 00 00 00 00 00 00 00 00 00 00
       0.0 0.0 0.0 0.0
000210 00 00 00 00 00 00 00 00 00 00 00 00 00 00 00 00
       0.0 0.0 0.0 0.0
000220 00 00 00 00 00 00 00 00 00 00 00 00 00 00 00 00
       0.0 0.0 0.0 0.0
000230 00 00 00 00 00 00 00 00 00 00 00 00 00 00 00 00
       0.0 0.0 0.0 0.0
000240 00 00 00 00 00 00 00 00 00 00 00 00 00 00 00 00
       0.0 0.0 0.0 0.0
000250 00 00 00 00 00 00 00 00 00 00 00 00 00 00 00 00
       0.0 0.0 0.0 0.0
000260 00 00 00 00 00 00 00 00 00 00 00 00 00 00 00 00
       0.0 0.0 0.0 0.0
000270 00 00 00 00 00 00 00 00 00 00 00 00 00 00 00 00
       0.0 0.0 0.0 0.0
000280 00 00 00 00 00 00 00 00 00 00 00 00 00 00 00 00
       0.0 0.0 0.0 0.0
000290 00 00 00 00 00 00 00 00 00 00 00 00 00 00 00 00
       0.0 0.0 0.0 0.0
0002a0 00 00 00 00 00 00 00 00 00 00 00 00 00 00 00 00
       0.0 0.0 0.0 0.0
0002b0 00 00 00 00 00 00 00 00 00 00 00 00 00 00 00 00
       0.0 0.0 0.0 0.0
0002c0 00 00 00 00 00 00 00 00 00 00 00 00 00 00 00 00
       0.0 0.0 0.0 0.0
0002d0 00 00 00 00 00 00 00 00 00 00 00 00 00 00 00 00
       0.0 0.0 0.0 0.0
0002e0 00 00 00 00 00 00 00 00 00 00 00 00 00 00 00 00
       0.0 0.0 0.0 0.0
0002f0 00 00 00 00 00 00 00 00 00 00 00 00 00 00 00 00
       0.0 0.0 0.0 0.0
000300 00 00 00 00 00 00 00 00 00 00 00 00 00 00 00 00
       0.0 0.0 0.0 0.0
000310 00 00 00 00 00 00 00 00 00 00 00 00 00 00 00 00
       0.0 0.0 0.0 0.0

simple_rnn_cell/MatMul_1 f4 [8, 8]
000000 34 16 4d be c4 f2 14 bf 4a 13 0a bf 52 e2 f2 3d
       -0.20028001 -0.5818293 -0.5393568 0.118595734
000010 06 b8 89 bd bc 96 b6 3c 2d c4 ba be 6f 26 51 3f
       -0.06724553 0.022288673 -0.36477795 0.8169927
000020 4e 76 6d be eb 8b 7c 3e a4 1e b1 3e 9a bd e5 3c
       -0.23189661 0.2466275 0.3459369 0.02804451
000030 fb 04 30 3f 87 8f d1 be a3 49 29 bf 18 61 30 3d
       0.687576 -0.40929815 -0.66127986 0.043061346
000040 8f b8 14 3f 61 c1 a8 3e 98 8e 0a be a4 47 9e be
       0.58094114 0.32960036 -0.13530958 -0.30914032
000050 b5 40 67 3f ce b7 da be 83 f1 19 3e 09 93 e5 3e
       0.9033311 -0.42718357 0.15033536 0.4483874
000060 e0 24 b4 3e 6c 51 72 bf 6b b2 e2 3e 88 0c 5c be
       0.35184383 -0.9465549 0.44276747 -0.21489155
000070 e5 ce 09 3e fb bb b0 3e 19 cb 24 bc 45 2f a1 3e
       0.1345783 0.34518418 -0.010058188 0.31481376
000080 40 02 73 3f 33 16 80 bd 75 0a d5 bd 36 c5 11 3f
       0.9492531 -0.06254234 -0.10402385 0.56941545
000090 87 ac b7 be d6 c0 6c be a5 61 12 bf 15 15 1a bd
       -0.35873815 -0.23120436 -0.57180244 -0.03761776
0000a0 3d a7 95 bd 8c 4a 84 bd b1 33 f5 be 03 1f 5b bf
       -0.07307289 -0.06459531 -0.47891 -0.85594195
0000b0 14 b2 44 bd 5c 93 a0 3e 17 1d a5 be 9b f3 0d bf
       -0.04802139 0.31362426 -0.32248756 -0.5544984
0000c0 c5 fc 7d be 89 f1 a2 3d 2f 62 9f 3e d2 c3 02 bf
       -0.24803455 0.079562254 0.31129596 -0.5108005
0000d0 fe c8 11 bf 65 f5 43 bf d6 86 38 3e 20 01 ee 3c
       -0.56947315 -0.7654632 0.18020186 0.02905327
0000e0 8c 05 ff 3d 79 6b 4b bf d2 e3 09 bf b7 70 a7 3e
       0.1245223 -0.79460865 -0.5386325 0.32703182
0000f0 87 27 af 3e 75 2f c5 be dd a8 a4 3e 84 4a de be
       0.34209844 -0.3851277 0.32160082 -0.43416226

simple_rnn_cell/MatMul f4 [8, 8]
000000 d5 dd 6c 3e 17 33 35 bf 9a 44 1e be f9 53 2b 3c
       0.23131497 -0.7078108 -0.15455857 0.010457032
000010 3c c1 16 bf 56 9c c4 3e 28 5c b3 3e 3d bd 3d 3e
       -0.588886 0.38400525 0.35031247 0.1852922
000020 3a bc c4 be e9 f2 8c be 92 e6 b4 be 1f 9d a6 be
       -0.38424855 -0.27529076 -0.3533216 -0.3254175
000030 7c 7c a4 be cf 5a 1b 3d 80 a6 f1 3e 18 af c5 3e
       -0.32126224 0.0379284 0.47197342 0.38610148
000040 50 20 12 bf 0f 76 76 bd 98 55 fe be f1 f0 20 3e
       -0.57080555 -0.060171183 -0.49674678 0.15716912
000050 6b 9e 66 be 0a c8 61 be 2b 91 45 3d 16 50 dc bd
       -0.22521369 -0.22048965 0.048234146 -0.10757463
000060 94 61 06 3f f9 5d 15 bf e3 0d 11 bf de 02 bb be
       0.5249264 -0.58346516 -0.56661814 -0.36525625
000070 7e cf 04 be 0e e7 cc 3e 08 0e 79 3e be 36 03 bf
       -0.12969777 0.4002003 0.24321759 -0.51255405
000080 33 01 e3 be 0b 87 b8 be d8 fa 83 bd e7 dd 02 3f
       -0.44336852 -0.3604053 -0.06444329 0.51119846
000090 7d 2e 8d 3e eb 05 18 bf 06 fd 1e bf 4f dd 12 bd
       0.2757453 -0.5938403 -0.62104833 -0.035855588
0000a0 e3 41 3a 3e 3e f0 25 bc 59 7a 5c be 3e 7d e2 bd
       0.18189196 -0.010128079 -0.21531047 -0.11059044
0000b0 8c dc ad 3e bd ac b1 be 4d 18 c4 3d b8 2d c2 be
       0.33957326 -0.347021 0.095749475 -0.37925506
0000c0 b7 1e 28 be f9 6d 00 3f 3f 8e a1 be da be 87 be
       -0.16417967 0.50167805 -0.31553838 -0.26512796
0000d0 8a 53 0a 3f ce 92 16 3f 6f 80 06 3f 7c ea fc 3d
       0.5403372 0.58817756 0.52539724 0.12349412
0000e0 61 06 26 3f 27 ed 83 3e 91 82 01 bf df 34 2c be
       0.64853483 0.2576687 -0.50589854 -0.16817044
0000f0 a6 c6 fd 3e ef a3 4d 3e d0 d6 79 3e 70 42 c9 3e
       0.4956562 0.20082067 0.2439835 0.393085

sequential_1/dense_1/MatMul f4 [50, 8]
000000 48 b5 56 bf 46 e2 ad 3f 02 12 87 3f ae dd 7a bf
       -0.83870363 1.3584678 1.055237 -0.97994506
000010 2c 0c 6f bd 47 ff 4a bf 70 5e 21 3f 12 63 54 be
       -0.058361217 -0.7929577 0.63034725 -0.20740917
000020 36 1c e7 be d6 05 7d bf 67 2b fe be a8 e6 f0 be
       -0.4513871 -0.9883703 -0.49642488 -0.47050977
000030 87 f7 96 3f 64 ff 13 3e 89 03 69 bf b0 72 26 be
       1.1794289 0.14452893 -0.9102102 -0.16254687
000040 ca 03 a3 3e 3e e9 c8 bf 9a 5c e4 bf f8 9f d5 bd
       0.31838828 -1.569618 -1.784076 -0.10430902
000050 26 d0 10 bf f8 bb 71 3f ce 6e 17 3f 40 59 ce 3e
       -0.5656761 0.9442744 0.5915345 0.40302467
000060 24 3b 4e c0 53 7d a9 3d bc 01 39 bc dc 65 84 c0
       -3.2223597 0.08275857 -0.011291917 -4.137434
000070 99 00 10 3d 20 00 b0 3d 69 19 bf 3f 13 1c 3c bf
       0.03515682 0.08593774 1.492963 -0.7348034
000080 e2 7d e5 bf 34 b9 00 3f dd bf 80 3e 6c 27 c0 bf
       -1.7929041 0.502826 0.2514638 -1.5012031
000090 df 2e b1 be fa cb 97 be b5 62 18 3f 42 1f 8b bf
       -0.34606072 -0.2964781 0.59525615 -1.0868914
0000a0 90 78 d4 3f 96 5a 8b bf 14 1c 79 bf 51 8a 95 3f
       1.6599293 -1.088702 -0.9730847 1.1682836
0000b0 56 4f c0 3e 07 27 1d 3f 9e d7 1e bf cd ae 01 40
       0.3756053 0.61387676 -0.62047756 2.026294
0000c0 8f 2b 56 be 93 52 0f bf 2e a9 da be 1a 05 3f bf
       -0.20915054 -0.55985373 -0.427072 -0.7461716
0000d0 d9 e9 20 c0 9a 12 8d 3f dc f7 e4 3f 57 35 de be
       -2.514273 1.1021302 1.7888141 -0.4340007
0000e0 d3 48 4b c0 88 e7 59 3c 4d 2d df bd f6 dc 82 c0
       -3.1763198 0.01329983 -0.10897312 -4.089473
0000f0 e6 30 06 3d 24 42 3f be f3 f3 c6 3f e2 53 4f bf
       0.032761477 -0.18677574 1.5543197 -0.8098737
000100 b4 a4 0c 40 32 cc 4b be 5c 54 ba be fd 5f d3 3f
       2.1975527 -0.19902113 -0.36392486 1.6513668
000110 f5 87 6c be 80 c9 0d 3f c2 c3 2d be 6c bf 1b 40
       -0.23098738 0.5538559 -0.16969207 2.4335585
000120 62 85 3c 3f d5 5f 50 3f 56 57 f8 3e 91 e2 61 3f
       0.73641026 0.8139623 0.48504132 0.8823634
000130 fb 1d f4 3f d1 af eb bf c0 f1 01 c0 3b 07 0e 3f
       1.9071649 -1.841303 -2.0303802 0.5547978
000140 94 d8 65 3d cb 4a de 3f 7c df 1c 40 ca 50 e8 3e
       0.056114748 1.7366575 2.4511404 0.45374137
000150 c6 00 0c 3c 34 58 88 bf e7 18 e2 be b8 3c 5e be
       0.008545106 -1.0651917 -0.44159624 -0.2170285
000160 01 7c 23 c0 ed 15 40 3f 9a 23 50 3e d6 2e 57 c0
       -2.5544436 0.75033456 0.20326081 -3.3622336
000170 68 d8 ee be 7d 8f c4 be 19 05 c4 3f a8 65 02 bf
       -0.4664948 -0.38390723 1.5314056 -0.50936365
000180 d7 27 49 c0 d3 6f aa 3e bb c6 f1 bd 2e c9 80 c0
       -3.1430566 0.3328844 -0.11805483 -4.024558
000190 a3 b3 95 be 94 80 43 be 4e b0 d0 3f f5 53 8c bf
       -0.29238614 -0.19092017 1.6303804 -1.0963122
0001a0 10 8a 13 40 91 62 c8 be e9 64 46 3c 76 2e a2 3f
       2.3053017 -0.391377 0.01210902 1.2670429
0001b0 79 ad 0d bf 64 25 9f 3e 00 85 01 bf 91 a4 12 40
       -0.55342823 0.31083214 -0.50593567 2.2912943
0001c0 06 33 5a c0 3c 38 09 3f eb bc 49 be 58 8b 91 c0
       -3.4093642 0.5360143 -0.19700973 -4.5482597
0001d0 18 f6 2d bf 58 9c 7c be fe 82 af 3f b4 ad 6c bf
       -0.67953634 -0.24669015 1.3711851 -0.9245255
0001e0 bb 0e 79 3f 7e 29 43 3f ee ac 6f 3f d5 ff 56 3f
       0.972881 0.7623519 0.93623245 0.8398412
0001f0 0c 03 9a bf 8a 7d 3e 3f 34 67 6e 3e fa f9 5a 3f
       -1.203218 0.7441031 0.23281556 0.85537684
000200 bb fd 44 3f 08 60 51 3f 9a d7 6a 3f 44 1b 27 3f
       0.7694966 0.8178716 0.9173523 0.6527598
000210 02 9d ee 3f e2 0d 91 bf d4 54 b0 bf ec 72 81 3e
       1.8641665 -1.1332362 -1.3775887 0.2528299
000220 dd 74 ce be c5 6d 74 bf 04 bd 89 bf 4b 07 14 be
       -0.40323535 -0.95479995 -1.0760808 -0.14455907
000230 92 97 d4 bf 0d fd 1c 40 af ef 60 3f db e7 f0 be
       -1.6608756 2.452945 0.8786573 -0.47051892
000240 58 52 21 bf 0c bc c0 3f 9f 61 74 3f da 0e 05 bf
       -0.6301627 1.5057387 0.9546146 -0.51975787
000250 bb 1f a8 3e 05 79 5f bf 76 54 91 3e 23 08 04 bf
       0.32836708 -0.87294036 0.2838475 -0.51574916
000260 9f 78 22 bf a6 bd c6 be e1 36 e3 be 24 58 45 bf
       -0.63465303 -0.38816565 -0.44377807 -0.77087617
000270 0f e6 a6 bf 7b 69 c4 3e 53 96 69 3f 96 f5 31 bf
       -1.3038958 0.38361725 0.91245 -0.6951536
000280 6c 8a db be f5 23 7d bf 4d b6 49 bf a3 83 b1 be
       -0.42879045 -0.9888299 -0.78793794 -0.34670743
000290 54 bc 23 c0 2d 0f cf 3f 2b 8e ab 3f 25 d5 d3 bd
       -2.5583696 1.6176506 1.3402761 -0.103433885
0002a0 d6 22 58 be 26 89 ce 3f 79 c4 a4 3f dc 45 a3 be
       -0.21107039 1.6135604 1.2872459 -0.31889236
0002b0 29 bf 07 bf d8 99 c1 be e2 a7 71 3e 10 1c 1c bf
       -0.5302606 -0.37812686 0.23599198 -0.6098032
0002c0 0e 9b ec 3e f2 d6 0d c0 3c 6d fa bf 62 14 c9 3e
       0.46212047 -2.2162442 -1.9564586 0.39273363
0002d0 b1 37 bc bd 03 92 86 3f 46 4f 6a 3e 9c 3d 97 3e
       -0.0919031 1.0513309 0.22881803 0.29539192
0002e0 f0 75 15 3f 0a a2 66 be 8d 1d 1e 3f ed 8b 48 3f
       0.58383083 -0.2252275 0.6176384 0.7833851
0002f0 5c 50 4f 40 80 fd a4 bf d0 68 44 c0 78 4e 41 3f
       3.2392797 -1.2889862 -3.0688972 0.7551036
000300 ec a5 4b be ad ed 31 be 90 5a 13 bf df 8d b3 be
       -0.19887513 -0.17375822 -0.5756006 -0.35069177
000310 d2 23 30 c0 43 92 c9 3f d6 95 ac 3f 09 4d d6 be
       -2.7521863 1.574776 1.3483226 -0.41855648
000320 e3 8d 2b 3e 3f f3 a9 bc 33 bd ce 3e 3d 04 75 3e
       0.16753344 -0.020745872 0.40378723 0.23927398
000330 f8 e3 10 3f ea 06 2d bf 09 39 e3 be a7 2c af 3f
       0.5659785 -0.67588675 -0.44379452 1.3685502
000340 fc bb 94 be 25 0a d0 bf 31 4a 93 bf 65 51 c0 be
       -0.2904967 -1.6253096 -1.1507016 -0.375621
000350 49 ba 8c bd fe aa d5 3d 0f 0a 1c 3f 65 2a b2 3c
       -0.068714686 0.10433005 0.6095285 0.02174873
000360 9a 9c cb 3f 67 e2 4e 3e d1 37 1d 3e 1b f6 4e 3f
       1.5907166 0.20203553 0.15353324 0.8084428
000370 4e ac e5 be fd fb 07 3f 7f 44 dc be 06 0a e6 3f
       -0.4485802 0.5311888 -0.43021008 1.7971809
000380 89 c1 37 bd 68 d9 fe be e0 05 22 bf 20 91 0d bf
       -0.044862304 -0.49775243 -0.63290215 -0.5529957
000390 8f 02 4c c0 b3 e8 0d 40 d6 f9 c0 3f 08 b6 1a be
       -3.1876562 2.2173278 1.5076244 -0.15108502
0003a0 62 b8 f3 bc 02 be e2 be 1c 9f 48 bf e0 d6 ea be
       -0.029751007 -0.4428559 -0.7836778 -0.45867062
0003b0 28 3a 52 c0 db 01 d3 3f 69 9c d5 3f 67 71 ed bd
       -3.2847996 1.6484941 1.6688358 -0.115938954
0003c0 48 c7 6e 3e 90 14 04 c0 62 ee 25 c0 53 1a 29 3e
       0.23318207 -2.063755 -2.5926747 0.16513948
0003d0 3c 7b d7 be e2 d5 6d 3f fe 56 01 3f 16 0f 96 3e
       -0.42086208 0.92904484 0.50523365 0.29308385
0003e0 81 6f 58 3f 45 11 ca be 12 36 e8 bd da 8b fe 3e
       0.8454514 -0.394663 -0.11338438 0.49716073
0003f0 e6 34 3d 40 b3 c7 a7 bf 97 51 54 c0 d3 4a 21 3f
       2.9563537 -1.3107818 -3.3174798 0.630048

sequential_1/dense_2/MatMul f4 [6, 50]
000000 b0 43 dd 3e aa 65 2f bf db 41 94 bf 1e 14 0e 3f
       0.43215704 -0.685145 -1.1582597 0.55499446
000010 98 cd 49 3f 0b b4 e3 bf 69 21 81 be b2 e3 17 3f
       0.78829336 -1.778932 -0.25220802 0.5933181
000020 42 76 3b bf c8 81 09 3f cf ef 1d 3f c1 a9 53 3f
       -0.7322732 0.53713655 0.61694044 0.826809
000030 72 66 59 3f ad 47 b2 be 61 4d 5d 3f b4 d9 de bd
       0.84921944 -0.3482031 0.86446196 -0.10881367
000040 89 a7 38 3f 36 ee 4f bf 2b 5b 24 3f 95 3e 0b 3f
       0.7213064 -0.81222856 0.6420161 0.5439237
000050 74 b9 58 be c3 41 34 3f 63 01 04 c0 f7 49 54 3e
       -0.21164495 0.70412844 -2.0625846 0.2073134
000060 4f 09 0e 3f e9 12 7e be 21 19 98 bc 42 e8 11 be
       0.55482954 -0.24811901 -0.01856667 -0.14248756
000070 8c 7d 90 3e 0b 59 02 3e ac e1 c1 bf a4 aa 90 be
       0.28220785 0.1272928 -1.5146995 -0.28255188
000080 ac 8f ce 3e 99 88 9c bf 43 03 c0 bf 6e 93 be bf
       0.40343988 -1.2229186 -1.5000995 -1.4888742
000090 27 a3 27 3d b5 48 cf be 17 6e 89 3f bb ed 75 be
       0.04092708 -0.4048516 1.0736722 -0.24016468
0000a0 38 4a 6c 3f 2e 97 c6 bf 77 5d af be 66 de 47 3f
       0.9230075 -1.5514886 -0.34250996 0.7807373
0000b0 0d b4 47 bf ca b8 86 bf d2 e5 71 3f 21 1f 94 be
       -0.7800911 -1.0525143 0.944913 -0.2893
0000c0 ab 41 47 3f 98 cb 4f be ae 47 b8 3e 0e 1a f4 bd
       0.77834576 -0.20292509 0.35992187 -0.11919032
0000d0 81 79 cd bf f9 14 85 bf 68 e4 86 bf cc ab 6f be
       -1.6052705 -1.0397025 -1.0538454 -0.23405379
0000e0 d3 9b c6 bf 4d 8b 2a bf b0 bf 1f 3f 8e 9d bc 3e
       -1.5516304 -0.66618806 0.62401867 0.36838955
0000f0 78 37 62 3f 5c e4 ee be 2b bd fc be f3 69 08 3f
       0.8836589 -0.466586 -0.49363074 0.53286666
000100 ea 1b 34 bf 11 84 a8 3e a3 66 33 3f ae e8 e7 bf
       -0.70355093 0.3291326 0.70078486 -1.8117883
000110 75 3f 26 3f 34 a0 b5 bf dc 8c d9 bf 9e 1b ad 3e
       0.6494058 -1.4189515 -1.6996112 0.33810133
000120 78 35 94 bf f7 be c7 3d 3d 49 9f bf af 01 bf 3e
       -1.1578817 0.097532205 -1.2444226 0.37305972
000130 1b c3 aa bf ff a8 0f 3f c0 20 b2 bf e6 e7 ad bf
       -1.3340791 0.5611724 -1.3916245 -1.3586395
000140 87 64 ab bf 10 c0 99 3e 18 17 47 3f 0d 56 b9 3e
       -1.3390054 0.30029345 0.77769613 0.36198464
000150 45 de 50 bb 90 c9 c9 bf f6 2c 37 bf 03 4c b7 3e
       -0.0031870764 -1.5764637 -0.7155298 0.3580018
000160 be a2 37 3f 5b c3 dc bf 50 27 5f bf 67 b3 96 bf
       0.717327 -1.7247118 -0.8716936 -1.1773499
000170 05 e4 90 bf 1e f2 f6 3e 01 7b 0d 3f 3f 90 4a 3e
       -1.1319586 0.48231596 0.55265814 0.19781588
000180 07 83 43 3f 94 22 f8 3e f2 be 93 3e f1 c9 c3 3e
       0.76371807 0.4846388 0.28856617 0.38240007
000190 73 52 73 3f b1 31 9a 3e 06 5d a9 3e 1e 4b 5a 3f
       0.9504768 0.30116037 0.33078784 0.8527087
0001a0 f1 e7 40 3f e4 dc d3 bf 41 30 bb 3e 39 3d 3e 3f
       0.75353914 -1.6551785 0.36560252 0.7431217
0001b0 92 a5 1b c0 ba 4f 19 c0 cb ab ab bf b3 ab 27 3f
       -2.4319806 -2.3954911 -1.3411802 0.6549637
0001c0 da 37 88 3f 75 c5 21 c0 e3 0e 0d 3f 39 8a b5 bf
       1.0642045 -2.5276768 0.5510084 -1.4182807
0001d0 b3 34 de bf c5 75 1c 3f 7e 03 a3 3e e1 e2 ff 3e
       -1.7359833 0.611172 0.31838602 0.49977782
0001e0 c1 56 01 3f 12 55 42 3f b9 70 8e bd 5b e7 2e c0
       0.50523 0.75911057 -0.06955094 -2.7328708
0001f0 d7 af 1a 3f dc 83 10 c0 a8 b1 19 3f ac b7 f6 bf
       0.6042456 -2.258048 0.60036707 -1.9274802
000200 36 dc 26 3f a0 a8 72 3e 6e 08 56 3f e5 9c bc bf
       0.65179765 0.23697138 0.8360661 -1.473538
000210 9e 27 a9 be ac c8 1d c0 eb e2 a5 bf 91 85 67 3f
       -0.33038038 -2.465373 -1.2959875 0.9043818
000220 58 e1 7b 3f 25 01 0f c0 a5 8f 75 bf 1c d9 0b 3f
       0.9839072 -2.2344449 -0.9592231 0.5462816
000230 34 e1 f6 3e 50 a6 4a 3f 32 9b 0f 3f ac 66 65 bf
       0.4821869 0.7916002 0.56096184 -0.8960979
000240 ab 10 6e c0 54 1a 20 c0 82 0e ae bf 5b e4 02 c0
       -3.7197673 -2.501607 -1.3598177 -2.0451877
000250 ba 0f b1 3c f7 ae 35 c0 2c 4e da bf e0 78 3e 3f
       0.021613944 -2.838804 -1.7055106 0.7440319
000260 79 aa 16 3e 9a 04 78 bf d2 cd e3 bf 47 53 0b 3f
       0.14713468 -0.9688202 -1.7797186 0.54423946
000270 43 e6 0e c0 ce f5 41 bf 67 ef df 3d c7 e9 1d 3f
       -2.232804 -0.75765693 0.10934334 0.6168484
000280 70 fe 44 bf fd 06 f2 bf 85 d9 a9 bf 46 7c 61 3e
       -0.7695074 -1.8908383 -1.3269507 0.22020063
000290 dd 87 03 c0 00 75 eb be b8 ae cc 3e b7 01 90 bf
       -2.0551674 -0.459877 0.3997705 -1.1250523
0002a0 6c 83 9c bf e6 b9 05 c0 63 10 be bf 83 51 d2 bf
       -1.2227607 -2.0894713 -1.4848751 -1.6431125
0002b0 1c dd 4b 3f 6d 82 10 3f d2 6b 30 c0 7a f2 38 3f
       0.7963426 0.56449014 -2.7565808 0.7224499
0002c0 80 6e 51 3e 4f 0e 05 3e b3 3b 24 c0 34 a3 1a c0
       0.20452309 0.1299374 -2.5661438 -2.4162111
0002d0 21 a4 68 3f 2f 63 5b 3f 31 e8 c5 be 9b 57 09 3e
       0.9087544 0.8569822 -0.3865371 0.13412325
0002e0 2a 03 58 3e e0 78 73 3f 1a 92 5a 3f 0d ce 43 3f
       0.21094957 0.95106316 0.85379183 0.76486284
0002f0 be 06 8a bf dd a3 04 c0 3f 3e 05 c0 7e 05 54 3f
       -1.0783308 -2.0725014 -2.0819242 0.8282088
000300 5e b2 0a c0 4a ce a2 bf 66 64 04 3f 25 45 7a 3e
       -2.1671367 -1.2719204 0.51715696 0.24440439
000310 4b 19 ba be 3c 1a 01 3e b4 6b b3 bf 6b 81 11 3f
       -0.36347422 0.12607664 -1.4017243 0.568381
000320 39 59 a8 be 0b aa ad 3e 5e 20 c8 3e 71 84 35 3f
       -0.3288057 0.33918795 0.39087194 0.70905215
000330 56 6d e1 3d ee 51 98 3e 3f 6d 8c be 47 f9 0a 3f
       0.11007182 0.29750007 -0.27427098 0.5428662
000340 0e de c4 3c b4 a6 da 3d 0f 4b c0 bf 42 d4 1e 3f
       0.024031665 0.10676327 -1.5022906 0.6204263
000350 94 d1 f8 3e fd 01 36 be 2c f9 3a 3f 80 f4 df bc
       0.48597395 -0.17774196 0.73036456 -0.027338266
000360 ec c1 1a bf 3c 5e b6 3e 3f 59 f0 bf c1 a1 54 3e
       -0.6045215 0.3561877 -1.8777236 0.20764829
000370 11 42 61 3e 6e 17 66 bf c7 5c c4 3e 39 37 66 3f
       0.21997859 -0.898795 0.38352033 0.89928013
000380 4b 63 6b bd 03 68 a5 be da 81 cf bd be 69 db be
       -0.05746774 -0.32305917 -0.10132189 -0.42854112
000390 c8 20 1a 3f 09 af b3 3e 1b c6 7c 3e 3d ac 87 3f
       0.6020627 0.3509448 0.24684946 1.0599438
0003a0 6a 88 00 bf b2 d8 68 3e 7e 15 8f 3e ef 93 09 be
       -0.5020815 0.22738913 0.27946085 -0.13435338
0003b0 f0 22 69 be 17 d4 5b bd f8 4f 19 c0 d4 c4 24 3f
       -0.22767234 -0.05366906 -2.395506 0.64362836
0003c0 f5 fa 32 3f db 11 a8 3d e8 c2 0f 3d 0d e1 18 c0
       0.6991418 0.08206531 0.035097986 -2.388736
0003d0 13 6d 48 bf 24 d1 93 bd 83 70 de bf dd 4a 48 3e
       -0.78291434 -0.07217625 -1.7378086 0.19559808
0003e0 22 7a 16 bf 45 dc e6 3e dd b4 cc bf bc 83 09 bf
       -0.5878011 0.45089927 -1.5992695 -0.53716636
0003f0 ee 20 c4 3e ea 7b 06 c0 8b 0e 14 bf 2f 13 34 3e
       0.38306373 -2.101313 -0.5783469 0.17585443
