Python/SpeechRecognition/asr_nlp_main_sr_eval/models/taskClassifierPhonWordEmbeddingRNN.tflite (tflite, 634580 bytes, 13 tensors)

sequential_1/dense_1/BiasAdd/ReadVariableOp f4 [8]
0	0x3f18cf54	0.5969136
1	0xbead1189	-0.3380244
2	0x3e4caac6	0.1998702
3	0x3d8cbd63	0.0687206
4	0x3fe6d055	1.8032328
5	0x3f1b0bbc	0.6056478
6	0x3fb05343	1.377541
7	0x3fc00d99	1.500415

sequential_1/dense_2/BiasAdd/ReadVariableOp f4 [6]
0	0x3e9fac50	0.31186152
1	0xbf1afba5	-0.6054023
2	0x3fa49e44	1.2860799
3	0xbf2dbf2f	-0.6786985
4	0x3eb82a4e	0.35969776
5	0xbf8310fe	-1.0239561

sequential_1/first/embedding_lookup/523016 f4 [12508, 12]
0	0x3cc582a8	0.024110153
1	0xbcb05f94	-0.02152995
2	0xbd855587	-0.06510454
3	0xbe0b44d1	-0.1360047
4	0x3c88d098	0.016701028
5	0xbbce7201	-0.0063002114
6	0x3b2c33ab	0.0026275914
7	0x3d0a8e0e	0.03382688
8	0xbbc1f0ba	-0.0059185894
9	0x3c8c2456	0.01710717
10	0xbd1d03e3	-0.038333785
11	0x3cb4d0a4	0.022072144
12	0xbd0384fb	-0.032109242
13	0x3b01f0d0	0.0019827373
14	0x3c76d07f	0.015064358
15	0xbc8e5750	-0.017375618
16	0x3c21c2aa	0.009873072
17	0x3ceb4875	0.028721074
18	0xbb82f6ec	-0.0039967205
19	0xbbac6008	-0.0052604713
20	0x3c26dd57	0.0101846075
21	0xbc7fbe96	-0.015609404
22	0xbc9d982a	-0.019237597
23	0xbc768919	-0.015047335
24	0x3ceb4615	0.028719941
25	0xbcfd567d	-0.03092503
26	0x3cf2051f	0.029543458
27	0xbd33c648	-0.043890268
28	0x3d76c626	0.060247563
29	0x3d8655a9	0.06559307
30	0xbc897d0e	-0.016783264
31	0xbc4dfd77	-0.012572638
32	0x3bb10dd4	0.00540326
33	0x3c730ea3	0.014835033
34	0xbcb07ce2	-0.021543924
35	0xbc122cda	-0.008921826
36	0xbab4b2cf	-0.0013786199
37	0x3d1c04d7	0.038090553
38	0xbd0f3ef3	-0.034972142
39	0x3b9df882	0.004820884
40	0x3cba5842	0.022747163
41	0x3c55420a	0.013016233
42	0xbd174d60	-0.036939025
43	0xbdc7fe38	-0.09765285
44	0xbc21f2f7	-0.0098845875
45	0x3c86d47b	0.01645874
46	0x3c5104b5	0.01275747
47	0x3ce08ca4	0.027410813
48	0xba9188cc	-0.0011103391
49	0xbca992fa	-0.020699967
50	0x3bae121a	0.0053122165
51	0xbca999fc	-0.020703308
52	0xbba5bd43	-0.005057962
53	0xbb172f3f	-0.0023068932
54	0xbcfbd06b	-0.03073903
55	0x3c8ee017	0.017440839
56	0xbcc8e94d	-0.024525309
57	0xbc07c7ab	-0.008287351
58	0xbca95aa8	-0.020673111
59	0xbc53944f	-0.0129137775
60	0xbb4781ff	-0.0030442474
61	0x3cfce13f	0.030869124
62	0xbd7dd875	-0.061974008
63	0x3b579f6a	0.0032901415
64	0x3847932a	4.7582354e-05
65	0x3cfab335	0.03060303
66	0xbab0b3d1	-0.0013481324
67	0xbd240554	-0.040044144
68	0xbc99616e	-0.018723216
69	0x3d5d433f	0.05401921
70	0xbcf7d3f1	-0.030252429
71	0xbade4920	-0.0016959049
72	0xbcd1e6c2	-0.02562273
73	0xbcc176e5	-0.023616264
74	0xbab4f33d	-0.0013805401
75	0x3cc08112	0.023499046
76	0x3ccdd216	0.02512459
77	0x3cc4de69	0.024031835
78	0x3c5b3b69	0.013380864
79	0x3d42735b	0.047473293
80	0xbd198de4	-0.037488833
81	0xbb67b252	-0.003535409
82	0xbc4061cb	-0.011742066
83	0xbc9f6426	-0.019456934
84	0x3c0288ec	0.007967215
85	0xbd6da205	-0.058015842
86	0xba6fc391	-0.0009146268
87	0xbb2e247e	-0.0026572044
88	0x3ba8e1b3	0.0051538586
89	0x3d87b51a	0.06626339
90	0xbb269900	-0.0025420785
91	0x3d0dbcca	0.03460387
92	0xbd4ea5b4	-0.050450996
93	0x3bfbccd4	0.0076843295
94	0xbce442b9	-0.027863847
95	0xbb95619c	-0.004558755
96	0x3ca5fedf	0.020263134
97	0xbb9a5c36	-0.0047106994
98	0x3c5458b7	0.012960604
99	0x3c276de8	0.010219075
100	0xbd0060eb	-0.03134243
101	0x3c81b5d6	0.015833776
102	0xbc9f9b0f	-0.019483117
103	0xbbb7d9f8	-0.0056107007
104	0xbc42cff9	-0.011890405
105	0xbd4952b7	-0.04915115
106	0xb9b6fb59	-0.00034901014
107	0x3d0e1356	0.03468641
108	0x3d58ac20	0.052898526
109	0xbd33b0f7	-0.04386994
110	0x3c98003b	0.018554797
111	0xbd2dc37f	-0.042422768
112	0x3cfcb7ec	0.03084942
113	0xbd4126cd	-0.047156144
114	0x3c737ac1	0.01486081
115	0x3d2f45a0	0.04279101
116	0xbbea83a1	-0.0071568047
117	0x3cf4ad35	0.029867748
118	0x3d4868ec	0.048928186
119	0xbcf7b70b	-0.030238649
120	0xbb387c67	-0.0028150321
121	0xbc1dfd67	-0.009642935
122	0x3d708f03	0.058730137
123	0x3b838fcb	0.004014944
124	0x3c2d311d	0.010570792
125	0x3c1a5793	0.009420293
126	0xba6f28a8	-0.0009123185
127	0x3c2ad49a	0.010426665
128	0xbd6842bd	-0.05670427
129	0xbcef82b4	-0.029237129
130	0x3c3dd496	0.011586329
131	0xbcee75a9	-0.02910884
132	0x3c99afe0	0.018760622
133	0x3cdc1bb2	0.026868675
134	0xbc5dbefa	-0.013534302
135	0x3ce7762c	0.02825459
136	0xbbcece02	-0.006311179
137	0xbb1dd35e	-0.0024082283
138	0xbb06960f	-0.002053622
139	0xbc6392d6	-0.013889989
140	0xbcd92b97	-0.026510043
141	0x3cbd9fde	0.02314752
142	0x3cc5332a	0.024072248
143	0x3aeef668	0.0018231394
144	0xbc3d7322	-0.011563094
145	0xbc94d0c7	-0.018165959
146	0x3b0cd02c	0.0021486385
147	0xbd6b380c	-0.057426497
148	0x3ca54557	0.020174665
149	0x3bbe0ec3	0.0058000996
150	0x3c316ef2	0.010829674
151	0xbc854dca	-0.016272444
152	0xbc1efd21	-0.009703905
153	0xbc04f2ff	-0.008114575
154	0x3bdc34df	0.00672017
155	0xbb1e9ad3	-0.002420117
156	0x3b33379d	0.002734638
157	0x3cc19038	0.02362834
158	0xbcb35483	-0.021890884
159	0x3d0faddb	0.03507791
160	0xbc743c96	-0.014907023
161	0xbd42e93e	-0.04758572
162	0x3da1b9c3	0.07896759
163	0xba50aaab	-0.0007960002
164	0xba9ddd92	-0.0012044183
165	0xbd81810d	-0.063234426
166	0x3c7f1f1f	0.015571385
167	0x3d44348e	0.047901683
168	0xbcc4ce60	-0.024024189
169	0x3c824028	0.015899733
170	0xbd3d7e01	-0.046262745
171	0xbd9b06e0	-0.07569671
172	0xbd75d9a8	-0.060022026
173	0xbc6fe872	-0.014642822
174	0x3c914736	0.017734151
175	0x3da25226	0.07925825
176	0xbd242a3b	-0.040079337
177	0xbd2f0a0b	-0.042734187
178	0xbd0c7846	-0.03429439
179	0xbcc240b4	-0.023712493
180	0xbc55a23f	-0.013039171
181	0xbd22dda9	-0.039762173
182	0xbccaa14c	-0.024735115
183	0xbcefa434	-0.029253103
184	0x3d1f912b	0.038956802
185	0x3c2b38a5	0.010450517
186	0xbc939254	-0.01801411
187	0x3d1bb911	0.03801829
188	0xbb379fd6	-0.0028018854
189	0xbc24b916	-0.010053894
190	0x3c1c20fe	0.00952935
191	0x3d455aed	0.048182417
192	0x3d5024f4	0.05081649
193	0x3b8cb596	0.0042941077
194	0x3d2bca86	0.04194119
195	0xbd2d2398	-0.042270273
196	0xbd8ecc0f	-0.06972515
197	0x3d83d6d3	0.06437459
198	0x3d8e0a88	0.069356024
199	0xb9ff3a88	-0.00048681
200	0xbcd9df91	-0.026595863
201	0xbcc029c3	-0.023457414
202	0xbd15ad9d	-0.036542524
203	0x3c90bf03	0.017669206
204	0x3ccb8740	0.024844766
205	0x3d03509a	0.03205929
206	0xbc963b04	-0.018338688
207	0x3d976470	0.07392204
208	0xba568b2f	-0.0008184192
209	0xbda59606	-0.08085255
210	0xbc586057	-0.013206563
211	0x3c3a9c0a	0.011389742
212	0xbd1a2fb5	-0.037643153
213	0xbb140a36	-0.0022589094
214	0x3c1c9bba	0.0095586125
215	0x3d0bb49c	0.03410779
216	0x3cc419a8	0.023938015
217	0xbcc4e0d5	-0.02403299
218	0xbd384875	-0.044990975
219	0xbc86e37d	-0.016465897
220	0xbce2f5be	-0.02770507
221	0xbd860b5b	-0.06545135
222	0xbd34d380	-0.044147015
223	0x3bcfa9b4	0.006337369
224	0x3b5ac6a6	0.0033382564
225	0x3d506c62	0.050884612
226	0x3cc8059f	0.024416743
227	0xbd3438b8	-0.043999404
228	0x3ce5d594	0.028055944
229	0xbc91e003	-0.017807012
230	0x3bef6c00	0.007306576
231	0x3bc6ebe0	0.006070599
232	0xbc15c468	-0.009141065
233	0x3bbd229e	0.005771949
234	0x3c311a6a	0.01080952
235	0xbd8bd6c0	-0.0682807
236	0xbc6694d9	-0.014073574
237	0xbd403148	-0.046922
238	0x3c2eebb1	0.01067631
239	0x3d2807b8	0.041022986
240	0x3dd7274e	0.10505544
241	0xbd2fac48	-0.04288891
242	0xbc998767	-0.018741323
243	0xbc052e8b	-0.0081287725
244	0xbb7c9d32	-0.0038545844
245	0xbd200f8e	-0.039077334
246	0xbd61313a	-0.054978587
247	0xbce81a78	-0.028332934
248	0xbc0aeb87	-0.008479006
249	0xbd25129e	-0.040300958
250	0x3cbb584c	0.022869252
251	0xbdabf11f	-0.083955996
252	0xbc842ff8	-0.016136155
253	0x3cb6af65	0.022300432
254	0x3c45b20b	0.0120663745
255	0xbc647fd2	-0.01394649

sequential_1/simple_rnn/zeros f4 [1, 12]
0	0x00000000	0.0
1	0x00000000	0.0
2	0x00000000	0.0
3	0x00000000	0.0
4	0x00000000	0.0
5	0x00000000	0.0
6	0x00000000	0.0
7	0x00000000	0.0
8	0x00000000	0.0
9	0x00000000	0.0
10	0x00000000	0.0
11	0x00000000	0.0

sequential_1/simple_rnn/simple_rnn_cell/BiasAdd/ReadVariableOp/resource f4 [12]
0	0xba6b21df	-0.0008969586
1	0x3d3213f5	0.043476064
2	0x3ac410b9	0.0014958597
3	0x3cfbdc13	0.030744588
4	0x3d5e742a	0.05431
5	0x3c3d907e	0.011570094
6	0x3a81564b	0.0009867636
7	0xbbc44ade	-0.00599037
8	0xbc0dd095	-0.008655687
9	0xbd58dc9b	-0.05294476
10	0xba0e4f2e	-0.0005428669
11	0x3d49508e	0.04914909

sequential_1/simple_rnn/TensorArrayV2_1 f4 [25, 1, 12]
0	0x00000000	0.0
1	0x00000000	0.0
2	0x00000000	0.0
3	0x00000000	0.0
4	0x00000000	0.0
5	0x00000000	0.0
6	0x00000000	0.0
7	0x00000000	0.0
8	0x00000000	0.0
9	0x00000000	0.0
10	0x00000000	0.0
11	0x00000000	0.0
12	0x00000000	0.0
13	0x00000000	0.0
14	0x00000000	0.0
15	0x00000000	0.0
16	0x00000000	0.0
17	0x00000000	0.0
18	0x00000000	0.0
19	0x00000000	0.0
20	0x00000000	0.0
21	0x00000000	0.0
22	0x00000000	0.0
23	0x00000000	0.0
24	0x00000000	0.0
25	0x00000000	0.0
26	0x00000000	0.0
27	0x00000000	0.0
28	0x00000000	0.0
29	0x00000000	0.0
30	0x00000000	0.0
31	0x00000000	0.0
32	0x00000000	0.0
33	0x00000000	0.0
34	0x00000000	0.0
35	0x00000000	0.0
36	0x00000000	0.0
37	0x00000000	0.0
38	0x00000000	0.0
39	0x00000000	0.0
40	0x00000000	0.0
41	0x00000000	0.0
42	0x00000000	0.0
43	0x00000000	0.0
44	0x00000000	0.0
45	0x00000000	0.0
46	0x00000000	0.0
47	0x00000000	0.0
48	0x00000000	0.0
49	0x00000000	0.0
50	0x00000000	0.0
51	0x00000000	0.0
52	0x00000000	0.0
53	0x00000000	0.0
54	0x00000000	0.0
55	0x00000000	0.0
56	0x00000000	0.0
57	0x00000000	0.0
58	0x00000000	0.0
59	0x00000000	0.0
60	0x00000000	0.0
61	0x00000000	0.0
62	0x00000000	0.0
63	0x00000000	0.0
64	0x00000000	0.0
65	0x00000000	0.0
66	0x00000000	0.0
67	0x00000000	0.0
68	0x00000000	0.0
69	0x00000000	0.0
70	0x00000000	0.0
71	0x00000000	0.0
72	0x00000000	0.0
73	0x00000000	0.0
74	0x00000000	0.0
75	0x00000000	0.0
76	0x00000000	0.0
77	0x00000000	0.0
78	0x00000000	0.0
79	0x00000000	0.0
80	0x00000000	0.0
81	0x00000000	0.0
82	0x00000000	0.0
83	0x00000000	0.0
84	0x00000000	0.0
85	0x00000000	0.0
86	0x00000000	0.0
87	0x00000000	0.0
88	0x00000000	0.0
89	0x00000000	0.0
90	0x00000000	0.0
91	0x00000000	0.0
92	0x00000000	0.0
93	0x00000000	0.0
94	0x00000000	0.0
95	0x00000000	0.0
96	0x00000000	0.0
97	0x00000000	0.0
98	0x00000000	0.0
99	0x00000000	0.0
100	0x00000000	0.0
101	0x00000000	0.0
102	0x00000000	0.0
103	0x00000000	0.0
104	0x00000000	0.0
105	0x00000000	0.0
106	0x00000000	0.0
107	0x00000000	0.0
108	0x00000000	0.0
109	0x00000000	0.0
110	0x00000000	0.0
111	0x00000000	0.0
112	0x00000000	0.0
113	0x00000000	0.0
114	0x00000000	0.0
115	0x00000000	0.0
116	0x00000000	0.0
117	0x00000000	0.0
118	0x00000000	0.0
119	0x00000000	0.0
120	0x00000000	0.0
121	0x00000000	0.0
122	0x00000000	0.0
123	0x00000000	0.0
124	0x00000000	0.0
125	0x00000000	0.0
126	0x00000000	0.0
127	0x00000000	0.0
128	0x00000000	0.0
129	0x00000000	0.0
130	0x00000000	0.0
131	0x00000000	0.0
132	0x00000000	0.0
133	0x00000000	0.0
134	0x00000000	0.0
135	0x00000000	0.0
136	0x00000000	0.0
137	0x00000000	0.0
138	0x00000000	0.0
139	0x00000000	0.0
140	0x00000000	0.0
141	0x00000000	0.0
142	0x00000000	0.0
143	0x00000000	0.0
144	0x00000000	0.0
145	0x00000000	0.0
146	0x00000000	0.0
147	0x00000000	0.0
148	0x00000000	0.0
149	0x00000000	0.0
150	0x00000000	0.0
151	0x00000000	0.0
152	0x00000000	0.0
153	0x00000000	0.0
154	0x00000000	0.0
155	0x00000000	0.0
156	0x00000000	0.0
157	0x00000000	0.0
158	0x00000000	0.0
159	0x00000000	0.0
160	0x00000000	0.0
161	0x00000000	0.0
162	0x00000000	0.0
163	0x00000000	0.0
164	0x00000000	0.0
165	0x00000000	0.0
166	0x00000000	0.0
167	0x00000000	0.0
168	0x00000000	0.0
169	0x00000000	0.0
170	0x00000000	0.0
171	0x00000000	0.0
172	0x00000000	0.0
173	0x00000000	0.0
174	0x00000000	0.0
175	0x00000000	0.0
176	0x00000000	0.0
177	0x00000000	0.0
178	0x00000000	0.0
179	0x00000000	0.0
180	0x00000000	0.0
181	0x00000000	0.0
182	0x00000000	0.0
183	0x00000000	0.0
184	0x00000000	0.0
185	0x00000000	0.0
186	0x00000000	0.0
187	0x00000000	0.0
188	0x00000000	0.0
189	0x00000000	0.0
190	0x00000000	0.0
191	0x00000000	0.0
192	0x00000000	0.0
193	0x00000000	0.0
194	0x00000000	0.0
195	0x00000000	0.0
196	0x00000000	0.0
197	0x00000000	0.0
198	0x00000000	0.0
199	0x00000000	0.0
200	0x00000000	0.0
201	0x00000000	0.0
202	0x00000000	0.0
203	0x00000000	0.0
204	0x00000000	0.0
205	0x00000000	0.0
206	0x00000000	0.0
207	0x00000000	0.0
208	0x00000000	0.0
209	0x00000000	0.0
210	0x00000000	0.0
211	0x00000000	0.0
212	0x00000000	0.0
213	0x00000000	0.0
214	0x00000000	0.0
215	0x00000000	0.0
216	0x00000000	0.0
217	0x00000000	0.0
218	0x00000000	0.0
219	0x00000000	0.0
220	0x00000000	0.0
221	0x00000000	0.0
222	0x00000000	0.0
223	0x00000000	0.0
224	0x00000000	0.0
225	0x00000000	0.0
226	0x00000000	0.0
227	0x00000000	0.0
228	0x00000000	0.0
229	0x00000000	0.0
230	0x00000000	0.0
231	0x00000000	0.0
232	0x00000000	0.0
233	0x00000000	0.0
234	0x00000000	0.0
235	0x00000000	0.0
236	0x00000000	0.0
237	0x00000000	0.0
238	0x00000000	0.0
239	0x00000000	0.0
240	0x00000000	0.0
241	0x00000000	0.0
242	0x00000000	0.0
243	0x00000000	0.0
244	0x00000000	0.0
245	0x00000000	0.0
246	0x00000000	0.0
247	0x00000000	0.0
248	0x00000000	0.0
249	0x00000000	0.0
250	0x00000000	0.0
251	0x00000000	0.0
252	0x00000000	0.0
253	0x00000000	0.0
254	0x00000000	0.0
255	0x00000000	0.0

sequential_1/simple_rnn_1/simple_rnn_cell_1/BiasAdd/ReadVariableOp/resource f4 [8]
0	0x3e1ded22	0.1542249
1	0xbe344178	-0.176031
2	0x3e9f0943	0.31061754
3	0x3c768864	0.0150471665
4	0xbb95ad50	-0.0045677796
5	0x3e99cdb6	0.30039757
6	0x3d831285	0.06400017
7	0x3df9630c	0.12177095

simple_rnn_cell/MatMul_1 f4 [12, 12]
0	0xbeed017c	-0.46290195
1	0xbf2bb105	-0.67066985
2	0xbe49c72a	-0.19704881
3	0xbca11d1c	-0.0196672
4	0xbd99828f	-0.07495605
5	0xbda51ac6	-0.08061747
6	0x3e3f8fce	0.18707201
7	0xbedd278e	-0.4319424
8	0xbea6ba1e	-0.3256387
9	0x3ed41171	0.41419557
10	0xbea5e3ae	-0.32400268
11	0xbe14a834	-0.1451729
12	0x3ec16d10	0.3777852
13	0xbe83de38	-0.25755477
14	0x3dd71465	0.10501937
15	0xbe0559a7	-0.13022481
16	0xbea49540	-0.3214512
17	0xbe85b0d6	-0.26111478
18	0x3ed6c5ec	0.41947877
19	0x3ec9e89e	0.39435285
20	0x3f19f0e2	0.60133183
21	0x3eb6c25e	0.35695165
22	0x3de861fd	0.11346815
23	0x3e7529dd	0.23941751
24	0xbea07cff	-0.31345364
25	0x3d90b449	0.07065637
26	0x3f0e3e89	0.5556417
27	0x3d8d7145	0.0690637
28	0x3e6639c4	0.22482973
29	0xbf07e24f	-0.53079695
30	0x3de4f2a8	0.111790955
31	0x3e66ea42	0.225503
32	0xbf06666f	-0.5250005
33	0x3edc7f89	0.43066052
34	0x3db514da	0.08841868
35	0x3e6762de	0.22596309
36	0x3f0da055	0.5532277
37	0xbd14e6aa	-0.03635279
38	0x3c9b2abc	0.018941276
39	0x3e71ba5c	0.23606247
40	0xbf321df3	-0.6957695
41	0xbd012d36	-0.031537257
42	0x3dad1ad7	0.08452385
43	0xbead4cd1	-0.3384767
44	0xbed4f439	-0.41592577
45	0x3e24a51f	0.16078614
46	0x3f1f91a1	0.6233159
47	0x3da170d8	0.07882851
48	0xbe5e13b1	-0.21687199
49	0x3eae9f11	0.34105733
50	0x3e84d5fa	0.259445
51	0x3e613f82	0.21996883
52	0xbd04aa02	-0.032388695
53	0xbd9a7f3d	-0.075438
54	0xbef1fa28	-0.47261167
55	0xbf1538d5	-0.58289844
56	0x3f0a590c	0.54042125
57	0x3e65c3c4	0.2243796
58	0x3d2a729e	0.041613214
59	0x3edf23f0	0.43582106
60	0x3f2a63b4	0.66558385
61	0xbdea0515	-0.114267506
62	0xbedc7a8c	-0.43062246
63	0x3ea5d6db	0.32390484
64	0x3ed3dfdd	0.41381732
65	0xbe0844ca	-0.13307491
66	0xbedf6359	-0.43630484
67	0x3d65d87a	0.05611465
68	0xbe02ad17	-0.12761341
69	0x3ea36af6	0.31917542
70	0xbe35b5ff	-0.17745207
71	0x3da23789	0.07920749
72	0xbddccd6f	-0.10781371
73	0xbeed8480	-0.46390152
74	0x3e7c7af0	0.24656272
75	0x3f0f0ea3	0.5588171
76	0xbe2cd9ea	-0.16880003
77	0xbe6c0d43	-0.23051934
78	0xbea5f88e	-0.32416195
79	0x3e86fc96	0.26364583
80	0x3dcc0a3e	0.09962891
81	0xbf15445d	-0.5830744
82	0x3d046067	0.0323185
83	0xbea9196e	-0.33027214
84	0xbec85908	-0.39130425
85	0x3e59a23d	0.21253295
86	0xbf0ca9aa	-0.54946387
87	0x3f18aec8	0.59641695
88	0xbe1b7a98	-0.15183485
89	0x3e8dd675	0.2770268
90	0x3e2df6ec	0.16988724
91	0x3eab0b32	0.3340698
92	0xbe4fcf85	-0.20294006
93	0xbdcf5c31	-0.10125006
94	0xbea56f94	-0.3231169
95	0x3f27b9bf	0.655178
96	0xbe942dd1	-0.28941205
97	0x3d52865d	0.05139767
98	0xbe5f009c	-0.21777576
99	0xbe95dc91	-0.2926984
100	0xbe68ecad	-0.22746535
101	0x3e60a378	0.21937358
102	0xbf24331a	-0.64140475
103	0x3f0d1bfc	0.55120826
104	0xbabc8f83	-0.0014386032
105	0x3ed9a1b4	0.42506182
106	0x3e2495d4	0.1607278
107	0xbe50929d	-0.20368429
108	0x3e3a4358	0.18189752
109	0xbf04b6ac	-0.51841235
110	0x3b1f2630	0.0024284236
111	0xbf17c6bb	-0.59287614
112	0xbd5c6fbe	-0.053817503
113	0x3d2a53fa	0.041583993
114	0xbe9f8831	-0.31158593
115	0x3c19c108	0.009384401
116	0xbdc162b4	-0.09442654
117	0xbea7e109	-0.32788876
118	0xbdaab6da	-0.083356574
119	0x3f3e54da	0.74348223
120	0x3df0f605	0.117656745
121	0xbe8e9eb7	-0.27855465
122	0x3f114a41	0.5675393
123	0x3eadc719	0.33940962
124	0x3daa03ec	0.08301529
125	0x3f6aef05	0.91770965
126	0xbdbb50e3	-0.09146287
127	0x3d4605c1	0.04834533
128	0xbd38992a	-0.045067944
129	0x3eab4646	0.33452052
130	0xbde4ff06	-0.11181454
131	0x3cc0d946	0.023541104
132	0x3e6ff5bb	0.23433582
133	0x3e87202d	0.26391736
134	0x3ea0f332	0.31435543
135	0xbe2f8c73	-0.17143421
136	0xbf302aed	-0.688155
137	0xbe5110f7	-0.20416628
138	0xbccbcf5c	-0.02487915
139	0xbcfe9649	-0.03107752
140	0xbdac5445	-0.08414511
141	0x3dda9c02	0.106742874
142	0xbf6ccb1b	-0.92497414
143	0xbdee4f8a	-0.116362646

simple_rnn_cell/MatMul f4 [12, 12]
0	0x3ddeae83	0.10873129
1	0x3f1dad22	0.61592305
2	0x3ef70dd4	0.48252738
3	0x3f11c0dc	0.56934905
4	0xbe941b9b	-0.2892731
5	0xbe864468	-0.26224065
6	0xbddf03ce	-0.108893976
7	0xbf00f04c	-0.50366664
8	0xbcaf1665	-0.021372983
9	0x3d7a5558	0.061116546
10	0x3e512118	0.2042278
11	0x3d05bd3f	0.032651182
12	0x3ee5fd26	0.449197
13	0x3eaf1a96	0.3419997
14	0xbe0f19d9	-0.13974704
15	0xbcae155e	-0.021250423
16	0x3ed141e1	0.40870574
17	0xbe89f2c6	-0.26943034
18	0x3ecb9369	0.39760903
19	0xbe75e7da	-0.24014226
20	0xbeed881f	-0.46392915
21	0xbe0e6a66	-0.13907775
22	0xbdcf4ab7	-0.101216726
23	0xbf1683b8	-0.58794737
24	0x3d9b7ae0	0.07591796
25	0xbdaa7a1d	-0.083240725
26	0x3e14e7e5	0.14541586
27	0xbed83d0b	-0.42234072
28	0x3d9dc52a	0.07703622
29	0x3ec3b96e	0.3822741
30	0x3f03af39	0.51439244
31	0x3e38da4c	0.18052024
32	0x3f098ac9	0.53727394
33	0x3eb8a910	0.36066484
34	0x3ec50cca	0.3848632
35	0xbdda9814	-0.10673538
36	0xbeb78ed1	-0.35851148
37	0x3ece629b	0.40309605
38	0x3cda3d59	0.026640581
39	0x3e8067ab	0.25079092
40	0x3e3599cb	0.17734449
41	0xbdb16451	-0.08661712
42	0x3e9fdb73	0.31222114
43	0xbef1ee71	-0.4725223
44	0xbe8ee22a	-0.27906924
45	0x3ec9adfc	0.39390552
46	0xbef538d1	-0.4789491
47	0x3e1440d0	0.14477849
48	0xbe5ff549	-0.21870913
49	0xbe8b516f	-0.27210566
50	0x3ead6032	0.33862454
51	0x3e4a6ea8	0.19768775
52	0x3e5c66e2	0.21523622
53	0xbedbb35c	-0.42910278
54	0xbea8945f	-0.32925698
55	0xbe5c8fe2	-0.21539262
56	0x3eb5fbbd	0.35543624
57	0x3e060745	0.1308871
58	0x3f042a34	0.51626897
59	0xbeed1da0	-0.46311665
60	0xbe633bd1	-0.22190787
61	0x3e53da45	0.20688732
62	0xbebd6cac	-0.36996973
63	0xbeafa5c1	-0.34306148
64	0xbebb1dc4	-0.36546147
65	0xbea4815a	-0.32129937
66	0x3eb5c02f	0.35498187
67	0x3cfc7262	0.03081626
68	0x3e850b52	0.259852
69	0xbeba0ff9	-0.3634031
70	0x3f0749f3	0.5284721
71	0xbec87ee1	-0.391593
72	0x3c8d571e	0.017253455
73	0xbf0714fe	-0.52766407
74	0x3dcdb6eb	0.100446545
75	0x3e839eb2	0.25707012
76	0xbea2cc80	-0.31796646
77	0xbdb75446	-0.08951621
78	0xbe9825ee	-0.29716438
79	0xbec6ad40	-0.38804054
80	0xbcb8e4ce	-0.02257004
81	0x3e7e311a	0.24823418
82	0xbe929c7b	-0.2863501
83	0x3e2027a3	0.1564012
84	0x3e4bc5eb	0.19899718
85	0x3ee1f595	0.44132677
86	0xbdac49d3	-0.08412518
87	0x3eac1ba8	0.3361485
88	0xbe7033d4	-0.23457271
89	0x3edff812	0.4374395
90	0xbed12408	-0.40847802
91	0xbd02d74e	-0.03194361
92	0x3e7c0a0b	0.24613206
93	0x3e6a2d5b	0.22868864
94	0x3eb255e5	0.34831157
95	0xbdac3337	-0.08408206
96	0x3ec62feb	0.38708434
97	0xbdb491ad	-0.08816848
98	0x3e526046	0.20544538
99	0x3dda2b23	0.10652759
100	0xbe538e64	-0.20659786
101	0x3e8562e1	0.26052
102	0x3ead2d2f	0.33823535
103	0x3da827a7	0.08210688
104	0x3e845015	0.25842348
105	0xbe207d02	-0.15672687
106	0x3ec73f41	0.38915446
107	0xbf0ff445	-0.562321
108	0x3e3a4290	0.18189454
109	0x3ecd416a	0.4008897
110	0x3dc09bf8	0.09404749
111	0xbdf933bd	-0.121680714
112	0x3edc08dd	0.42975512
113	0xbe8cfd99	-0.2753723
114	0xbde0a765	-0.10969428
115	0xbd027ef3	-0.03185935
116	0xbeb65419	-0.35611036
117	0xbedd6515	-0.43241182
118	0xbe581005	-0.21099861
119	0x3f19b404	0.6004031
120	0xbe7a582c	-0.24447697
121	0x3e7bc8c5	0.24588306
122	0x3e3860b4	0.1800564
123	0x3cf48032	0.029846285
124	0x3e86c67f	0.26323316
125	0x3e961bed	0.2931818
126	0x3ee3d813	0.4450079
127	0x3e93250d	0.28739205
128	0xbe708774	-0.23489171
129	0xbd8e5cc6	-0.06951289
130	0x3da339dd	0.07970021
131	0x3e76551b	0.24055903
132	0xbe8ecba8	-0.27889752
133	0xbef0aac9	-0.470053
134	0xbd5c5aae	-0.053797416
135	0x3ecf3080	0.4046669
136	0x3ebf7d1c	0.37400138
137	0x3e07a563	0.13246684
138	0x3e08a304	0.13343436
139	0xbf1700d5	-0.58985645
140	0x3e0a5cf4	0.13512021
141	0xbd3620c8	-0.044464856
142	0xbe874a52	-0.2642389
143	0x3e4df2a5	0.20112093

simple_rnn_cell_1/MatMul_1 f4 [8, 8]
0	0x3f6b348a	0.91877043
1	0xbee6c282	-0.45070273
2	0x3eaa1497	0.33218834
3	0xbd4b6591	-0.04965741
4	0xbce656fd	-0.028117651
5	0x3e1f22e3	0.15540652
6	0x3f533f64	0.825186
7	0x3e72787a	0.2367877
8	0x3dce152d	0.10062633
9	0x3f0f86f3	0.5606529
10	0x3c5891e2	0.013218375
11	0xbf0e836a	-0.5566927
12	0xbf00671e	-0.50157344
13	0x3cbd1b6e	0.023084369
14	0xbf810bb7	-1.00817
15	0x3d9307f0	0.07179248
16	0x3f3b2f37	0.7311892
17	0xbdd71b29	-0.10503227
18	0xbe0f6fe0	-0.1400752
19	0x3ec69050	0.38781977
20	0x3db29477	0.08719724
21	0x3e7d6b74	0.24748021
22	0xbd022b2b	-0.03177945
23	0xbf7c8eaa	-0.9865519
24	0x3ee17ae6	0.44039077
25	0xbced4c45	-0.028967032
26	0x3e23a698	0.15981519
27	0x3ea121ac	0.31471002
28	0x3f1bdbc8	0.60882235
29	0xbee04a43	-0.43806657
30	0x3dd41795	0.103560604
31	0x3eb19343	0.34682664
32	0x3e870f29	0.26378754
33	0x3eb0b7f3	0.34515342
34	0x3ed9cd2f	0.42539355
35	0x3f6b523a	0.9192234
36	0xbe0023ea	-0.125137
37	0x3e9ff58f	0.31242034
38	0x3e1ce238	0.1532067
39	0x3f08e27b	0.5347058
40	0x3dc5b05a	0.09652777
41	0xbf494d46	-0.78633535
42	0x3f2e23c2	0.6802331
43	0x3eae0846	0.33990687
44	0xbf1373f3	-0.575988
45	0xbf08962c	-0.53354144
46	0xbece3698	-0.40276027
47	0x3f415876	0.75525606
48	0x3e5a612b	0.21326129
49	0xbf2ff35c	-0.6873071
50	0x3ec6ac15	0.38803163
51	0x3e5e7ebd	0.21728034
52	0x3f1a4178	0.6025615
53	0x3f51130a	0.81669676
54	0x3e8c48ba	0.27399236
55	0x3e2891fe	0.16461942
56	0x3e2710d4	0.16315013
57	0xbea8e0e9	-0.32984093
58	0xbfa84f59	-1.3149215
59	0xbeaeaaed	-0.3411478
60	0xbe0a7eef	-0.13524984
61	0xbd7ab142	-0.061204202
62	0xbc49c236	-0.01231437
63	0x3ef51748	0.47869325

simple_rnn_cell_1/MatMul f4 [8, 12]
0	0xbca118ab	-0.019665083
1	0xbd9ed4c8	-0.077554286
2	0xbd968b3a	-0.07350774
3	0x3e821fe2	0.2541495
4	0x3eccc275	0.3999211
5	0xbe790fe9	-0.24322475
6	0xbe2707a6	-0.16311511
7	0xbeb787a0	-0.3584566
8	0x3f11181e	0.56677425
9	0xbe0e6671	-0.13906266
10	0xbe9dd998	-0.30830073
11	0x3ec891b7	0.39173672
12	0x3e7269d8	0.23673189
13	0x3ef94209	0.48683193
14	0x3e9a9bd1	0.30197003
15	0x3e6cc456	0.23121771
16	0xbe97c5a3	-0.29642972
17	0xbdc56f7a	-0.09640403
18	0x3e5af6e0	0.21383238
19	0x3ed96ceb	0.4246591
20	0x3c8013c2	0.015634421
21	0x3e4d509c	0.20050281
22	0x3f02a8a5	0.5103858
23	0x3ed8a109	0.4231036
24	0xbd443fc7	-0.047912385
25	0xbe862484	-0.26199734
26	0x3f1912f4	0.59794545
27	0xbeb543f2	-0.354034
28	0x3f0846e3	0.53233165
29	0xbd9b2157	-0.075747184
30	0xbf3b4294	-0.73148465
31	0x3eceff3e	0.4042911
32	0x3f0ec8c1	0.55775076
33	0xbef45a92	-0.4772535
34	0xbd900422	-0.07032038
35	0x3e84d8b8	0.25946593
36	0x3c91867e	0.017764326
37	0xbf4a385f	-0.78992265
38	0xbf69e361	-0.9136258
39	0xbf7227d8	-0.94592047
40	0xbf428b8b	-0.75994176
41	0x3f5a79e3	0.85342234
42	0x3e862f27	0.2620785
43	0x3f400989	0.7501455
44	0x3e756696	0.23964915
45	0x3f61bce9	0.8817888
46	0x3efdbaee	0.4955668
47	0xbf66008f	-0.898446
48	0xbf3ee48e	-0.74567497
49	0x3f3070ec	0.68922305
50	0xbf15b1cc	-0.5847442
51	0xbdc6fc2c	-0.09716067
52	0xbe28306c	-0.16424721
53	0xbda672bd	-0.08127353
54	0x3eed1f31	0.4631286
55	0xbf77461b	-0.9659135
56	0x3ee8aede	0.45445913
57	0x3f870c19	1.0550567
58	0x3e3693fb	0.17829888
59	0xbed3013d	-0.41211882
60	0xbf04ba7b	-0.51847047
61	0xbdd41b62	-0.10356785
62	0xbee88a7e	-0.4541816
63	0xbea6f32f	-0.3260741
64	0xbf0bbcd5	-0.5458501
65	0x3ee6a683	0.45048913
66	0x3f7c9178	0.9865947
67	0xbea86de5	-0.32896343
68	0x3f2ed628	0.68295527
69	0x3e37d383	0.17951779
70	0x3eb47a1d	0.35249415
71	0xbf55ea02	-0.8356019
72	0xbef9e21d	-0.48805323
73	0xbe6973d8	-0.22798097
74	0xbf0a6bc0	-0.54070663
75	0x3edba295	0.42897478
76	0xbee2f728	-0.4432919
77	0x3e82a6f0	0.25517988
78	0xbd0bec3c	-0.034160838
79	0xbf4dff45	-0.80467635
80	0x3e96806e	0.2939486
81	0xbdd0007c	-0.101563424
82	0x3ea9e7c1	0.33184627
83	0x3f0259cb	0.50918263
84	0x3c8785e2	0.016543332
85	0xbed19879	-0.4093664
86	0x3d31b2e7	0.043383505
87	0x3e02667c	0.12734407
88	0x3f6090d0	0.87720966
89	0x3ee002a5	0.43752018
90	0x3eb7e02c	0.35913217
91	0x3f3a2dd4	0.7272618
92	0xbeb8755f	-0.36027047
93	0xbf8238cd	-1.0173584
94	0x3e14fb04	0.1454888
95	0x3e0a027e	0.13477513

sequential_1/dense_1/MatMul f4 [8, 8]
0	0x4024022e	2.562633
1	0xbfcc72f7	-1.5972584
2	0x3fb14ba1	1.3851205
3	0x3f438807	0.76379436
4	0x3e8c3547	0.27384397
5	0x3c35179b	0.011052991
6	0x3f3fbd00	0.74897766
7	0xbef6b4f1	-0.48184922
8	0x3e7928fa	0.24332038
9	0xbe902adf	-0.28157708
10	0xbf888cd3	-1.0667976
11	0xbf5a1277	-0.85184425
12	0x405153d4	3.2707415
13	0x3f1a3e1b	0.60251015
14	0x3ec675cd	0.3876175
15	0xc02e0db0	-2.7195854
16	0xbf0213f5	-0.508117
17	0x3ea06115	0.31324068
18	0xbf098d3e	-0.53731143
19	0xbf5ca093	-0.86182517
20	0x40293934	2.6441164
21	0x3f225472	0.63410103
22	0x3f58f7c5	0.84753066
23	0xc0555313	-3.3331954
24	0xbf874663	-1.0568355
25	0x3fb442af	1.408285
26	0xbef88d0b	-0.48545107
27	0xc028b7e7	-2.6362245
28	0x3f96b715	1.1774622
29	0xbff8a11d	-1.9424168
30	0xbf228919	-0.63490444
31	0xc00a96c6	-2.1654525
32	0x3e3b7d79	0.18309583
33	0xbe7bb5c9	-0.24581064
34	0x3fc6c10a	1.5527661
35	0x3db187d4	0.08668485
36	0xbfbd9941	-1.4812394
37	0xbf67a678	-0.90488386
38	0x3f825a3c	1.0183787
39	0x3e630bf9	0.22172536
40	0x3e6aa0c2	0.22912887
41	0x3da6ca84	0.081440955
42	0xbf40b2ad	-0.7527264
43	0x40229dd4	2.540883
44	0x3fb22f34	1.3920655
45	0x4064f2b4	3.5773134
46	0xbfa025a3	-1.2511486
47	0x3e7bbd06	0.24583825
48	0xbfcefba8	-1.6170549
49	0x3f894221	1.0723306
50	0xbe00bc30	-0.12571788
51	0x3f91d6ec	1.1393714
52	0xbf0567f5	-0.5211175
53	0x3fad7036	1.3549869
54	0xc036aefa	-2.8544297
55	0x3f6bc2ef	0.9209432
56	0x3ef0e15c	0.47046936
57	0x3d55269e	0.05203878
58	0xbec6b22a	-0.38807803
59	0xc0286267	-2.631006
60	0xbefc4bb8	-0.4927652
61	0xbf3582ba	-0.709026
62	0xbe2a5897	-0.16635357
63	0x3fc06d71	1.5033399

sequential_1/dense_2/MatMul f4 [6, 8]
0	0xc0a75348	-5.228916
1	0xc0823779	-4.0692716
2	0xc0198c27	-2.3991792
3	0x40254258	2.5821743
4	0x3f797e62	0.9745847
5	0xc0a230d9	-5.068463
6	0x402427ee	2.564937
7	0x3f901fcb	1.1259702
8	0x3f127909	0.57215935
9	0x3fc18655	1.511912
10	0x4012cc36	2.293714
11	0xc091d985	-4.5578027
12	0x3e834cf9	0.25644663
13	0x40558de9	3.3367865
14	0xc068621e	-3.6309886
15	0xc0b72797	-5.7235827
16	0x4018acb9	2.3855422
17	0xc0c11ccf	-6.0347667
18	0xc0b65156	-5.6974287
19	0xc0454f74	-3.0829744
20	0x40113d1a	2.2693543
21	0xc0aa2850	-5.317421
22	0xc0bf9152	-5.9864893
23	0x40301bb1	2.7516901
24	0x3f07e80f	0.5308847
25	0x3f59173e	0.8480109
26	0x3feb073b	1.8361582
27	0x401618fc	2.345275
28	0xbf14feee	-0.5820149
29	0xc0964361	-4.695725
30	0xc0853237	-4.1623797
31	0xbe990c47	-0.2989218
32	0x3ea45eec	0.3210367
33	0xc073d6f4	-3.8099947
34	0xc0877699	-4.2332273
35	0xc0a29931	-5.0812
36	0xbde153e8	-0.11002332
37	0x4075e120	3.8418655
38	0x40362164	2.845788
39	0xbf91a2d0	-1.1377811
40	0xc076ad8b	-3.8543422
41	0x3fad9d97	1.3563718
42	0x3facbe7b	1.349563
43	0x3f628c6c	0.88495517
44	0xc0b7096e	-5.719901
45	0x40151138	2.329176
46	0x3fa7a702	1.3097842
47	0xbdf0edd7	-0.11764114
