Python/SpeechRecognition/asr_nlp_main_sr_eval/models/taskClassifierPhonWordEmbedding.tflite (tflite, 650644 bytes, 5 tensors)

sequential/dense/BiasAdd/ReadVariableOp f4 [300]
-0.04460352 -0.050301604 -0.15234761 -0.05135999 0.15500246 -0.023521986 -0.13198927 -0.033965636
-0.035490446 0.008820692 -0.046477694 -0.1165632 0.04798665 -0.023481254 -0.023474613 -0.035192505
0.074475124 -0.11318 0.071914755 0.044951186 0.11385013 -0.010054491 -0.023804469 -0.11036848
0.031012835 -0.046648446 0.10464963 -0.006221578 -0.07791758 0.030218538 0.118786 0.0082708355
0.12676263 -0.029285418 0.09863453 0.05928197 0.0398133 -0.0578453 0.15512547 0.016638646
-0.038943797 -0.082578145 0.10671383 0.17714094 -0.10463056 0.04372016 -0.14491285 -0.026099691
0.14885475 0.011142108 0.06283197 -0.14719936 0.11505294 0.040472124 0.061396416 0.0227467
-0.06407783 0.10192696 0.000441904 0.057639346 -0.041657735 0.109042205 -0.090940535 0.05732873
0.07927372 -0.056339823 0.08237942 -0.14651275 0.06503514 0.03273812 0.053849462 0.019665414
0.0045725387 0.025978347 -0.051435996 0.05964064 -0.014708588 -0.0076436577 -0.117726035 -0.03262298
-0.0067574657 0.13373896 -0.041165423 -0.10323959 0.17677432 -0.035183698 0.08456526 -0.04276241
0.014352805 0.06118612 -0.084477425 0.013525283 -0.012835523 -0.045177147 0.021623587 0.07864334
0.03571575 -0.028300151 -0.11389191 0.10717616 0.05101797 0.03766546 -0.02399693 0.18251167
0.04004072 -0.15443477 -0.015727812 0.05656654 -0.03197848 -0.019550141 0.017929189 -0.124142446
-0.039453033 0.025127841 -0.08188782 0.13295464 0.04496178 -0.005964112 0.013455348 -0.037667
0.116831675 0.012284805 -0.030301472 0.044320416 -0.011952634 -0.04675107 -0.1345517 -0.029394338
0.12267276 0.120774 -0.14024243 0.10776513 -0.13269812 -0.06616662 0.023093091 0.010051963
0.031818964 0.03554702 -0.057331182 -0.12312033 0.015961887 0.08548017 0.03344397 -0.14127061
0.03223701 0.031255696 -0.10830132 -0.0807374 0.065689914 0.15763111 0.10921182 0.016013196
0.016058194 0.13409102 -0.096723855 0.02232686 0.029942987 -0.08397856 0.00043661645 0.010408532
-0.089460075 0.03576313 0.109536424 0.07577051 -0.028517012 0.044606697 -0.03364434 0.050497346
-0.032660186 -0.0037313837 0.021225635 0.08974186 -0.11044979 0.1963696 -0.031201003 0.13734123
-0.022509344 -0.08843684 0.13337329 0.039938893 0.12637588 0.02951034 0.066465445 -0.087336235
0.08729605 0.13326313 -0.0401331 -0.014971482 0.16196686 -0.01933476 0.008573887 0.18021111
0.085722074 -0.16400787 -0.08124799 -0.0003524815 0.09136577 -0.01588335 0.10185446 0.032855358
-0.04106526 -0.04080103 0.014355991 0.13405855 -0.03496168 0.15671434 -0.041096564 0.047118146
0.120361224 -0.105251856 0.042067446 -0.055268936 -0.04924065 -0.0119405715 -0.021204276 -0.017037548
-0.17440622 0.042413767 0.0069902246 0.0012056293 0.07571436 -0.104465574 0.16063464 -0.09720046
-0.14399138 0.1390397 0.12853739 0.08828781 0.0009491295 -0.05219206 0.08664351 0.012826835
0.07559631 -0.015080323 0.035255972 0.008704418 0.010362008 -0.053358648 0.098674424 -0.0015177184
-0.14974418 -0.116935894 0.10748965 0.0352271 0.1619363 -0.019626938 0.14016065 -0.044614222
0.12568986 0.021132864 -0.04815793 0.1246726 -0.053633437 0.008710398 0.109055184 0.024058506
00000000: 2eb2 36bd 0e09 4ebd 0301 1cbe da5e 52bd
00000010: f7b8 1e3e 2eb1 c0bc 3228 07be 8d1f 0bbd
00000020: 6e5e 11bd aa84 103c 655f 3ebd b0b8 eebd
00000030: a68d 443d c25b c0bc d54d c0bc 0426 10bd
00000040: 6a86 983d eaca e7bd 0b48 933d bc1e 383d
00000050: 422a e93d 98bb 24bc 9701 c3bc df08 e2bd
00000060: a10e fe3c 7112 3fbd 8c52 d63d 61de cbbb
00000070: 4193 9fbd de8c f73c 1346 f33d 6682 073c
00000080: 10ce 013e f9e7 efbc e700 ca3d a7d1 723d
00000090: 4513 233d 31ef 6cbd 36d9 1e3e c54d 883c
000000a0: 8883 1fbd bb1e a9bd c88c da3d 6f64 353e
000000b0: 8c48 d6bd e913 333d 0964 14be 05cf d5bc
000000c0: 616d 183e 638d 363c 0cae 803d 6ebb 16be
000000d0: e0a0 eb3d 19c6 253d cf7a 7b3d 4a57 ba3c
000000e0: 3d3b 83bd 15bf d03d 5aaf e739 3c17 6c3d
000000f0: 4da1 2abd 8551 df3d 083f babd 88d1 6a3d
00000100: 435a a23d 96c4 66bd 8bb6 a83d 7007 16be
00000110: 2531 853d 6818 063d 4191 5c3d 5d19 a13c
00000120: 3cd5 953b 8bd0 d43c 8dae 52bd be49 743d
00000130: 4afc 70bc a677 fabb 591a f1bd ad9f 05bd
00000140: bb6d ddbb def2 083e 139d 28bd 476f d3bd
00000150: 5404 353e c81c 10bd 8d30 ad3d a327 2fbd
00000160: 0728 6b3c 4c9e 7a3d 8002 adbd 2699 5d3c
00000170: 164c 52bc ac0b 39bd f323 b13c c20f a13d
00000180: ae4a 123d b8d5 e7bc 2940 e9bd 2d7f db3d
00000190: 38f8 503d 1947 1a3d 3695 c4bc 57e4 3a3e
000001a0: bd01 243d 2624 1ebe 9dd7 80bc 51b2 673d
000001b0: defb 02bd 9e27 a0bc 3ce0 923c 653e febd
000001c0: 8199 21bd e7d8 cd3c cdb4 a7bd 4325 083e
000001d0: d829 383d 996e c3bb d273 5c3c b648 1abd
000001e0: 7245 ef3d 3546 493c cb3a f8bc 5389 353d
000001f0: fbd4 43bc 0d7e 3fbd ecc7 09be 65cc f0bc
00000200: db3b fb3d 5c58 f73d b69b 0fbe f7b3 dc3d
00000210: 04e2 07be 5d82 87bd b92d bd3c fdb0 243c
00000220: 9a54 023d c199 113d 1ad4 6abd 8326 fcbd
00000230: 81c2 823c 3a10 af3d 8bfc 083d 3ea9 10be
00000240: f40a 043d f905 003d 15cd ddbd a659 a5bd
00000250: 6f88 863d 0d6a 213e 72aa df3d 1b2e 833c
00000260: 798c 833c 284f 093e 2817 c6bd d2e6 b63c
00000270: ff4a f53c f4fc abbd abe9 e439 8c88 2a3c
00000280: d836 b7bd 5c7c 123d a254 e03d 922d 9b3d
00000290: 829c e9bc 83b5 363d a6ce 09bd 4ed6 4e3d
000002a0: b0c6 05bd 3b8a 74bb 62e1 ad3c 95ca b73d
000002b0: 8033 e2bd 1d15 493e 3f99 ffbc 2ea3 0c3e
000002c0: 8465 b8bc 601e b5bd 0293 083e f796 233d
000002d0: ae68 013e abbf f13c 091f 883d 57dd b2bd
000002e0: 45c8 b23d 2176 083e 9b62 24bd f24a 75bc
000002f0: a4da 253e ee63 9ebc 7d79 0c3c 4389 383e
00000300: 0e8f af3d aef1 27be 5965 a6bd 44cd b8b9
00000310: fa1d bb3d cd1d 82bc 1299 d03d 5793 063d
00000320: 0c34 28bd fb1e 27bd 6435 6b3c a546 093e
00000330: fb33 0fbd b979 203e df54 28bd f5fe 403d
00000340: f27f f63d 498e d7bd ea4e 2c3d ae61 62bd
00000350: 90b0 49bd 63a2 43bc 97b4 adbc 5492 8bbc
00000360: 8b97 32be 0fba 2d3d 410e e53b 3506 9e3a
00000370: 2110 9b3d 0cf2 d5bd 687d 243e 0911 c7bd
00000380: 7a72 13be 6c60 0e3e 4e9f 033e 3dd0 b43d
00000390: 01cf 783a 57c7 55bd 2772 b13d a527 523c
000003a0: 3dd2 9a3d 7613 77bc 9168 103d fa9c 0e3c
000003b0: 69c5 293c 998e 5abd d115 ca3d 2eee c6ba
000003c0: 8a56 19be 167c efbd 8923 dc3d 4b4a 103d
000003d0: a1d2 253e acc8 a0bc 4686 0f3e 67bd 36bd
000003e0: d8b4 003e d41e ad3c 4041 45bd 5954 ff3d
000003f0: bcae 5bbd 0fb6 0e3c 5358 df3d 5816 c53c

sequential/first/embedding_lookup/317534 f4 [12508, 8]
0.053477395 -0.0112514235 0.007979006 0.010002085 0.009406134 0.035460472 -0.008480024 -0.027901497
0.022083944 0.045292314 0.007020202 0.019908216 0.0046362476 0.03911674 0.009025451 0.032318052
0.059520505 0.014856215 0.017795289 -0.033352952 0.034231447 0.0305457 0.06270357 0.02642005
-0.020930724 -0.05361277 0.02716952 -0.009368195 0.050088808 -0.029171854 0.032248076 0.028562943
0.09709003 -0.0004460912 0.011656076 0.022464849 -0.021123752 0.036822364 0.055376045 0.046247147
0.0074182367 -0.009209331 0.02252778 0.0009496842 0.016498646 -0.030754365 0.0035494266 0.047663078
-0.01180339 0.047160637 -0.034305643 0.047912735 -0.00486073 0.066350505 -0.042276826 -0.007506104
0.0064417417 0.030921888 -0.01814646 0.08565647 -0.003684543 0.07111751 0.013166084 0.003626276
-0.034105208 0.045198888 -0.03531072 0.036256917 -0.06096434 0.011776518 -0.1308445 0.06407244
0.027001234 0.014986178 0.013271672 -0.014940575 0.002537012 0.015652461 0.017862763 -0.01931739
0.018941907 -0.0018541235 0.04992795 -0.022835976 -0.01480709 -0.003605631 0.033921063 -0.038449988
0.015760299 0.03016711 0.008762855 0.031425778 -0.08023939 0.043167755 -0.025339695 -0.023094691
0.040316183 -0.0034637104 -0.019973127 0.055549826 -0.09814447 -0.038975388 0.066910625 0.057121396
0.01892328 0.012147039 -0.048952997 -0.052741636 -0.004092035 -0.032686576 0.04192489 0.04511797
-0.12881944 0.12993756 0.16822726 0.027743794 0.23522633 -0.02485105 0.07623536 0.037113562
0.04187397 0.056228463 0.10969223 0.03569337 -0.05764127 -0.06928474 -0.10610204 -0.09327763
0.1310823 -0.05913106 0.03548884 -0.00080001156 -0.22993843 -0.025033768 0.07206615 -0.062077243
0.04309767 -0.043021794 -0.050101 0.03358821 -0.19756614 -0.07490866 0.0059858887 -0.026850022
-0.10394352 0.119905576 0.010079957 -0.012443292 0.021328224 0.11361633 -0.020189041 0.13026626
0.04575828 0.075271785 -0.16062354 -0.109738335 0.06196046 -0.0059330766 -0.0040842686 0.032861266
-0.09822031 -0.09423871 -0.12879218 -0.043979175 -0.16400574 -0.060843103 0.068823814 0.011487223
0.022675103 -0.015532794 -0.006189001 0.04247034 -0.035951927 -0.07900517 0.05769639 0.06566997
-0.0064016553 -0.04325245 -0.030470198 -0.038380787 0.031633306 0.06769919 -0.022855507 -0.017130038
0.07260279 -0.0074146697 0.05806596 0.09740524 -0.023189079 0.051178716 -0.012154326 0.051594418
-0.17554975 -0.13354586 -0.2230964 -0.19275333 0.12198868 0.39332387 0.13033676 0.21597403
-0.11618366 -0.1361825 0.11182727 0.07524001 0.11369603 0.08730329 -0.0019350663 0.17246257
-0.050045475 -0.16077426 -0.45143747 0.09442566 -0.19208059 -0.35515547 0.19934353 -0.21458298
0.08838184 -0.10157776 -0.24480036 0.012932318 -0.07805099 -0.089983284 -0.023209669 -0.026850922
0.118701674 0.18655829 0.33391085 -0.3109794 -0.023747182 0.27505103 0.090560846 -0.5880179
0.119299755 0.012069081 -0.00268314 -0.024420029 0.112435274 0.014611059 0.028654676 -0.011764517
-0.020655919 0.3726423 -0.09358148 0.22397067 0.432718 -0.11140418 0.014163042 0.7155723
0.13668455 -0.25335315 -0.16034871 0.35886577 0.39658386 0.13092412 -0.17173041 0.015657986
00000000: 1d0b 5b3d e457 38bc 60ba 023c c9df 233c
00000010: 2f1c 1a3c 003f 113d ccef 0abc ae91 e4bc
00000020: 63e9 b43c 6f84 393d b909 e63b 8e16 a33c
00000030: aaeb 973b e038 203d 7cdf 133c ef5f 043d
00000040: c6cb 733d 7b67 733c 6dc7 913c 1b9d 08bd
00000050: 4636 0c3d fa3a fa3c bb6a 803d dc6e d83c
00000060: e976 abbc 1099 5bbd 9d92 de3c 0f7d 19bc
00000070: ec29 4d3d d0f9 eebc 8f16 043d d5fc e93c
00000080: 23d7 c63d 59e1 e9b9 20f9 3e3c 3408 b83c
00000090: b80b adbc 0cd3 163d fed1 623d a66d 3d3d
000000a0: ae14 f33b bce2 16bc 2e8c b83c 3af4 783a
000000b0: 2b28 873c 94f0 fbbc 7f9d 683b 5c3a 433d
000000c0: 0263 41bc 832b 413d 1384 0cbd 2540 443d
000000d0: c246 9fbb c6e2 873d 772a 2dbd c4f5 f5bb
000000e0: 3f15 d33b e64f fd3c e3a7 94bc a96c af3d
000000f0: 6078 71bb 0fa6 913d 8fb6 573c d1a6 6d3b
00000100: e7b1 0bbd 7822 393d f9a1 10bd 2282 143d
00000110: beb5 79bd 4cf2 403c 1afc 05be 6938 833d
00000120: b131 dd3c 9688 753c 6d71 593c 50c9 74bc
00000130: 0044 263b 9739 803c ee54 923c 813f 9ebc
00000140: 0f2c 9b3c 1006 f3ba 4081 4c3d 8312 bbbc
00000150: 7099 72bc 734c 6cbb d0f0 0a3d bc7d 1dbd
00000160: be1b 813c 0421 f73c 1492 0f3c 51b8 003d
00000170: 8d54 a4bd acd0 303d 3195 cfbc 1431 bdbc
00000180: 9522 253d 6bff 62bb af9e a3bc 3788 633d
00000190: f8ff c8bd a8a4 1fbd 7008 893d 20f8 693d
000001a0: ff04 9b3c 6004 473c f082 48bd 9d07 58bd
000001b0: 7a16 86bb 5ce2 05bd 6fb9 2b3d 9fcd 383d
000001c0: 3ee9 03be 5a0e 053e c443 2c3e f446 e33c
000001d0: 2cdf 703e 6e94 cbbc 4921 9c3d 6404 183d
000001e0: 0a84 2b3d d14f 663d 52a6 e03d 3633 123d
000001f0: 4119 6cbd 28e5 8dbd 074c d9bd 5808 bfbd
00000200: 703a 063e 6933 72bd bf5c 113d deb7 51ba
00000210: fb74 6bbe 9e13 cdbc 6b97 933d b544 7ebd
00000220: 2f87 303d 9f37 30bd b536 4dbd ca93 093d
00000230: c74e 4abe b669 99bd 4625 c43b 94f4 dbbc
00000240: 57e0 d4bd 0e91 f53d 6726 253c f3de 4bbc
00000250: 87b8 ae3c aeaf e83d 7d63 a5bc 8564 053e
00000260: 096d 3b3d 1828 9a3d 7f7a 24be 7ebe e0bd
00000270: 40ca 7d3d 416a c2bb 54d5 85bb 8999 063d
00000280: bb27 c9bd 3a00 c1bd 19e2 03be 8223 34bd
00000290: 1ff1 27be 9e36 79bd 80f3 8c3d e834 3c3c
000002a0: 23c1 b93c 437d 7ebc 1acd cabb 61f5 2d3d
000002b0: 5442 13bd 76cd a1bd 0d53 6c3d fa7d 863d
000002c0: fac4 d1bb 7b29 31bd a39c f9bc 2c35 1dbd
000002d0: ed91 013d dfa5 8a3d 793b bbbc 4b54 8cbc
000002e0: c6b0 943d c2f6 f2bb 92d6 6d3d 667c c73d
000002f0: 06f7 bdbc c6a0 513d f022 47bc ab54 533d
00000300: 50c3 33be 3fc0 08be 6273 64be 2161 45be
00000310: 33d5 f93d bf61 c93e 0077 053e 4c28 5d3e
00000320: b3f1 edbd 6d73 0bbe b205 e53d 6f17 9a3d
00000330: 77d9 e83d 11cc b23d 0da2 fdba 079a 303e
00000340: 7cfc 4cbd 02a2 24be d022 e7be 3e62 c13d
00000350: c6b0 44be f0d6 b5be b620 4c3e a4bb 5bbe
00000360: 8a01 b53d 0008 d0bd f2ac 7abe 13e2 533c
00000370: 33d9 9fbd 2849 b8bd 3422 bebc 77f6 dbbc
00000380: dd19 f33d 2309 3f3e 5df6 aa3e b138 9fbe
00000390: 7389 c2bc 7dd3 8c3e f777 b93d 5788 16bf
000003a0: 6e53 f43d 65bd 453c 9fd7 2fbb 830c c8bc
000003b0: 7744 e63d 3963 6f3c 36bd ea3c f6bf 40bc
000003c0: 9a36 a9bc f9ca be3e a6a7 bfbd 9158 653e
000003d0: 378d dd3e e027 e4bd 1b0c 683c bf2f 373f
000003e0: 09f7 0b3e 81b7 81be 7432 24be 41bd b73e
000003f0: 0a0d cb3e f910 063e 19da 2fbe 2d45 803c

sequential/third/BiasAdd/ReadVariableOp f4 [6]
0.018586768 -0.0075777625 -0.007533973 -0.0056521758 -0.008099757 0.058454152
00000000: 4743 983c e14e f8bb 8cdf f6bb e335 b9bb
00000010: d8b4 04bc 9f6d 6f3d

sequential/dense/MatMul f4 [300, 200]
-0.8282704 -0.15514626 0.4316921 2.1436806 0.28915083 -1.1118437 -0.40406686 1.186604
-0.5949341 0.37418038 -0.048971828 -0.011586649 1.4371243 0.35603833 1.2022496 1.5333109
-0.10560447 -0.009588132 0.42740896 1.366517 1.0239415 0.81521624 -0.3020538 1.207921
0.14475608 -0.17216055 0.0206962 1.0341053 0.66125906 0.4719149 0.24341725 1.1562753
0.49077156 -0.30931073 -0.16692594 0.05808266 0.4419327 0.6958549 0.039836053 0.78054845
0.7680077 -0.27769175 -0.52288353 0.17839763 0.8290757 0.39125952 0.021303868 0.435996
0.5983853 -0.2994153 0.026118407 0.10243678 0.21041417 0.20785707 -0.08595411 0.50652313
0.7769316 -0.10765363 -0.059696052 -0.25808904 0.34302226 0.36928487 0.120374404 0.44630262
0.3222978 0.075755745 -0.025130672 -0.115603685 0.54378027 0.3025021 -0.423198 0.031757068
0.49224228 0.028273502 0.13041304 -0.39404112 0.27135515 0.3171816 -0.23674712 0.24692866
0.18006468 0.13152087 0.1954809 -0.4521114 0.18153162 0.07882494 -0.5436344 0.06810848
0.3956207 -0.031986386 0.16379651 -0.5226353 -0.1180668 0.2583838 -0.5570519 0.09289908
0.14074431 -0.08375672 -0.16910253 -0.04911749 -0.04907643 -0.12678507 -0.38171363 -0.02596979
0.1710113 0.051247556 0.32877865 -0.2552968 -0.02488117 0.002114338 0.037927188 0.0988219
-0.06186066 -0.1620573 -0.025214802 0.12042713 -0.20129606 -0.11032367 -0.5321635 0.016957762
0.059492327 -0.085207716 -0.0010860083 -0.30649695 -0.22836715 0.0009390305 -0.081914805 0.1411146
0.14829443 -0.074895374 -0.09138535 -0.12947305 -0.077374585 -0.032023758 -0.43655178 -0.09157775
0.15037598 0.036902275 0.22406189 0.09210665 0.10998405 -0.035881206 0.17788996 -0.045267176
0.071469426 -0.08258248 0.08848628 -0.19712183 0.04214707 -0.052584387 -0.16432251 0.026414111
-0.044017497 0.122191586 -0.06422804 0.020793373 -0.2643691 0.008880599 -0.15123084 -0.078419924
-0.031714186 0.038897667 0.18071094 0.08326266 0.058681276 0.15742189 -0.2708348 -0.19029634
0.06175894 -0.06576983 0.051042832 0.18271628 0.12098135 0.06959016 -0.1593385 -0.21122669
0.044187747 -0.2103075 0.025125701 -0.03457642 0.09001515 -0.03173119 -0.019495023 0.042948853
-0.059232578 0.025135107 0.046460822 0.1908047 0.022923706 -0.009265198 0.19418374 -0.141962
0.11755058 -0.020798678 0.110516466 -0.02899096 -0.11264018 0.04301831 0.18158765 -0.020296196
0.94212526 0.5478064 -0.47378594 -0.47683167 -0.24827215 0.63603526 -0.34792212 -0.043802645
0.7904736 -0.39577654 -0.38130292 1.2700129 -0.77513987 0.5825165 0.3790115 -0.999758
0.6400428 -0.32814085 -0.5043474 -0.10637659 -0.4114678 -0.2826722 0.9684081 -0.5489641
0.5337454 -0.9641622 0.08504683 -0.05972313 -0.48903438 -0.11334003 0.24766919 -1.1690401
0.023937877 -0.5998868 0.16574326 0.7386395 -0.43443662 -0.27527916 0.1930575 -0.89143795
-0.2950868 -0.6665207 0.2387419 0.66152996 -0.58175606 -0.0765005 0.18350692 -0.97465414
-0.056314066 -0.44789907 -0.23118196 -0.048157055 -0.31915686 -0.0694448 0.188388 -0.58535516
00000000: 8709 54bf a9de 1ebe bf06 dd3e 1032 0940
00000010: 940b 943e e550 8ebf dae1 cebe a4e2 973f
00000020: 9a4d 18bf 9294 bf3e af96 48bd eed5 3dbc
00000030: b0f3 b73f a84a b63e 51e3 993f 8843 c43f
00000040: 2847 d8bd 8a17 1dbc 59d5 da3e 07ea ae3f
00000050: 8410 833f 03b2 503f cca6 9abe 289d 9a3f
00000060: f03a 143e db4a 30be 148b a93c 905d 843f
00000070: 4648 293f d49e f13e 5f42 793e d400 943f
00000080: 6946 fb3e fa5d 9ebe a2ee 2abe 15e8 6d3d
00000090: 0145 e23e 8c23 323f 212b 233d 06d2 473f
000000a0: 279c 443f 9d2d 8ebe b2db 05bf dead 363e
000000b0: 4e3e 543f 2b53 c83e 7385 ae3c de3a df3e
000000c0: c72f 193f f64c 99be 45f6 d53c 60ca d13d
000000d0: d076 573e 7cd8 543e b508 b0bd 80ab 013f
000000e0: fde4 463f 8279 dcbd d983 74bd 3f24 84be
000000f0: 9da0 af3e e812 bd3e db86 f63d c781 e43e
00000100: 3804 a53e d425 9b3d d7de cdbc a0c1 ecbd
00000110: 2f35 0b3f 8ee1 9a3e 69ad d8be b313 023d
00000120: 2e07 fc3e d59d e73c ff8a 053e c2bf c9be
00000130: 10ef 8a3e a065 a23e d66d 72be deda 7c3e
00000140: e062 383e 68ad 063e 252c 483e 257b e7be
00000150: 6de3 393e f86e a13d a02b 0bbf 757c 8b3d
00000160: cc8e ca3e 2804 03bd 46ba 273e 6dcb 05bf
00000170: 02cd f1bd e24a 843e f49a 0ebf df41 be3d
00000180: 471f 103e a588 abbd 3729 2dbe 6c2f 49bd
00000190: 5e04 49bd f2d3 01be f86f c3be 99be d4bc
000001a0: 961d 2f3e f5e8 513d ad55 a83e 43b6 82be
000001b0: 98d3 cbbc b590 0a3b 8a59 1b3d 2363 ca3d
000001c0: 9a61 7dbd 59f2 25be 468f cebc 80a2 f63d
000001d0: 8e20 4ebe 60f1 e1bd de3b 08bf 01eb 8a3c
000001e0: 3aae 733d 6281 aebd 6458 8eba 2bed 9cbe
000001f0: 14d9 69be 4529 763a f3c2 a7bd 5880 103e
00000200: 7fda 173e bf62 99bd 3e28 bbbd 9594 04be
00000210: 9176 9ebd 582b 03bd b783 dfbe 1e8d bbbd
00000220: 29fc 193e d726 173d 7b70 653e 69a2 bc3d
00000230: 513f e13d 2cf8 12bd c928 363e 136a 39bd
00000240: 905e 923d 0121 a9bd 4b38 b53d 4eda 49be
00000250: 68a2 2c3d ba62 57bd 2944 28be 6862 d83c
00000260: b14b 34bd 953f fa3d fe89 83bd dd56 aa3c
00000270: 635b 87be ef7f 113c 42dc 1abe a09a a0bd
00000280: bce6 01bd 2953 1f3d 4a0c 393e 9d85 aa3d
00000290: c75b 703d 3433 213e dcaa 8abe 0bdd 42be
000002a0: f1f6 7c3d 55b2 86bd 4a12 513d fa19 3b3e
000002b0: 12c5 f73d 4985 8e3d a229 23be cf4b 58be
000002c0: 36fe 343d d95a 57be 6ad4 cd3c 01a0 0dbd
000002d0: dd59 b83d 90f8 01bd 07b4 9fbc 23eb 2f3d
000002e0: dc9d 72bd 24e8 cd3c b44d 3e3d 4f62 433e
000002f0: 7fca bb3c 0fcd 17bc 1ad8 463e 7d5e 11be
00000300: 5cbe f03d fd61 aabc 7556 e23d 737e edbc
00000310: e5af e6bd f833 303d 1df2 393e 3544 a6bc
00000320: 1f2f 713f 0a3d 0c3f 1294 f2be 4823 f4be
00000330: 0e3b 7ebe 35d3 223f d922 b2be 676a 33bd
00000340: 7a5c 4a3f 39a3 cabe 233a c3be c88f a23f
00000350: 916f 46bf cd1f 153f cc0d c23e 24f0 7fbf
00000360: d8d9 233f 1402 a8be e91c 01bf f8db d9bd
00000370: e8ab d2be 69ba 90be 98e9 773f e988 0cbf
00000380: 8aa3 083f 55d3 76bf 082d ae3d 3ea0 74bd
00000390: b762 fabe d11e e8bd fe9c 7d3e 1ba3 95bf
000003a0: 5e19 c43c 2e92 19bf 9ab8 293e 7a17 3d3f
000003b0: 7a6e debe 64f1 8cbe deb0 453e 4735 64bf
000003c0: 9e15 97be 1aa1 2abf c278 743e 075a 293f
000003d0: f7ed 14bf 4bac 9cbd 3de9 3b3e ef82 79bf
000003e0: 94a9 66bd 0753 e5be f7ba 6cbe 5540 45bd
000003f0: 8768 a3be 1339 8ebd c9e8 403e d6d9 15bf

sequential/third/MatMul f4 [6, 300]
0.30621976 -0.22070184 -0.30408147 -0.21700417 -0.2769131 -0.35273787 0.3636253 0.24097076
0.5328835 -0.57734096 0.14852989 -0.05955613 0.26077098 -0.021330629 -0.27130753 0.3368524
-0.5931597 0.4492547 0.05615076 -0.028910793 -0.60939676 -0.31955454 0.34128737 0.65732455
-0.36273268 0.3996175 -0.1251934 0.2273983 0.34117118 0.017658222 -0.35397294 0.29952782
-0.23340636 -0.08047676 0.3768276 0.30128947 0.39540157 -0.3002026 -0.58552516 0.37047976
0.2810236 0.612214 0.49083793 -0.20035645 -0.19806586 0.41643983 0.34698498 0.1079926
0.009754566 0.20666799 0.44229954 0.10451131 -0.020630399 0.29921493 -0.5049255 -0.35484493
0.46653697 -0.74329436 0.3717931 -0.7007733 -0.06151965 0.14614336 -0.077281676 -0.2947442
-0.8069781 -0.5869059 0.16990066 0.15182036 -0.30227682 -0.36136067 0.15788618 0.34501106
-0.685397 -0.41819632 0.35510284 0.06997189 -0.27261862 0.50760627 0.063453756 -0.32801518
0.48500624 -0.22569546 -0.66985613 0.27272573 -0.8708729 0.535915 -0.41197908 0.17279103
0.48123905 -0.17290254 0.1279415 0.43553323 0.00067592465 0.2013558 -0.5740286 -0.038260613
-0.19726495 -0.3425899 -0.25130948 -0.0687421 0.25936255 0.066633075 0.31236202 -0.83072776
-0.24296005 0.5416887 0.08586633 -0.15320654 0.34518638 0.7302168 0.38200086 0.17839381
0.04976232 0.34919998 -0.35453138 0.37946326 -0.34075412 -0.45281702 -0.2815553 -0.06596829
-0.9365065 0.091447435 -0.3865182 -0.7473667 0.20221145 0.29393134 0.2830333 -0.04198836
-0.5101136 -0.29096642 0.43019068 -0.3862748 0.43256685 0.29373005 0.29002357 -0.28559202
-0.5001771 -0.5303059 0.017333811 0.3842081 0.26547208 -0.11582262 0.052452844 0.35401508
0.027169546 0.19602357 0.35348335 -0.40563202 0.26147383 -0.75763255 0.10390588 0.40137547
-0.5979853 -0.65009683 -0.30570728 -0.18479307 -0.44126126 0.5090564 0.059473876 0.5629395
0.48314688 -0.3413669 0.38798523 -0.6260349 -0.4582129 0.0018697557 0.08122315 -0.4215747
0.23861541 0.5378196 0.108687006 -0.5891515 0.47574815 -0.31693313 0.1524689 -0.6973928
0.20180923 -0.34633338 -0.487192 0.24847879 0.05164684 0.18586269 -0.69476086 0.33092275
-0.11583613 -0.8336466 0.49639454 0.44732717 -0.52424335 0.18614832 -0.39795527 -0.8537821
-0.3971034 0.09126137 0.12407838 0.09851127 -0.52648467 0.15383624 -0.7691302 -0.33571452
0.3318683 0.05588635 -0.34524545 0.02469971 0.36548603 -0.57915264 0.26434392 -0.08269832
0.042442847 0.31050137 -0.3621888 -0.12020197 0.43048552 -0.44217432 0.41864616 0.4409128
0.5932572 -0.11717827 -0.06640247 -0.5926364 -0.27738503 0.3590656 0.06949942 0.48512277
0.51463455 0.21158612 0.20227452 -0.71436036 0.35979497 -0.087776326 -0.42811975 -0.25544673
0.36263543 -0.15673208 -0.4942227 0.46372992 -0.054702833 0.4505132 0.12262126 -0.37328225
-0.013272416 -0.3027851 0.3469835 -0.5979883 -0.484068 0.03834684 -0.49263605 0.37727904
0.14467447 0.09359392 0.11625682 -0.55628073 0.2572152 0.028941907 -0.4014861 0.40240517
00000000: d6c8 9c3e aaff 61be 91b0 9bbe 5736 5ebe
00000010: 8ec7 8dbe 0f9a b4be 182d ba3e 0ac1 763e
00000020: 0e6b 083f 9ecc 13bf 3818 183e 21f1 73bd
00000030: c683 853e 92bd aebc d2e8 8abe eb77 ac3e
00000040: 50d9 17bf b604 e63e 57fe 653d 54d6 ecbc
00000050: 6d01 1cbf a79c a3be 38bd ae3e 6c46 283f
00000060: 19b8 b9be aa9a cc3e b332 00be 1adb 683e
00000070: fdad ae3e faa7 903c f13b b5be b65b 993e
00000080: 1402 6fbe 00d1 a4bd 8cef c03e 9d42 9a3e
00000090: 1372 ca3e 28b4 99be fae4 15bf 86af bd3e
000000a0: 53e2 8f3e 0fba 1c3f 1c4f fb3e 3e2a 4dbe
000000b0: c7d1 4abe 9a37 d53e 04a8 b13e 392b dd3d
000000c0: 9dd1 1f3c c6a0 533e 1675 e23e 070a d63d
000000d0: 1501 a9bc b332 993e cc42 01bf 3cae b5be
000000e0: efdd ee3e 8a48 3ebf aa5b be3e e165 33bf
000000f0: 07fc 7bbd 9ba6 153e db45 9ebd b6e8 96be
00000100: 1e96 4ebf 773f 16bf 70fa 2d3e cc76 1b3e
00000110: 07c4 9abe 4404 b9be eaac 213e 4aa5 b03e
00000120: 2e76 2fbf d41d d6be 0ad0 b53e 6c4d 8f3d
00000130: ab94 8bbe 7cf2 013f 0bf4 813d 9bf1 a7be
00000140: bd52 f83e b61c 67be b17b 2bbf b5a2 8b3e
00000150: 87f1 5ebf ba31 093f ecee d2be 22f0 303e
00000160: f764 f63e 5d0d 31be 1903 033e 36fe de3e
00000170: 8930 313a 3730 4e3e 8af3 12bf 29b7 1cbd
00000180: d3ff 49be f267 afbe a3ab 80be a8c8 8cbd
00000190: 2bcb 843e ec76 883d eaed 9f3e 93aa 54bf
000001a0: 85ca 78be 1cac 0a3f b0da af3d 2de2 1cbe
000001b0: 45bc b03e 7def 3a3f 9e95 c33e deac 363e
000001c0: 93d3 4b3d 57ca b23e 2385 b5be 0249 c23e
000001d0: 5377 aebe a2d7 e7be 0428 90be 621a 87bd
000001e0: e4be 6fbf cb48 bb3d b7e5 c5be 6d53 3fbf
000001f0: 8510 4f3e 2b7e 963e bee9 903e fdfb 2bbd
00000200: ce96 02bf 8df9 94be f441 dc3e d0c5 c5be
00000210: 6779 dd3e c963 963e f87d 943e 1e39 92be
00000220: 9b0b 00bf 21c2 07bf a3ff 8d3c edb6 c43e
00000230: f5eb 873e 6934 edbd cbd8 563d 7741 b53e
00000240: ab92 de3c 67ba 483e c5fb b43e 00af cfbe
00000250: e6df 853e 35f4 41bf 9bcc d43d 1681 cd3e
00000260: 9115 19bf bf6c 26bf aa85 9cbe 653a 3dbe
00000270: ffec e1be 8551 023f e19a 733d ce1c 103f
00000280: 075f f73e a4c7 aebe 00a6 c63e d343 20bf
00000290: e29a eabe 9712 f53a 5358 a63d a4d8 d7be
000002a0: 9957 743e 8cae 093f 4b97 de3d a2d2 16bf
000002b0: 4395 f33e 0f45 a2be cf20 1c3e 5688 32bf
000002c0: 14a7 4e3e 9c52 b1be 3b71 f9be 3971 7e3e
000002d0: a38b 533d ca52 3e3e d9db 31bf b56e a93e
000002e0: 7e3b edbd dd69 55bf 6d27 fe3e 1108 e53e
000002f0: d034 06bf aa9d 3e3e cbc0 cbbe 7791 5abf
00000300: 2351 cbbe 3ee7 ba3d ce1c fe3d 47c0 c93d
00000310: b3c7 06bf 3f87 1d3e b7e5 44bf c6e2 abbe
00000320: a4ea a93e 16e9 643d 03c4 b0be 0c57 ca3c
00000330: fc20 bb3e 5943 14bf 1658 873e bd5d a9bd
00000340: 8dd8 2d3d 09fa 9e3e cf70 b9be 732c f6bd
00000350: 9968 dc3e ac64 e2be ca58 d63e 53bf e13e
00000360: b4df 173f 29fb efbd 05fe 87bd 05b7 17bf
00000370: 6905 8ebe 72d7 b73e b655 8e3d 0362 f83e
00000380: 17bf 033f 08aa 583e 0d21 4f3e 52e0 36bf
00000390: 0c37 b83e 13c4 b3bd 8332 dbbe eac9 82be
000003a0: 5aab b93e 607e 20be c20a fdbe 026e ed3e
000003b0: 1410 60bd aba9 e63e db20 fb3d da1e bfbe
000003c0: 8c74 59bc a606 9bbe d2a7 b13e c315 19bf
000003d0: c3d7 f7be 9311 1d3d cb3a fcbe b82a c13e
000003e0: 8b25 143e 2bae bf3d 0e18 ee3d 6a68 0ebf
000003f0: b6b1 833e 9417 ed3c 968f cdbe 0d08 ce3e
